Model/weights/model_test_111_10_best.pt (torch, 643698 bytes, 27 tensors)

lstm.weight_ih_l0 f4 [256, 2]
000000 bf 65 d6 3c 75 fe 96 3d b2 37 27 3b 02 6f 8c bd
       0.026171563 0.073727526 0.0025515375 -0.068571106
000010 48 78 75 bd 83 f0 b2 bc d6 64 e0 bd 48 9c 9e 3c
       -0.059929162 -0.0218432 -0.10956733 0.01936163
000020 ea 8a e4 bd 21 6b bd bd ee 2e 33 3e 60 1d 28 bb
       -0.11159308 -0.09248949 0.17498371 -0.0025652274
000030 ee 38 f8 bc 88 80 2b 3d e7 9b 22 bd a2 43 69 bd
       -0.030300584 0.041870624 -0.03969946 -0.056949265
000040 3b 28 ec 3b ed cf 04 3e b5 a3 7e bd d2 a1 3e 3d
       0.0072069443 0.12969942 -0.062167842 0.046541043
000050 f6 c7 dc bc 0d a1 d7 bd 3e f4 b4 3d 5d e5 4c 3c
       -0.026950818 -0.10528765 0.08835648 0.012505856
000060 34 4a 15 bd 66 91 97 bd b4 9d 91 bd ac 1b c2 bd
       -0.03644772 -0.074007794 -0.071101576 -0.09477934
000070 a9 9b 3a be c2 58 d3 bd cb de d6 bd 55 f7 dd bd
       -0.18223442 -0.103196636 -0.10491713 -0.108381905
000080 4b 9f 5e bd 30 de 64 bc 8e 0a 00 3d 89 9c a9 3d
       -0.054351132 -0.013968989 0.031260066 0.0828181
000090 04 2c ae 3c 8d 51 2a 3c b2 a0 01 be 5c 94 0f 3c
       0.021261223 0.01039542 -0.12658957 0.008763399
0000a0 88 bf 04 3e 46 30 de bb 17 0c 09 3c ab 79 06 be
       0.12963688 -0.006780657 0.008364699 -0.1313235
0000b0 18 00 05 be 0c b8 9e 3d db 50 46 bd c3 82 f2 bd
       -0.12988317 0.07749948 -0.048416954 -0.11841347
0000c0 2a 48 bc bd 65 ba 8f bd 08 d8 1e 3e c3 2d 21 bb
       -0.09193452 -0.07017974 0.15512097 -0.0024593927
0000d0 36 1e bd bd 68 a8 a1 bd af 8a ac be 8a b7 f8 bd
       -0.09234278 -0.07893449 -0.33699557 -0.12144382
0000e0 2b ed f9 bb cd 4c 27 3e d0 15 79 bd db 69 fb 3b
       -0.0076271496 0.16337891 -0.060811818 0.007672531
0000f0 5b 5e 1a be 5a 70 76 3c 93 92 34 3e 76 84 84 bd
       -0.15075056 0.015041435 0.17634039 -0.064705774
000100 27 26 74 3d d9 1f 5e 3d 68 0b b0 bd 4e 86 02 bc
       0.059606697 0.05422959 -0.085959256 -0.007966591
000110 69 a6 c4 bd a2 82 a1 3d bc d4 4c 3e 67 c3 81 3d
       -0.09602053 0.07886244 0.20003027 0.06336098
000120 29 d1 5f bd 4a f6 c7 3d 88 d7 7b 3c 26 81 bc bd
       -0.05464283 0.09763773 0.015371211 -0.092043206
000130 d1 e5 42 be fe 46 ad bd a9 54 0f bc 3e ca 2a bd
       -0.1903298 -0.08460806 -0.008748212 -0.04169678
000140 c0 00 aa bd 49 84 c2 3d 2c 37 e5 bd b4 1e ae bd
       -0.08300924 0.09497888 -0.11192164 -0.0850195
000150 95 3b af 3c 10 1b 9c bd 10 ab 28 bc 78 16 9e 3c
       0.021390716 -0.07622349 -0.010294691 0.019297823
000160 4f 45 e6 bd a7 8e 80 bc 0e 9c 2a be 52 a6 a4 bd
       -0.11243688 -0.015693022 -0.16661093 -0.080395356
000170 43 fa 86 bd 34 a0 28 3d 6b 4c 70 ba de 06 77 3d
       -0.065907024 0.041168407 -0.00091666606 0.060309283
000180 49 cd ee bd 84 02 0c 3d fc 10 aa bd ed c8 d9 b9
       -0.11660249 0.034182087 -0.08304021 -0.00041539167
000190 e3 26 a6 bd e1 ee eb 3d 20 ee 77 3e 3f 7e 97 3d
       -0.08112886 0.11520172 0.24211931 0.073971264
0001a0 c2 cd 03 3d db 22 20 be 27 57 9f bd 86 ef f5 3c
       0.032178648 -0.15638296 -0.07780295 0.03002144
0001b0 29 66 10 be fb aa 0e 3e 7d 3c 25 bd 28 72 75 3d
       -0.14101471 0.13932411 -0.04034089 0.05992332
0001c0 87 4c c1 bb 2d 55 9d 3d eb 9b 25 bd 9f 92 12 3d
       -0.0058990153 0.076822616 -0.040431898 0.03578436
0001d0 2f ae ab bd 39 8d 3b bc 41 82 16 3d 93 02 39 3e
       -0.08382832 -0.011447244 0.036745314 0.18067388
0001e0 d3 c9 13 3d d9 7f f1 3c aa cc c8 bd 84 a6 69 bd
       0.036081146 0.029479908 -0.098046616 -0.057043567
0001f0 4d 02 eb 3d c9 29 27 3b bc 64 2a be b8 a3 b4 bc
       0.11475048 0.0025507084 -0.1663999 -0.022050723
000200 56 a5 35 3e 29 a3 c6 bd de 38 ed bd af c0 9c bc
       0.17738852 -0.09699089 -0.11583112 -0.019134847
000210 f8 fb 53 3d bb e5 d8 3d d9 d8 7e bd 52 15 85 3c
       0.051753968 0.105906926 -0.06221852 0.016245518
000220 4a 5e 17 3d 77 7a 79 bd 2d 17 53 3c c0 e8 f4 bd
       0.036955155 -0.060907807 0.0128839435 -0.11958456
000230 64 c0 f7 bc 20 73 0d 3e 67 0b 86 3b c6 22 c1 bd
       -0.030243106 0.13813448 0.0040907147 -0.09430461
000240 f8 ed f9 3b 03 2d 0d 3e 69 4c fa bd c7 b1 8d 3c
       0.007627245 0.13786702 -0.12221605 0.017296685
000250 46 6d a6 3d ef e1 ec 3d 4e 61 8a 3c 37 a6 89 3e
       0.08126311 0.11566531 0.016892102 0.26884624
000260 d7 e1 82 be 12 1a 4b 3d 1e 8f b4 bd 7c bc 04 3e
       -0.25562927 0.04958541 -0.0881636 0.12962526
000270 50 8f a3 3d 01 16 9c bd d1 23 d9 3d e8 d9 90 bb
       0.07986319 -0.076213844 0.106025346 -0.0044205077
000280 8f 84 bf bd 37 f7 3c 3e 48 0b a4 bd 1e a9 47 3e
       -0.093514554 0.1845368 -0.08009964 0.19498107
000290 ae 24 8c bd 82 bc 28 3e 42 9d 5f be 9c 18 65 bc
       -0.068429336 0.1647816 -0.21837333 -0.013982918
0002a0 c6 c0 d1 3d fa e9 87 bd 26 c3 a6 bd a6 d4 6e bd
       0.10241847 -0.06636424 -0.0814269 -0.058308266
0002b0 d5 fb 15 bd f2 18 06 3e 4d 67 be bd a7 3f b1 bd
       -0.03661712 0.13095453 -0.09297047 -0.08654719
0002c0 52 b8 29 be 13 4e 2b bd c4 81 a1 3c f1 1c bc 3d
       -0.16574219 -0.041822504 0.019715197 0.09185208
0002d0 ed 36 b8 3d 7d 84 63 3d 59 0b ad bd af cd e3 bb
       0.08994851 0.055546273 -0.0844943 -0.0069520096
0002e0 e5 b4 d7 3c 72 52 e6 3d c4 d2 20 be 41 9c ce 3d
       0.026331374 0.11246194 -0.157054 0.10088397
0002f0 b8 73 9d bd 30 86 af 3c 25 7f b7 3c a0 ba 9e 3d
       -0.07688087 0.02142629 0.022399494 0.0775044
000300 60 ff 79 bd 1a e9 39 be 5a 32 22 3d 19 5b 3d bc
       -0.06103456 -0.18155327 0.0395988 -0.011557364
000310 e0 cc 5e be 4c a6 91 3d 98 70 24 be e6 85 85 bd
       -0.21757841 0.07111797 -0.16058576 -0.0651968
000320 ae 7e 40 be c4 9d 1e 3d e4 68 2b 3e 34 d3 15 be
       -0.18798324 0.038724676 0.16739231 -0.14631349
000330 cb ad 1f be ea 0f f0 3b 6c f8 94 3d c7 a6 f4 3c
       -0.1559364 0.007326116 0.07273945 0.029864682
000340 29 d9 66 bb c2 4f a7 3b f3 96 1f bd 0e 23 96 3d
       -0.0035224652 0.0051059434 -0.038962316 0.07330905
000350 f3 40 63 bd 5f 32 2f 3e 40 7b 60 3d fc 53 54 bd
       -0.055481862 0.17109059 0.05480504 -0.051837906
000360 03 18 f3 bd a7 ec 9e 3d ac 50 d5 bd ab 93 e2 bd
       -0.11869814 0.077599816 -0.104157776 -0.11063322
000370 10 12 a4 bc f4 c6 68 bc 84 8f 00 be 53 13 02 3e
       -0.020028144 -0.01420759 -0.12554747 0.12702684
000380 81 fb eb bc 18 41 9f bd 2b 07 0b 3d 1e 63 45 3d
       -0.02880645 -0.077760875 0.033942383 0.04819023
000390 a9 b2 13 be 10 28 62 bc 08 7b f4 3b be 6c 59 3e
       -0.14423622 -0.013803497 0.0074609555 0.21232888
0003a0 ca af 9c 3d e2 8d 16 3d 39 61 57 bd d9 91 c7 bd
       0.076507166 0.036756404 -0.052582953 -0.09744615
0003b0 f7 00 8e bd 8c f8 84 3c 81 30 35 bd 5c 3c e3 3d
       -0.06933778 0.016231798 -0.04423571 0.11095497
0003c0 02 ce 39 be 5c 16 0d be e8 6a fb 3c bc 01 f6 bd
       -0.18144992 -0.1377806 0.030690625 -0.120120496
0003d0 8b 91 57 bc 5b 7e 25 3d bb 2f c2 bc 4e 3c e3 3d
       -0.013157259 0.040403705 -0.0237044 0.110954866
0003e0 18 73 ea 3d 53 e8 24 3e e3 16 69 be a1 44 d5 3d
       0.11447734 0.1610425 -0.22762637 0.104134806
0003f0 43 72 91 bc d9 08 c4 3d 47 ea 80 3d 6e c8 81 be
       -0.01775468 0.09572 0.06294685 -0.25348228

lstm.weight_hh_l0 f4 [256, 64]
000000 6d f6 18 bd b2 79 0c 3e 54 65 f0 3d a4 e2 bb bd
       -0.037344385 0.13718298 0.11738077 -0.09174088
000010 b6 cb c0 bd 44 6b d7 bd 6c 4b 08 3d 17 e1 27 bd
       -0.09413855 -0.10518506 0.033275053 -0.040986147
000020 5b 2c d8 bc ae 47 8a bd 6c 7b 65 3d 12 f4 fa bc
       -0.026388338 -0.06751953 0.056025907 -0.03063396
000030 a6 09 51 3e 07 04 0b 3c 45 a5 d4 3d 41 0d a5 bc
       0.20413837 0.008484847 0.10383085 -0.020147922
000040 79 02 13 3d 97 e2 90 bd d5 c4 f2 3b 19 ac c7 bc
       0.03589103 -0.070744686 0.007408718 -0.024374055
000050 39 84 0e 3e ee 39 e7 3d 6b 24 ef 3d f6 08 f8 3d
       0.13917626 0.11290346 0.11676868 0.12111084
000060 86 eb 14 3c 74 4c 91 bb 9b 9f 51 3d ca 53 6c bc
       0.009089356 -0.0044341628 0.051177602 -0.014424274
000070 08 ca 60 bc 4e 9a 01 bd 0e 56 8d bd 17 84 26 3e
       -0.013720043 -0.031641297 -0.06901179 0.16261326
000080 ab 18 6b bd f4 8e 38 bd 12 85 b7 bc 26 b0 c3 3d
       -0.057396572 -0.045058206 -0.02240232 0.09555082
000090 39 01 eb bd e0 39 53 3c 16 43 be bb 8f 5c 8f bc
       -0.114748426 0.012892216 -0.005806337 -0.01750019
0000a0 07 ac 07 3e 36 d6 8e 3d 3a b3 60 bc ea 98 b9 3d
       0.13249217 0.06974451 -0.013714606 0.09062369
0000b0 cf 6a 92 bd e6 0a a2 3c 13 6b 0f bb e3 dc 0f 3c
       -0.07149278 0.019780587 -0.002188389 0.008780691
0000c0 d7 0d 9f bd 0a 25 22 3e df d9 02 3e 9b f9 c9 3d
       -0.077663116 0.15834442 0.12778424 0.098620616
0000d0 fe 84 54 3d 8a 37 1a be 25 56 12 bd eb 6b cb bc
       0.051884644 -0.15060249 -0.035726685 -0.024831733
0000e0 4a fc 7e be 7c a9 8c bd f5 73 9a 3c 2e ed 1f bd
       -0.24900928 -0.06868264 0.01885412 -0.03904455
0000f0 cb 6e 90 3d f0 de 6d 3d 49 8c 58 3b 26 8f 46 bd
       0.07052382 0.058073938 0.00330426 -0.04847636
000100 8f 25 27 3e 17 c4 ed bc 29 55 ec 3c 41 4d 9c 3d
       0.16322921 -0.029024167 0.028849201 0.076319225
000110 6a 4d 38 3d fe 52 9c bd 92 fb ca bd 87 83 c2 3c
       0.044995703 -0.07633017 -0.099112645 0.023744358
000120 e9 b9 97 3d c3 1c a0 3d 11 46 9f bc 66 41 9c bc
       0.074085064 0.07817986 -0.01944259 -0.019074153
000130 ef 93 ff bc 3e 2c cc 3d 98 8f c4 3d 0a fa 85 3c
       -0.03119847 0.09969376 0.09597701 0.01635458
000140 4e 47 eb 3d 8c 0a 13 bc d8 90 77 3c 3e 91 df bd
       0.1148821 -0.008974683 0.015110217 -0.109163746
000150 48 0c 13 3e 78 b7 c0 bd 54 4b dc 3c 5d df ff bc
       0.14360154 -0.09409994 0.026891388 -0.031234438
000160 1f fe b5 3d 96 92 99 3c 93 0c b1 bd ae 92 65 3d
       0.088863604 0.018746655 -0.086449765 0.056048088
000170 75 e5 33 bd 26 03 03 3e 66 03 ad bd 00 8b a9 bd
       -0.04392 0.1279417 -0.08447914 -0.08278465
000180 6d 87 9a 3c e5 68 32 3d 8a 39 9c bd 3a ba 87 3c
       0.018863404 0.043557066 -0.07628162 0.016568292
000190 22 a7 07 3e 69 6a 0f 3d fb fe 03 3e c8 91 3c bd
       0.1324735 0.03501359 0.12890236 -0.046037465
0001a0 49 08 9a 3c 68 bb 7c 3c 79 50 92 ba 1e e0 59 3d
       0.018802779 0.0154255405 -0.0011162899 0.05319225
0001b0 62 b3 4d bc 90 a8 94 3c 75 4e 81 bc 9a 46 c8 3b
       -0.012554975 0.018146783 -0.015784482 0.006111932
0001c0 8c dd 64 bd 89 78 fb bc 82 76 32 3d 42 50 ba bd
       -0.055875346 -0.030697124 0.04357005 -0.09097339
0001d0 32 cd 78 bd 45 5f 85 bd 1a e0 93 3c 54 59 90 bd
       -0.060742564 -0.06512312 0.018051196 -0.07048288
0001e0 8d f0 ca bd 48 41 59 3e ad b8 ae bb 3d c1 f9 bd
       -0.09909163 0.21216309 -0.0053320737 -0.121950604
0001f0 19 6d 4f bd 99 ef 50 3c e6 ff 1c bd d7 1b 2c 3e
       -0.050641153 0.012752437 -0.03832998 0.16807495
000200 23 e8 c5 bd 29 ec f3 3c 26 4b 76 be 37 b4 2d 3d
       -0.09663417 0.029775696 -0.24052104 0.042408194
000210 66 44 c6 3d e9 e8 61 bd 52 4c 95 bd 29 2e 32 bd
       0.09681015 -0.05515376 -0.072899476 -0.043501053
000220 40 90 1b be c7 9c c3 3d 76 d2 c2 3c 41 0b 50 bd
       -0.15191746 0.09551387 0.023781996 -0.050791983
000230 99 81 27 be fd 40 26 3d 70 91 86 bc f9 00 d6 3d
       -0.16358031 0.04058932 -0.016426772 0.10449404
000240 1b dc bd bb e3 ef c1 bd bc bf 6c bc ce b6 4a bd
       -0.005794061 -0.09469583 -0.01445001 -0.049490742
000250 c9 f7 13 bd 0c c9 94 3c bc a5 0f bd 01 87 8e bc
       -0.03612498 0.018162273 -0.035070166 -0.01739836
000260 e1 95 14 3d d1 45 99 bd 27 46 c8 bc ee c9 c2 3d
       0.03627575 -0.074840195 -0.024447514 0.09511171
000270 08 be 5f bd 41 7a 19 3d 6e a1 a0 3d 96 ed e2 bb
       -0.054624587 0.037470106 0.0784329 -0.006925295
000280 0a 8d 2a bc d6 95 c8 bd 2c 36 db bb 17 73 98 3d
       -0.010409603 -0.09794204 -0.0066898074 0.07443827
000290 07 88 41 3d b5 14 37 3d 0c 72 41 bd 9b 9c 02 be
       0.047248866 0.044697482 -0.047227904 -0.12755053
0002a0 3f ba a7 3d c2 fe 3a be 80 d1 4b 3c b5 c6 06 bd
       0.081898205 -0.18261245 0.012440085 -0.032904346
0002b0 3d c6 8f bb 27 5f cb 3d 83 95 8a 3d 52 f3 6a bd
       -0.0043876455 0.09930258 0.06766798 -0.057360955
0002c0 47 2d a2 3d 9b c4 6b 3d 1a cf fe bd 92 3f 5f bd
       0.07918792 0.057560544 -0.12441845 -0.054503985
0002d0 da 6c f0 bd f5 79 c5 bd 88 d7 c7 bd b0 5f a1 3a
       -0.11739512 -0.09642402 -0.09757906 0.0012311842
0002e0 6a 57 47 bc 86 df 96 3d 1d 8c 74 bc 2f 8f 73 bd
       -0.012166837 0.073668525 -0.014925984 -0.059462722
0002f0 2f 86 a6 3d 96 c2 73 3c 31 34 a5 bd 7f ff 62 bd
       0.08131062 0.014877936 -0.08066595 -0.05541944
000300 46 c3 7e bd ba 0a 2e be 1d 7d ae bc ef ad 51 bd
       -0.062197946 -0.1699628 -0.021299893 -0.051191267
000310 19 a1 f0 bc 94 f9 3a 3d 40 89 f1 bc af 15 d5 3d
       -0.029373692 0.045648172 -0.029484391 0.104045264
000320 ed 27 21 3d f6 7a de 3c 1c 13 29 be 79 c5 16 bd
       0.039344717 0.027158242 -0.16511196 -0.03680942
000330 b2 33 98 3d f5 79 80 bd 60 b9 bd 3a 63 54 b2 bd
       0.07431735 -0.062732615 0.0014474802 -0.08707502
000340 1d 5b 17 be 26 9f a7 3c e7 a9 2e 3e ca 32 66 3d
       -0.1478085 0.02046163 0.17057 0.05620078
000350 de b1 d7 bd 89 b4 8c be 0e ea c7 3d 21 c6 2d 3d
       -0.10531972 -0.27481487 0.09761439 0.04242528
000360 0b af ec bd 2c d7 64 bd 01 d6 12 3e 18 f7 b6 3d
       -0.11556824 -0.055869266 0.14339449 0.08933848
000370 43 38 60 3d d9 3c 04 3b 5d ab 09 bd fe cb c3 bd
       0.054741155 0.002017787 -0.03361069 -0.09560393
000380 8f cd 3c 3c 8d ec d2 3c 6f a7 08 be bb f2 09 3d
       0.011523618 0.025747562 -0.13345121 0.03367875
000390 15 67 dd bd 6a ea aa 3d 4d dc e4 bd 60 df 0b be
       -0.10810677 0.08345492 -0.111748315 -0.1365943
0003a0 08 68 ac 3d 22 26 f8 bd d7 35 c6 bd 88 a3 d2 bd
       0.0841828 -0.12116648 -0.09678238 -0.10285097
0003b0 9f cf c2 3d 99 7c a7 ba 7d 15 ca bd 7b c0 15 3e
       0.09512257 -0.0012778222 -0.0986738 0.14624207
0003c0 68 90 86 bd b5 d3 79 3c a6 87 90 bd 9b 57 2b 3e
       -0.06570512 0.015248229 -0.07057123 0.16732638
0003d0 f1 90 49 3d ba 7d e3 bd ee ef 19 bd 18 98 22 3e
       0.049210493 -0.11107965 -0.03758233 0.15878332
0003e0 48 87 d6 bd aa cb e1 bc 45 1f ed bc 9d 5b b0 bb
       -0.104750216 -0.027562935 -0.028945575 -0.005382015
0003f0 ef 84 1f bd 08 6b 4f bc af 9c ab bb 6b 8b c7 bd
       -0.038945135 -0.012659796 -0.005237184 -0.09743389

lstm.bias_ih_l0 f4 [256]
000000 93 f4 93 bd e9 d9 f9 bc 31 87 07 3c e7 a5 9d bd
       -0.07224383 -0.030499415 0.008271978 -0.07697659
000010 6e 12 b6 bc 1f 7a 8d bc 9d 99 c2 bd 4e ff a8 bc
       -0.022225585 -0.017270146 -0.09501956 -0.020629551
000020 19 eb 91 bd 13 a1 9d bb 4d 34 1d bd fa 68 56 bd
       -0.071249194 -0.0048104613 -0.038379956 -0.052346207
000030 39 32 a2 bd 04 7d 31 bd 06 a5 10 bd af 9e f1 bc
       -0.079197355 -0.043332115 -0.03531363 -0.029494612
000040 03 97 6b bd ca 0a 2f bd c7 c8 1c bd e7 56 26 bd
       -0.057517063 -0.0427349 -0.038277414 -0.04061022
000050 26 2a db bd 9a 87 81 bd 30 e0 25 bd 5a 5a 06 bd
       -0.107013986 -0.06324692 -0.040497005 -0.03280101
000060 06 04 32 bd f9 70 41 bd d8 f5 fb bc 42 01 5d bd
       -0.04346087 -0.04722688 -0.030756876 -0.053956278
000070 1e 04 a9 bd 12 48 05 be 01 72 a8 bd 82 d0 3b bd
       -0.082527384 -0.13015774 -0.082248695 -0.045853145
000080 f3 91 f6 bc 9a 62 c8 3b 79 32 66 bd 2b cf a1 bc
       -0.03009889 0.00611527 -0.05620048 -0.019752106
000090 80 36 22 bd e1 c4 52 bd 60 a1 77 bd 28 55 ab bc
       -0.039602757 -0.05145729 -0.060456634 -0.02091463
0000a0 c3 c6 5c bd 2e 00 50 bd de 9c 07 bd 0c 7e b1 bd
       -0.05390049 -0.05078142 -0.033108585 -0.0866662
0000b0 c0 63 5f bd 37 01 ad bd e3 4b 64 bd 5e 13 7b bd
       -0.05453849 -0.08447497 -0.055736434 -0.061297767
0000c0 7c 8a 38 bd 9a fb a7 bd 31 1d b8 bd 78 d8 a6 bd
       -0.045053944 -0.08202286 -0.08989943 -0.08146757
0000d0 d3 25 19 bd 0b da af bd 48 eb 6d bd e3 cd a8 bd
       -0.037389588 -0.0858651 -0.05808571 -0.08242395
0000e0 2c 35 42 bd 75 56 bd bc fb 87 f5 bc d4 aa a4 3c
       -0.04741399 -0.023112515 -0.029972067 0.020100988
0000f0 84 82 9f bd c6 6e 39 bd 37 22 c9 bd 49 0d 08 ba
       -0.07788566 -0.045271657 -0.09820979 -0.0005189968
000100 79 b6 69 3f 04 81 77 3f 33 b1 7d 3f 09 0e 6d 3f
       0.91294056 0.9668124 0.9909851 0.9259954
000110 59 1b 75 3f 72 ff 78 3f 09 05 67 3f 83 39 79 3f
       0.95744854 0.9726478 0.9024206 0.9735338
000120 2f 9c 6b 3f b4 d1 7c 3f 33 33 70 3f 87 75 69 3f
       0.9203519 0.9875748 0.93828124 0.9119496
000130 81 8b 6e 3f 73 2c 75 3f 16 c8 7a 3f 2b 70 76 3f
       0.93181616 0.9577095 0.97961557 0.96264905
000140 72 88 6f 3f 32 04 72 3f 32 f8 70 3f 8f f0 77 3f
       0.93567574 0.9453765 0.94128716 0.9685144
000150 45 11 72 3f d3 34 75 3f f9 ec 73 3f 34 80 78 3f
       0.945576 0.9578373 0.95283467 0.9707062
000160 9e 8e 73 3f 91 60 70 3f c2 06 77 3f 99 8a 75 3f
       0.9513949 0.9389735 0.96494687 0.9591461
000170 98 22 6b 3f 7f 33 54 3f c9 10 6f 3f d1 28 74 3f
       0.9184966 0.82891077 0.9338499 0.9537478
000180 fe a9 7a 3f 56 b8 80 3f 8c b5 72 3f 75 42 7d 3f
       0.9791564 1.0056255 0.9480827 0.9892953
000190 f2 5a 72 3f f9 df 72 3f 31 cb 70 3f dc 7b 78 3f
       0.9467002 0.94873005 0.94060045 0.97063994
0001a0 19 8a 77 3f d5 f5 72 3f e8 37 6f 3f 69 28 6a 3f
       0.96695095 0.9490636 0.9344468 0.9146791
0001b0 a3 a8 71 3f 94 4a 68 3f d8 33 71 3f c6 7a 6e 3f
       0.94397944 0.907388 0.9421973 0.9315609
0001c0 e7 4d 74 3f 85 0e 6b 3f 3d ba 67 3f 02 c7 6b 3f
       0.9543137 0.9181903 0.9051855 0.92100537
0001d0 98 43 6d 3f f8 60 66 3f 08 7e 73 3f bc ec 6f 3f
       0.92681265 0.8999171 0.95114183 0.93720603
0001e0 1a 66 78 3f e7 8b 78 3f 38 38 7a 3f 04 f5 7e 3f
       0.97030795 0.97088474 0.97742033 0.99592614
0001f0 68 ad 6c 3f c3 53 77 3f 7c d0 6a 3f 5b e4 7c 3f
       0.92452097 0.96612185 0.9172437 0.9878594
000200 43 76 31 3b ed c8 05 3d 1c 7b 4d bc 2c e6 69 3c
       0.0027078546 0.03266232 -0.012541559 0.014276069
000210 cb ee a0 bb 89 db 26 bc ee 3d 96 3c 42 18 b2 3b
       -0.004911279 -0.010184177 0.018340077 0.0054350207
000220 69 29 bc bb 3b 02 45 3c fb 90 74 bb 03 93 98 bc
       -0.005742241 0.012024458 -0.003731786 -0.018624788
000230 e6 11 49 3d c6 73 13 3c 8b c2 f4 bb 84 32 1b 3d
       0.049089335 0.0089997705 -0.0074694804 0.037889972
000240 df 0b 82 3c ec 78 ae bc 6b 7a a5 bc b0 1e 15 bd
       0.015874801 -0.021297894 -0.020199975 -0.03640622
000250 96 ee 38 bd 6d cd 8d bb b2 8b 26 bd 06 a3 73 bc
       -0.04514941 -0.004327467 -0.040660568 -0.014870411
000260 52 5b 89 bb 17 20 5f 3b b5 df 15 bc a4 dc 16 3b
       -0.0041917944 0.0034046227 -0.009147574 0.0023019696
000270 9a 47 fd 3c 5c d8 90 39 4a 92 98 3c f6 73 a2 39
       0.030917931 0.0002762702 0.018624444 0.00030985445
000280 6d 70 0d bb 21 45 0a bc d5 25 d1 3c bb 68 5d bd
       -0.0021581904 -0.008439333 0.025530735 -0.054054957
000290 64 bf 9c 3b b3 ef ea bc e7 94 56 3c 34 cd db 3b
       0.0047835577 -0.02867875 0.0130970245 0.0067078117
0002a0 18 8f bf 3c b2 96 7d bc 3c ab 77 3c f5 3f 75 bc
       0.023383662 -0.015477823 0.015116509 -0.014968862
0002b0 b3 05 2d 3d 2a cb 47 ba 9b 91 d6 3c d7 e6 32 bc
       0.042241763 -0.00076215214 0.026192477 -0.010919294
0002c0 80 55 31 bc 9b 18 41 3c 20 c8 b8 3a 95 d4 0d bd
       -0.010823607 0.011785652 0.0014097728 -0.034626562
0002d0 eb e4 cf 3c 9d 60 98 3a c1 88 a0 3c 3c e3 9c bc
       0.025377711 0.0011625473 0.01959646 -0.019151323
0002e0 8d e8 10 3d 8b 18 66 bd 0b b7 b9 3c 1d 1a a5 bb
       0.035378028 -0.05617575 0.02267029 -0.0050385133
0002f0 9f 5a 36 3d 22 aa 70 bc 18 e0 c5 bb e7 41 03 3d
       0.044520017 -0.014689 -0.006038677 0.03204527
000300 06 a5 89 bd 71 74 52 bd 20 cd b3 3b e7 53 8f bd
       -0.06720929 -0.05138058 0.0054870993 -0.06998425
000310 ac 20 ae bc 2b 10 69 bc 8f 31 ab bd 3f 96 ac bc
       -0.021255814 -0.014225046 -0.08359062 -0.021067737
000320 f9 8c 8f bd 1f 9d 82 bb 6a 02 3c bd ea 55 35 bd
       -0.0700931 -0.0039860155 -0.04590074 -0.044271387
000330 48 6b 8c bd 71 b5 08 bd 23 d2 f4 bc cf d1 88 bd
       -0.068564 -0.03337616 -0.029885357 -0.06680643
000340 c0 83 5a bd b6 ba 41 bd c8 c4 ff bc fb 84 33 bd
       -0.053348303 -0.047297202 -0.031221762 -0.043827992
000350 d8 b7 f7 bd 21 b3 48 bd 7e 55 86 bd 72 e8 bb bc
       -0.12095612 -0.048998956 -0.06559275 -0.022937987
000360 9c 17 05 bd ce 62 5b bd 55 f3 0d bd 9f fd 81 bd
       -0.03249322 -0.053561024 -0.034655888 -0.063472025
000370 56 0a 95 bd 89 8a c3 bd bd 1a aa bd f1 2f d6 bc
       -0.07277362 -0.09547908 -0.08305881 -0.026145907
000380 0e c2 b2 bc fa c8 22 bc 06 b2 8a bd 53 b6 2d bd
       -0.021821048 -0.009935612 -0.067722365 -0.042410206
000390 8d c5 3f bd 57 42 ce bd 8d 32 6f bd 29 5e c2 bc
       -0.04681926 -0.10071247 -0.05839782 -0.02372654
0003a0 6f fd 65 bd 49 a5 45 bd fa 15 d8 bc 9f 16 95 bd
       -0.056149896 -0.04825333 -0.026377667 -0.07279705
0003b0 d3 6e b9 bd f9 bd 64 bd 3e 8f 59 bd eb 29 6b bd
       -0.09054341 -0.055845235 -0.053115122 -0.057413023
0003c0 f9 e5 72 bd 82 ff b9 bd 4d cf b5 bd f6 52 ed bd
       -0.05930135 -0.090819374 -0.0887743 -0.11588089
0003d0 8a fe 10 bd bc ed b2 bd 19 2e 71 bd 7d a3 b8 bd
       -0.035398997 -0.087367505 -0.058881853 -0.09015558
0003e0 1e d4 b7 bd 6a ca a2 bd 8e 8f f9 bc 84 94 be 3c
       -0.08976005 -0.07948764 -0.03046396 0.023264177
0003f0 94 ea ca bd 96 bd 6d bd e4 c9 ac bd 61 17 27 bd
       -0.099080235 -0.05804213 -0.08436945 -0.04079378

lstm.bias_hh_l0 f4 [256]
000000 93 f4 93 bd e9 d9 f9 bc 31 87 07 3c e7 a5 9d bd
       -0.07224383 -0.030499415 0.008271978 -0.07697659
000010 6e 12 b6 bc 1f 7a 8d bc 9d 99 c2 bd 4e ff a8 bc
       -0.022225585 -0.017270146 -0.09501956 -0.020629551
000020 19 eb 91 bd 13 a1 9d bb 4d 34 1d bd fa 68 56 bd
       -0.071249194 -0.0048104613 -0.038379956 -0.052346207
000030 39 32 a2 bd 04 7d 31 bd 06 a5 10 bd af 9e f1 bc
       -0.079197355 -0.043332115 -0.03531363 -0.029494612
000040 03 97 6b bd ca 0a 2f bd c7 c8 1c bd e7 56 26 bd
       -0.057517063 -0.0427349 -0.038277414 -0.04061022
000050 26 2a db bd 9a 87 81 bd 30 e0 25 bd 5a 5a 06 bd
       -0.107013986 -0.06324692 -0.040497005 -0.03280101
000060 06 04 32 bd f9 70 41 bd d8 f5 fb bc 42 01 5d bd
       -0.04346087 -0.04722688 -0.030756876 -0.053956278
000070 1e 04 a9 bd 12 48 05 be 01 72 a8 bd 82 d0 3b bd
       -0.082527384 -0.13015774 -0.082248695 -0.045853145
000080 f3 91 f6 bc 9a 62 c8 3b 79 32 66 bd 2b cf a1 bc
       -0.03009889 0.00611527 -0.05620048 -0.019752106
000090 80 36 22 bd e1 c4 52 bd 60 a1 77 bd 28 55 ab bc
       -0.039602757 -0.05145729 -0.060456634 -0.02091463
0000a0 c3 c6 5c bd 2e 00 50 bd de 9c 07 bd 0c 7e b1 bd
       -0.05390049 -0.05078142 -0.033108585 -0.0866662
0000b0 c0 63 5f bd 37 01 ad bd e3 4b 64 bd 5e 13 7b bd
       -0.05453849 -0.08447497 -0.055736434 -0.061297767
0000c0 7c 8a 38 bd 9a fb a7 bd 31 1d b8 bd 78 d8 a6 bd
       -0.045053944 -0.08202286 -0.08989943 -0.08146757
0000d0 d3 25 19 bd 0b da af bd 48 eb 6d bd e3 cd a8 bd
       -0.037389588 -0.0858651 -0.05808571 -0.08242395
0000e0 2c 35 42 bd 75 56 bd bc fb 87 f5 bc d4 aa a4 3c
       -0.04741399 -0.023112515 -0.029972067 0.020100988
0000f0 84 82 9f bd c6 6e 39 bd 37 22 c9 bd 49 0d 08 ba
       -0.07788566 -0.045271657 -0.09820979 -0.0005189968
000100 79 b6 69 3f 04 81 77 3f 33 b1 7d 3f 09 0e 6d 3f
       0.91294056 0.9668124 0.9909851 0.9259954
000110 59 1b 75 3f 72 ff 78 3f 09 05 67 3f 83 39 79 3f
       0.95744854 0.9726478 0.9024206 0.9735338
000120 2f 9c 6b 3f b4 d1 7c 3f 33 33 70 3f 87 75 69 3f
       0.9203519 0.9875748 0.93828124 0.9119496
000130 81 8b 6e 3f 73 2c 75 3f 16 c8 7a 3f 2b 70 76 3f
       0.93181616 0.9577095 0.97961557 0.96264905
000140 72 88 6f 3f 32 04 72 3f 32 f8 70 3f 8f f0 77 3f
       0.93567574 0.9453765 0.94128716 0.9685144
000150 45 11 72 3f d3 34 75 3f f9 ec 73 3f 34 80 78 3f
       0.945576 0.9578373 0.95283467 0.9707062
000160 9e 8e 73 3f 91 60 70 3f c2 06 77 3f 99 8a 75 3f
       0.9513949 0.9389735 0.96494687 0.9591461
000170 98 22 6b 3f 7f 33 54 3f c9 10 6f 3f d1 28 74 3f
       0.9184966 0.82891077 0.9338499 0.9537478
000180 fe a9 7a 3f 56 b8 80 3f 8c b5 72 3f 75 42 7d 3f
       0.9791564 1.0056255 0.9480827 0.9892953
000190 f2 5a 72 3f f9 df 72 3f 31 cb 70 3f dc 7b 78 3f
       0.9467002 0.94873005 0.94060045 0.97063994
0001a0 19 8a 77 3f d5 f5 72 3f e8 37 6f 3f 69 28 6a 3f
       0.96695095 0.9490636 0.9344468 0.9146791
0001b0 a3 a8 71 3f 94 4a 68 3f d8 33 71 3f c6 7a 6e 3f
       0.94397944 0.907388 0.9421973 0.9315609
0001c0 e7 4d 74 3f 85 0e 6b 3f 3d ba 67 3f 02 c7 6b 3f
       0.9543137 0.9181903 0.9051855 0.92100537
0001d0 98 43 6d 3f f8 60 66 3f 08 7e 73 3f bc ec 6f 3f
       0.92681265 0.8999171 0.95114183 0.93720603
0001e0 1a 66 78 3f e7 8b 78 3f 38 38 7a 3f 04 f5 7e 3f
       0.97030795 0.97088474 0.97742033 0.99592614
0001f0 68 ad 6c 3f c3 53 77 3f 7c d0 6a 3f 5b e4 7c 3f
       0.92452097 0.96612185 0.9172437 0.9878594
000200 43 76 31 3b ed c8 05 3d 1c 7b 4d bc 2c e6 69 3c
       0.0027078546 0.03266232 -0.012541559 0.014276069
000210 cb ee a0 bb 89 db 26 bc ee 3d 96 3c 42 18 b2 3b
       -0.004911279 -0.010184177 0.018340077 0.0054350207
000220 69 29 bc bb 3b 02 45 3c fb 90 74 bb 03 93 98 bc
       -0.005742241 0.012024458 -0.003731786 -0.018624788
000230 e6 11 49 3d c6 73 13 3c 8b c2 f4 bb 84 32 1b 3d
       0.049089335 0.0089997705 -0.0074694804 0.037889972
000240 df 0b 82 3c ec 78 ae bc 6b 7a a5 bc b0 1e 15 bd
       0.015874801 -0.021297894 -0.020199975 -0.03640622
000250 96 ee 38 bd 6d cd 8d bb b2 8b 26 bd 06 a3 73 bc
       -0.04514941 -0.004327467 -0.040660568 -0.014870411
000260 52 5b 89 bb 17 20 5f 3b b5 df 15 bc a4 dc 16 3b
       -0.0041917944 0.0034046227 -0.009147574 0.0023019696
000270 9a 47 fd 3c 5c d8 90 39 4a 92 98 3c f6 73 a2 39
       0.030917931 0.0002762702 0.018624444 0.00030985445
000280 6d 70 0d bb 21 45 0a bc d5 25 d1 3c bb 68 5d bd
       -0.0021581904 -0.008439333 0.025530735 -0.054054957
000290 64 bf 9c 3b b3 ef ea bc e7 94 56 3c 34 cd db 3b
       0.0047835577 -0.02867875 0.0130970245 0.0067078117
0002a0 18 8f bf 3c b2 96 7d bc 3c ab 77 3c f5 3f 75 bc
       0.023383662 -0.015477823 0.015116509 -0.014968862
0002b0 b3 05 2d 3d 2a cb 47 ba 9b 91 d6 3c d7 e6 32 bc
       0.042241763 -0.00076215214 0.026192477 -0.010919294
0002c0 80 55 31 bc 9b 18 41 3c 20 c8 b8 3a 95 d4 0d bd
       -0.010823607 0.011785652 0.0014097728 -0.034626562
0002d0 eb e4 cf 3c 9d 60 98 3a c1 88 a0 3c 3c e3 9c bc
       0.025377711 0.0011625473 0.01959646 -0.019151323
0002e0 8d e8 10 3d 8b 18 66 bd 0b b7 b9 3c 1d 1a a5 bb
       0.035378028 -0.05617575 0.02267029 -0.0050385133
0002f0 9f 5a 36 3d 22 aa 70 bc 18 e0 c5 bb e7 41 03 3d
       0.044520017 -0.014689 -0.006038677 0.03204527
000300 06 a5 89 bd 71 74 52 bd 20 cd b3 3b e7 53 8f bd
       -0.06720929 -0.05138058 0.0054870993 -0.06998425
000310 ac 20 ae bc 2b 10 69 bc 8f 31 ab bd 3f 96 ac bc
       -0.021255814 -0.014225046 -0.08359062 -0.021067737
000320 f9 8c 8f bd 1f 9d 82 bb 6a 02 3c bd ea 55 35 bd
       -0.0700931 -0.0039860155 -0.04590074 -0.044271387
000330 48 6b 8c bd 71 b5 08 bd 23 d2 f4 bc cf d1 88 bd
       -0.068564 -0.03337616 -0.029885357 -0.06680643
000340 c0 83 5a bd b6 ba 41 bd c8 c4 ff bc fb 84 33 bd
       -0.053348303 -0.047297202 -0.031221762 -0.043827992
000350 d8 b7 f7 bd 21 b3 48 bd 7e 55 86 bd 72 e8 bb bc
       -0.12095612 -0.048998956 -0.06559275 -0.022937987
000360 9c 17 05 bd ce 62 5b bd 55 f3 0d bd 9f fd 81 bd
       -0.03249322 -0.053561024 -0.034655888 -0.063472025
000370 56 0a 95 bd 89 8a c3 bd bd 1a aa bd f1 2f d6 bc
       -0.07277362 -0.09547908 -0.08305881 -0.026145907
000380 0e c2 b2 bc fa c8 22 bc 06 b2 8a bd 53 b6 2d bd
       -0.021821048 -0.009935612 -0.067722365 -0.042410206
000390 8d c5 3f bd 57 42 ce bd 8d 32 6f bd 29 5e c2 bc
       -0.04681926 -0.10071247 -0.05839782 -0.02372654
0003a0 6f fd 65 bd 49 a5 45 bd fa 15 d8 bc 9f 16 95 bd
       -0.056149896 -0.04825333 -0.026377667 -0.07279705
0003b0 d3 6e b9 bd f9 bd 64 bd 3e 8f 59 bd eb 29 6b bd
       -0.09054341 -0.055845235 -0.053115122 -0.057413023
0003c0 f9 e5 72 bd 82 ff b9 bd 4d cf b5 bd f6 52 ed bd
       -0.05930135 -0.090819374 -0.0887743 -0.11588089
0003d0 8a fe 10 bd bc ed b2 bd 19 2e 71 bd 7d a3 b8 bd
       -0.035398997 -0.087367505 -0.058881853 -0.09015558
0003e0 1e d4 b7 bd 6a ca a2 bd 8e 8f f9 bc 84 94 be 3c
       -0.08976005 -0.07948764 -0.03046396 0.023264177
0003f0 94 ea ca bd 96 bd 6d bd e4 c9 ac bd 61 17 27 bd
       -0.099080235 -0.05804213 -0.08436945 -0.04079378

lstm.weight_ih_l1 f4 [256, 64]
000000 48 72 9e 3d 01 0e 18 be 7c 0d 15 3e 01 9a 48 bc
       0.07736641 -0.14849092 0.14555925 -0.012243749
000010 a0 a9 43 3e 39 c5 04 3d d9 c4 ec 3c 36 59 1b bd
       0.19107676 0.03241465 0.028902458 -0.037926875
000020 92 c3 2c bd e9 d5 dd 3c 8e d7 b6 bd 07 04 4a be
       -0.042178698 0.02707954 -0.089278325 -0.19728099
000030 6a ff d1 3d 5f 2e 7b 3d 0d 6b 00 be ba 44 1a bd
       0.102537945 0.06132352 -0.12540837 -0.0376632
000040 44 e0 18 bc 95 d6 99 bd f1 f3 45 3d a4 4a 23 3e
       -0.009330813 -0.075116314 0.048328344 0.15946442
000050 95 2f 3c 3e 8f a0 4c 3d 63 ed a1 3d 70 4c 03 bd
       0.18377526 0.049957808 0.07906606 -0.03205532
000060 16 01 0a 3c 2f dd cb bd 14 72 50 3d da ca 2e 3e
       0.0084231105 -0.09954297 0.050890043 0.17069569
000070 f8 88 82 3d 67 e4 78 3d 41 fd 48 3d b9 76 28 3d
       0.06373781 0.060764696 0.049069647 0.041128848
000080 31 19 29 be f2 45 51 bb 94 4a f3 bd 0d 9c f7 3b
       -0.16513516 -0.003193256 -0.11879459 0.0075564445
000090 28 af 10 be 2f c1 e2 bc 6c 09 33 3d 74 3a 44 be
       -0.14129317 -0.027680008 0.043710157 -0.19162923
0000a0 b0 8d c4 3d 09 40 a8 bd 47 af 47 be 28 a2 0e be
       0.09597337 -0.08215339 -0.19500457 -0.13929045
0000b0 b9 da 09 be 3a b3 e0 3d e3 7c d6 bd b6 ae 43 3e
       -0.13462342 0.10971685 -0.10473039 0.19109616
0000c0 91 89 3d be 74 84 b7 bd 54 72 a7 bc 41 b7 11 bd
       -0.18509509 -0.0896081 -0.020440258 -0.035575155
0000d0 9f 07 c8 3d 06 8d b7 3c 52 6f 0c bd f8 1a 0a 3d
       0.097670786 0.022406112 -0.03428585 0.033717126
0000e0 8e 61 a8 3c ab 06 ab bd 06 21 dd 3d 9a d2 d7 bd
       0.02055433 -0.08350881 0.10797314 -0.10538216
0000f0 a7 17 31 bd c1 f5 dc bd 56 41 41 3d 2d 83 4f be
       -0.043235447 -0.10789061 0.04718145 -0.20264883
000100 41 e7 9a 3d 36 63 2a 3e b9 4d 85 3d a8 a3 62 3c
       0.075636394 0.16639408 0.06508965 0.013832964
000110 6b 09 4c bc a8 4d 3a 3c a5 d3 20 be fa 49 21 bd
       -0.012453417 0.011371054 -0.15705736 -0.03937719
000120 8a 4a 94 bd 7d be f2 3d 99 c9 02 3e 47 5d 1a 3d
       -0.0724078 0.11852739 0.12772216 0.037686612
000130 3b 40 e7 3d f3 4c db 3d 67 de 05 3c 98 44 f8 3d
       0.11291548 0.10708036 0.008170701 0.12122458
000140 16 d8 8c 3d c5 95 ef bd 6b 99 5e bd 23 93 ae 3b
       0.068771526 -0.11698488 -0.05434553 0.0053275987
000150 b6 ef ae bd 5c 6b 51 bc 46 37 b0 bd 96 94 2b bd
       -0.08541815 -0.012781944 -0.086042926 -0.04188975
000160 63 0e 2a 3c 28 1c 16 3d db cc e0 bd ae a1 8d bc
       0.010379407 0.036647946 -0.10976573 -0.017289009
000170 e4 00 19 3d f5 9f 84 bd 8b a5 19 be 9c a7 d0 bd
       0.037354365 -0.06475822 -0.15004556 -0.10188219
000180 6c cc a2 3d 1d d8 17 3c 85 fa ac bc b2 9f 03 bd
       0.07949147 0.009267834 -0.02111555 -0.03213472
000190 29 04 31 be 01 86 1d be 8a d5 22 bc 93 98 aa bc
       -0.17286743 -0.1538315 -0.009938607 -0.020824706
0001a0 53 0b 49 3d 9b b1 50 be e1 91 65 bd b8 0b ba bd
       0.049083065 -0.20380251 -0.056047324 -0.090842664
0001b0 e5 b6 10 3e bd 57 ee 3c 61 7e 7b bc 13 45 d3 3d
       0.14132269 0.029094571 -0.015349955 0.10315909
0001c0 22 0f 7e bd ba 50 d4 bd 62 1a 0c bd d4 da 39 be
       -0.06202615 -0.1036696 -0.034204848 -0.18149883
0001d0 3f ec 05 be d0 5b 96 3d ba f0 af 3b 16 a6 8f bb
       -0.13078402 0.073417306 0.005369273 -0.0043838127
0001e0 22 42 c5 3c c3 13 72 3d 87 39 92 3b e4 df fb 3d
       0.024079386 0.059100877 0.004462424 0.12298563
0001f0 13 78 dd 3d fd 81 be bc cb 0b ac bd 4a ea ea bd
       0.10813918 -0.023255343 -0.08400687 -0.11470468
000200 40 77 8f 3d 35 de e9 3d 50 9a 8f bd 62 77 bd 3d
       0.07005167 0.11419336 -0.07011855 0.09251286
000210 c4 ca 0d 3d 16 bb 83 3d 70 54 79 be e5 42 c3 3c
       0.0346172 0.06432168 -0.24348617 0.023835609
000220 b4 eb 42 be 59 ca 23 3d a8 83 ee bd d4 ac 34 3b
       -0.19035226 0.039987896 -0.11646205 0.0027568834
000230 98 00 6d 3d 95 79 69 3c c6 b0 77 bd 93 f2 71 bd
       0.057861894 0.014250179 -0.06047132 -0.059069227
000240 78 21 41 3e 7a 28 0e bc 2a e9 f0 3c 22 2b de 3c
       0.18860424 -0.008676643 0.029408056 0.027120177
000250 f7 e0 21 bb 50 d1 98 bd 9e 6c f6 bc 4e b9 28 be
       -0.002470074 -0.07461798 -0.03008109 -0.16476938
000260 f1 c6 93 3c 2e 7b bb bd a0 af d2 3c 68 c2 14 3e
       0.018039199 -0.09154354 0.02571851 0.14527285
000270 e0 c7 ca 3c 75 d8 22 ba 62 18 fc bc cc 3a ec bd
       0.024753511 -0.0006212064 -0.030773345 -0.11534652
000280 b2 89 9c bd d6 1c c4 3c e0 b4 9e bd 02 c5 c8 3a
       -0.07643451 0.023939531 -0.07749343 0.0015317502
000290 b9 11 34 bd 51 61 fb bd 1e 13 af bd cf 38 8a 3b
       -0.043962214 -0.12274421 -0.08548568 0.004218198
0002a0 41 92 ad bd d6 a8 79 bd 10 9a 4a 3d ab e9 e4 bd
       -0.08475161 -0.06095203 0.04946333 -0.11177381
0002b0 e0 dd c7 bb 91 c7 bf 3d f3 d4 33 bd d7 0d bd 3d
       -0.0060994476 0.09364236 -0.043904256 0.09231155
0002c0 36 7c 78 3d 5f 3c c5 3d 31 66 e9 3d 7f d5 95 3d
       0.06066533 0.096306555 0.113964446 0.07316112
0002d0 ea d6 cb bd bd a5 8c 3d f5 05 e7 bd e7 49 08 39
       -0.09953101 0.068675496 -0.11280433 0.00012997501
0002e0 5d 4e aa bc 19 eb 78 bd 6c 93 8e 3d 28 d2 15 be
       -0.02078932 -0.06077108 0.06961712 -0.1463095
0002f0 fe bb 1d 3d 6c 4d 39 bb 11 cb f7 3c 8b 95 18 3d
       0.03850936 -0.0028274907 0.030248197 0.03725199
000300 c6 be 3c 3d e7 16 1f be b0 6f ea 3d 40 dd 14 3c
       0.046080373 -0.1553608 0.11447084 0.009085953
000310 48 7f 5d bc 63 21 2b 3e 57 b7 06 be 4d 1e fb 3c
       -0.013519116 0.16711955 -0.13155876 0.030654097
000320 e7 26 9b 3d 2c e2 2a be 84 83 18 bd 4c 21 f1 bb
       0.075757794 -0.1668784 -0.037234798 -0.0073587056
000330 3d 26 a8 3c fa 1c ba bc dd 1e 96 3b 23 1c 89 3d
       0.020526046 -0.022718895 0.004581316 0.0669482
000340 21 16 3b bd 86 3b 4b 3d 1e 3b 87 3c a4 c7 1f bd
       -0.0456754 0.049617313 0.016507681 -0.03900875
000350 c7 bd e3 3b 7d c1 57 bd f5 34 17 bd 02 e5 36 bd
       0.0069501135 -0.05267476 -0.036915738 -0.044651993
000360 02 71 9d bc b9 49 ac bc b3 45 2a bd 8d 6c ef bc
       -0.019218925 -0.021031247 -0.041570377 -0.029226566
000370 72 1f 50 3d 0b 60 ff bc 82 27 3b bd d1 35 9d bd
       0.05081124 -0.031173727 -0.045691974 -0.0767628
000380 08 49 8e bb a0 5e 92 bc 4b 27 d6 3d b8 25 77 bc
       -0.004342202 -0.017867386 0.10456713 -0.015084676
000390 5a 35 a9 3c a5 db d8 3c f4 cd 18 bc c8 a9 0e be
       0.020655323 0.026471922 -0.009326447 -0.13931954
0003a0 b1 d1 88 3d 09 ed 94 3d 0b 78 57 3d 6a fb 74 be
       0.066806205 0.07271773 0.052604716 -0.23924032
0003b0 6b 4e 32 bc 4e fc 72 bd 8d 99 04 3d 05 5b 26 bd
       -0.010882954 -0.059322648 0.032373 -0.040614147
0003c0 0a 53 92 bd 2a 77 b3 bc 72 0e 01 3d c6 3b 55 3d
       -0.07144745 -0.021907408 0.031507917 0.052058958
0003d0 bd ab 16 be 5c 2c b2 3c 64 bb 2f be 2d 25 47 bd
       -0.1471395 0.021749668 -0.17161328 -0.048619438
0003e0 a4 d1 cf 3d e7 28 ed 3d bd da e7 bd 3e c9 9c bd
       0.10147408 0.11580067 -0.11321018 -0.076555714
0003f0 41 78 d5 bb c0 9a 31 bc f7 53 0a be 61 ff 36 bc
       -0.0065145795 -0.010840118 -0.13508593 -0.0111692855

lstm.weight_hh_l1 f4 [256, 64]
000000 eb 79 02 3e ae 13 20 3d cb df 85 bd c2 dd 96 3d
       0.1274182 0.039081268 -0.06536826 0.07366516
000010 96 ec 41 3c 0a c9 4f bd ba e0 0e be ca d4 78 bc
       0.011836192 -0.050728835 -0.13952914 -0.015187452
000020 e8 9a 7f bd 3c bd 0f 3e 63 af a4 bd 2f 5c b6 bd
       -0.06240359 0.14037031 -0.08041265 -0.089043014
000030 5e e4 13 bd ea 36 a4 bd 8d dc f8 bd 68 22 52 bd
       -0.03610646 -0.080182865 -0.12151442 -0.051302344
000040 9c dd 89 3d 89 af 75 bd bf 76 35 3e 36 a2 2b 3c
       0.06731722 -0.059981856 0.1772108 0.010475686
000050 fb e3 26 be f1 ef a7 bb c1 2f ff 3c fe b3 c4 3d
       -0.16297905 -0.005125039 0.0311507 0.09604643
000060 38 cf 1e 3d f4 7d fa 3c 23 33 45 bd fc 97 5e bc
       0.038771838 0.030577637 -0.04814447 -0.013586041
000070 17 21 a4 3d db 4a e2 bd 90 66 b4 3c de 52 11 be
       0.08014124 -0.11049434 0.022021562 -0.14191768
000080 6a 6d 20 3e 9a 05 3f 3e d5 18 e4 3d 4b 93 f2 3d
       0.15666738 0.1865448 0.11137549 0.118445
000090 17 ee ec 3c 4c bd f3 bb 20 eb 19 3e 27 0b a8 bd
       0.028922124 -0.0074383374 0.150311 -0.08205252
0000a0 29 cd 51 3d fd 22 a6 bb ec cb 38 bd 2d 6e 7e 3d
       0.051221047 -0.005070089 -0.04511635 0.06211679
0000b0 31 9d 80 bd 56 19 3c 3e 57 b4 07 bc 5d fe 3e bc
       -0.06279982 0.1836904 -0.008282742 -0.011657325
0000c0 b8 27 27 3e ca fd 09 be 86 ff 2f 3d 47 51 2a be
       0.16323745 -0.13475719 0.042968296 -0.16632567
0000d0 33 73 d5 3c ae 9e 46 3c b2 66 3a 3e a2 5c 8f bd
       0.026055908 0.012122793 0.18203238 -0.0700009
0000e0 9c 39 e7 3d 0f 85 dd 3d 21 5f 82 bd 17 9a f8 3c
       0.11290285 0.108163945 -0.06365801 0.030346913
0000f0 c8 c9 46 bd 00 57 5d bd a4 f8 86 3d e0 7b b9 3d
       -0.048532277 -0.054038048 0.06590393 0.090568304
000100 c5 b1 1b 3d 03 06 48 3c 47 69 ca 3d 5b f1 26 3e
       0.03801133 0.012208465 0.09883361 0.16303007
000110 7d 20 5e bd ff 2f 3c 3e b7 4f a9 3d 43 f2 76 bd
       -0.054230202 0.18377684 0.082671575 -0.060289633
000120 80 98 3d 3d 9f 8a a3 3d 07 9c 70 be f6 43 04 3d
       0.046288013 0.07985424 -0.2349702 0.032291375
000130 d8 2f 19 be e6 30 fd 3d 17 a8 93 bc 5d 38 c9 bd
       -0.14959657 0.12362842 -0.018024487 -0.098252036
000140 63 e2 ca bc 18 ca 3a be 30 27 1e bc aa 95 42 be
       -0.024766153 -0.18241155 -0.009652898 -0.19002405
000150 b2 f0 1f 3e 0c b5 61 3e 6b b9 fd ba f1 a2 49 3e
       0.15619162 0.2204172 -0.0019357627 0.19691063
000160 d2 a0 9e bd 73 29 d0 bc ae db 45 3e 3a 92 13 3d
       -0.07745518 -0.02541039 0.19322082 0.036028124
000170 cf b2 64 be 67 4b a7 3d fa 1c 0d 3d 37 7d 94 3d
       -0.22333835 0.08168679 0.034451462 0.07250445
000180 d5 4a e3 bd 7b 4f 9a 3c 0c 55 6f 3c 93 ac dd 3c
       -0.110982575 0.018836727 0.014607679 0.027059829
000190 95 90 69 3e 11 22 b4 3d 4e 61 e2 bb 15 95 a7 3e
       0.2280906 0.0879556 -0.0069085723 0.32730928
0001a0 6d 9b 59 bd 3c a3 be bc e2 3f 83 bc bd 7a 25 3e
       -0.05312674 -0.023271196 -0.016021673 0.16160102
0001b0 ea a2 03 3e 42 5b db bd 58 70 62 bd ed af 27 3c
       0.12855116 -0.107107654 -0.05528292 0.010234815
0001c0 e1 7f 5b bd fc 22 89 3c 40 c6 37 be bf 42 e0 3d
       -0.05358875 0.016740315 -0.1794672 0.10950231
0001d0 d2 de 30 3c f9 e2 22 bd a8 9d c5 bd 12 d1 39 bd
       0.010795312 -0.03976724 -0.09649211 -0.0453654
0001e0 04 77 5b 3d a5 16 f5 3d 57 e0 d5 3d d0 5a 1b 3e
       0.0535803 0.1196721 0.1044318 0.15171361
0001f0 3b 3f 81 be 1f e3 bb 3d da e5 af 3d 46 c5 03 3c
       -0.25243554 0.09174179 0.085887626 0.008042639
000200 3d e1 d6 3d cd d9 df 3b 24 9e e8 bd f7 a4 2d bd
       0.104921795 0.006831384 -0.11358288 -0.04239365
000210 8b 89 f8 3d c6 0a de 3d 05 41 17 bc 64 9d e5 bd
       0.12135609 0.108418986 -0.00923181 -0.112116605
000220 7f 65 7e bc 08 52 8e 3d 32 9a 0b be 4a 14 4a 3d
       -0.015527128 0.0694924 -0.1363304 0.049335755
000230 b3 d0 42 bd 32 8c b6 bc eb fe 9b 3d f6 91 4b 3e
       -0.047562312 -0.022283647 0.07616981 0.19879898
000240 93 e4 12 be fc dc 2b 3d 7b 8c a1 bd e0 2f 8f 3c
       -0.14345007 0.041958794 -0.07888123 0.017478883
000250 c1 c9 b7 bd 43 d3 80 bb c1 02 96 3d 00 9e 88 3d
       -0.089740284 -0.0039314344 0.07324744 0.06670761
000260 c0 74 fa 3a 88 cb 9a bd 99 c8 21 3d bf 91 df bd
       0.001910828 -0.07558352 0.039497945 -0.10916471
000270 8f e3 b8 bc 8c 69 10 3e 0d 79 5f bd 3a 55 84 3d
       -0.022569446 0.14102763 -0.054558802 0.06461568
000280 56 df 0b 3e 83 f9 06 be 0f 0e d2 3c f3 d4 80 3d
       0.13659415 -0.13181119 0.02564147 0.06290617
000290 37 3b 10 bd 72 f7 83 bd 07 a4 c1 bc c6 14 b3 bd
       -0.03521272 -0.06443681 -0.023637785 -0.087441966
0002a0 87 85 38 3e 39 3e d9 3d 9b dc f8 bd 2e 48 8c bc
       0.18019687 0.10607571 -0.12151452 -0.017124262
0002b0 a6 e1 1c 3e fb 23 11 3e b5 f3 da 3b 27 f8 86 3d
       0.15320453 0.14173882 0.006681884 0.065903
0002c0 2a 54 9c bc bf e4 38 be 11 2c bf bc 1c 7d fb bd
       -0.019083101 -0.1805601 -0.023336442 -0.12279722
0002d0 80 4b c2 3d 0a 7b 0b bd 2c f3 73 3d 46 b9 c8 3d
       0.09487057 -0.034052886 0.05955808 0.09800963
0002e0 30 b3 ec 3c 23 e9 93 3c 27 a0 c1 3d fa aa 7a bc
       0.028894037 0.018055504 0.09454375 -0.015299553
0002f0 74 6b d3 bb 5d 36 f1 bc 79 24 78 bc 9c 2c f3 3d
       -0.0064520184 -0.029444868 -0.0151454145 0.11873743
000300 75 fc 0d be 7e 95 1d bd b9 3a 50 3d 72 9b b5 3c
       -0.13865836 -0.038472645 0.050837252 0.022168849
000310 5b 6a 29 3e dd bf e6 bc 4c 14 b6 bd e0 71 50 bd
       0.16544478 -0.02816766 -0.0889059 -0.05088985
000320 38 6e 82 bd 1d be 2e bd 57 2a ce bd 35 17 bb 3d
       -0.06368679 -0.042661775 -0.100666694 0.09135286
000330 9a 14 a9 3d 10 c6 34 be f3 3b 98 3d 92 0b 8b 3d
       0.082558826 -0.1765368 0.074333094 0.06789316
000340 78 36 fc 3c f7 90 a5 bd ae 26 51 bd dc e5 6c 3d
       0.030787691 -0.080842905 -0.05106228 0.0578364
000350 c9 e6 a7 bd 77 c9 14 3d 9c 9a 1c be 54 87 27 3d
       -0.08198316 0.036324944 -0.15293354 0.040900543
000360 b8 65 99 bc 69 6a d4 3d 16 4c 80 bd 6d 4a 94 3d
       -0.018725261 0.103718586 -0.06264512 0.07240758
000370 f1 18 dd 3d da c7 66 3d f5 e0 97 bd 11 13 8e 3d
       0.10795773 0.056342937 -0.07415954 0.069372304
000380 8f 11 8b bd 5d b0 f2 3d a4 a5 f8 3d 58 bf ba 3d
       -0.067904584 0.11850045 0.121409684 0.09118527
000390 15 67 54 3e 5e ff 77 bd 32 42 e7 ba 0f 04 ae bc
       0.20742448 -0.06054627 -0.0017643629 -0.02124217
0003a0 c7 15 ca bc 90 df e5 3d 7a 09 c1 bd 3a 1c d7 bd
       -0.024668587 0.11224282 -0.09425636 -0.10503431
0003b0 f4 65 a9 3d e9 91 08 3d 11 18 ca bd cc 82 ed 3d
       0.08271399 0.033342276 -0.098678716 0.11597213
0003c0 72 98 a9 3d 2b b3 e6 3c 7b 1f 82 3c 42 5b 44 3d
       0.0828103 0.028161606 0.015884152 0.047938593
0003d0 a0 78 0d 3d 92 2d 63 3d 2c aa 39 3e d9 4d 81 3c
       0.034538865 0.05546338 0.18131322 0.015784191
0003e0 3b 73 a8 3d 81 0a 0b bc 06 9d b6 3d 22 2b 4f bd
       0.082251035 -0.008486391 0.089166686 -0.050578244
0003f0 96 1c 01 bd 52 1d d7 bd ad 91 6d 3d ff 53 e5 bd
       -0.031521402 -0.10503639 0.058000255 -0.111976616

lstm.bias_ih_l1 f4 [256]
000000 f0 ec ab bd df 5f 88 3d da 1e 31 3e 01 e5 9f bc
       -0.083948016 0.06658911 0.17296925 -0.019518377
000010 e5 63 97 bc 14 72 3d bd 1b c1 d2 bd cf 57 fc bd
       -0.01848025 -0.04625137 -0.10290738 -0.12321436
000020 86 81 6e bd 7b 00 97 3d 88 52 d8 3d 8c 7d 72 bd
       -0.058228992 0.073731385 0.105626166 -0.059201762
000030 e9 b0 6a 3d 09 a8 d7 3c c5 7a 78 bd ba 3a 1d 3e
       0.05729762 0.026325243 -0.060663957 0.15354434
000040 88 aa de bc 2b a0 c5 bd 54 93 e2 bd b8 a4 d1 3c
       -0.027180925 -0.0964969 -0.11063257 0.02559124
000050 61 9d 6e bd d9 f1 81 3e 72 20 19 bd ca 21 b3 3d
       -0.058255557 0.25379828 -0.037384458 0.08746679
000060 c8 56 51 bd 42 68 6a 3e d7 c7 80 bd bd bb 10 bc
       -0.05110815 0.22891334 -0.062881164 -0.008833823
000070 ad 2d f5 3e ba 0b 98 bd ed 28 cc bd 2f 2a e6 bd
       0.4788641 -0.07424112 -0.099687435 -0.11238515
000080 0c 5d 62 3e 29 46 b7 bd 64 17 f3 ba 7e dc ec bd
       0.22105807 -0.08948929 -0.00185464 -0.11565493
000090 3f 23 d1 bd 03 67 94 bd 9c e9 1c be b7 91 27 3e
       -0.10211801 -0.072462104 -0.1532349 0.1636418
0000a0 37 b4 7c bd db 7a 7a bd c6 4e de bc 22 ad 45 bd
       -0.061695304 -0.06115232 -0.027137171 -0.048260815
0000b0 f5 26 32 bd c8 49 99 3d 10 38 cf 3a 30 d8 56 bc
       -0.043494184 0.07484776 0.0015809555 -0.013113067
0000c0 26 71 09 3d 63 cf b6 bd b0 ee 3e bd cf dd 85 bd
       0.033555172 -0.089262746 -0.04661435 -0.06536447
0000d0 44 6c e3 3c 9a d0 86 bd 1f dc b4 3c 2e 9d e1 bd
       0.027761586 -0.06582756 0.022077618 -0.11016308
0000e0 3e 76 af bd af 40 c4 bd 90 b3 bd bc 97 7f 01 bd
       -0.08567475 -0.0958265 -0.023156911 -0.03161582
0000f0 f8 f0 ea 3d 20 56 9a 3e 4f d6 75 bd a2 12 95 3d
       0.114717424 0.30143833 -0.060018834 0.072789446
000100 bd 97 7a 3f d7 58 87 3f ae 7d 75 3f b4 81 7f 3f
       0.97887784 1.0573987 0.95894897 0.99807286
000110 db c1 83 3f 29 22 80 3f 05 b6 7d 3f 83 46 75 3f
       1.0293535 1.0010425 0.99105865 0.9581072
000120 f3 1c 87 3f 58 f8 77 3f 9a 8f 7c 3f 74 12 76 3f
       1.055571 0.9686332 0.9865662 0.9612191
000130 e8 04 80 3f 40 e0 72 3f 02 d4 76 3f bf 82 6a 3f
       1.0001497 0.9487343 0.9641725 0.9160575
000140 fb e1 7e 3f 13 af 83 3f d5 bc 8a 3f 6f bf 6d 3f
       0.9956357 1.0287803 1.0838877 0.9287023
000150 1b 83 7d 3f b4 47 7f 3f 43 21 82 3f 10 20 80 3f
       0.99028176 0.99718785 1.0166401 1.0009785
000160 ae 7c 7c 3f 29 d0 77 3f 74 91 86 3f c4 f2 77 3f
       0.98627746 0.96802 1.0513139 0.96854806
000170 6d 29 8d 3f ff 36 6e 3f 24 2a 80 3f 34 55 87 3f
       1.1028267 0.9305267 1.001286 1.0572877
000180 a3 4d 6c 3f 9d e3 83 3f 6d b7 6e 3f 50 f0 84 3f
       0.92305964 1.0303837 0.93248636 1.0385838
000190 28 0f 81 3f 4d 7b 73 3f 86 b7 88 3f b2 e4 7e 3f
       1.008275 0.9511002 1.0681007 0.9956771
0001a0 18 ba 68 3f 8b 6d 72 3f 88 40 82 3f 7a cd 7f 3f
       0.90908957 0.946984 1.0175943 0.9992291
0001b0 cc ed 84 3f 54 86 7e 3f 36 21 79 3f 2a 32 7e 3f
       1.038507 0.9942372 0.973163 0.99295294
0001c0 9e 9c 81 3f c6 ba 80 3f c1 80 7c 3f 3b e6 81 3f
       1.0125921 1.0056999 0.9863396 1.0148386
0001d0 6a 47 80 3f f4 64 7d 3f 86 30 81 3f 19 d4 84 3f
       1.0021794 0.9898217 1.0092933 1.0377227
0001e0 34 02 8a 3f a7 21 83 3f b4 90 7d 3f db 6c 84 3f
       1.0781922 1.0244645 0.99048924 1.034572
0001f0 3c 5f 81 3f f7 f7 83 3f c5 49 77 3f 72 36 77 3f
       1.0107188 1.0310048 0.9659694 0.9656745
000200 86 8a 4f bc f2 78 7f 3d fa 45 a6 3e a9 c1 86 3d
       -0.012667304 0.0623712 0.32475263 0.065799065
000210 38 3d 66 bd 9c 3e 00 bc 1a 81 2c 3d e6 82 37 3d
       -0.056210726 -0.007827427 0.04211531 0.04480257
000220 c9 c0 3f 3d 95 92 91 3d a2 12 ca bd cd ea 57 3c
       0.046814714 0.071080364 -0.09866835 0.013178539
000230 7a ff bd 3c 33 c0 2a 3e 3a 51 a4 bd 21 b1 86 be
       0.02319311 0.1667488 -0.08023305 -0.26307014
000240 5e a8 85 3c 7b f4 26 bd df d9 a8 3b 93 46 dd bd
       0.016315635 -0.0407605 0.0051529254 -0.108044766
000250 6d bd 20 3e 55 3c 6b 3e c9 d2 d4 bc ef 19 a5 3d
       0.1569726 0.22972234 -0.025979416 0.08061587
000260 ab 5d 25 bd 1b b1 60 be 03 c8 9e 3c e9 de f8 3d
       -0.04037253 -0.2194256 0.019382482 0.12151892
000270 20 d3 fa bd e1 87 43 3d 94 00 97 bc 0c e3 b2 3b
       -0.122473 0.047737006 -0.018432893 0.005459195
000280 73 dd 60 be b1 71 a7 bc 5e 23 ca bd 11 c9 8f bc
       -0.21959476 -0.020439954 -0.09870027 -0.01755193
000290 98 09 7b 3d 46 25 d0 3d be 05 18 ba ea d6 83 3e
       0.061288446 0.10163359 -0.00057991955 0.25749904
0002a0 b7 a8 d8 bd 20 be 28 bd 97 4e e8 3a cf 66 1e 3d
       -0.10579055 -0.041196942 0.0017723617 0.038672265
0002b0 22 08 b6 3c 7e 4b 24 be d2 15 f9 bd ac 4b c4 3c
       0.022220675 -0.16044423 -0.12162365 0.023961864
0002c0 ed c5 7d bd d0 d5 62 bd 7a 16 12 bd 47 56 21 3d
       -0.061956335 -0.05537969 -0.035665967 0.03938892
0002d0 f2 ad 13 3d cb 1a 05 bc 31 24 95 bd 01 9b 89 bd
       0.03605456 -0.008124064 -0.072822936 -0.06719018
0002e0 0e 82 e6 3c 9e 97 cf 3c b8 a2 8e 3d 66 3d 35 3c
       0.028138187 0.025340851 0.0696463 0.011062002
0002f0 85 a9 a5 bd 16 be 2d 3e c3 73 22 bd fd b1 16 3e
       -0.08088974 0.16967043 -0.03966118 0.14716335
000300 ed 8e 7b bd 58 52 32 bc 36 61 a0 3c 6a 06 a5 bc
       -0.0614156 -0.01088389 0.019577604 -0.02014466
000310 b5 d8 6c bb 4e 5c b4 bb fd e8 a9 bd 63 11 92 3b
       -0.003613991 -0.0055041676 -0.08296392 0.004457639
000320 34 07 97 bc 8c f1 a2 bc c4 f2 ca bc b6 7c 57 bd
       -0.018436052 -0.01989057 -0.024773963 -0.052609168
000330 a4 76 2c bd cf 7f 0d bc 3e c1 7e bd 41 88 95 bc
       -0.042105332 -0.008636429 -0.06219601 -0.018253447
000340 a3 f2 0d bd 77 cf 93 bc fd c3 50 bd 6e 1f f7 3b
       -0.034655225 -0.018043263 -0.05096816 0.0075415885
000350 b7 f9 23 bd 1f e4 91 bc 52 7a a2 3c 2f 68 ad 3d
       -0.04003307 -0.017808972 0.019833717 0.08467137
000360 90 16 3b bc a3 cb 5f 3d c4 74 82 3a ef db 81 3c
       -0.011418954 0.054637562 0.0009953012 0.015851943
000370 a0 38 90 3d d1 a8 7a bd 66 a0 cd bc dc ce cf 3c
       0.0704205 -0.061196152 -0.025100898 0.025367193
000380 0a f3 6e 3d 59 db 83 3b c2 eb 0d 3c 0c b9 00 b9
       0.05833725 0.004023951 0.008662166 -0.00012275967
000390 17 a9 0c bd 22 b6 e8 bc a0 74 0e bd 21 42 45 bc
       -0.034340944 -0.02840716 -0.03477919 -0.012039692
0003a0 1e 9e 85 bd dc ef 1b bd 46 87 8c bc 11 d0 ef bc
       -0.06524299 -0.038070545 -0.017154347 -0.029274018
0003b0 b1 9d 8d 3c a3 fd 13 3d 3d de e3 bc a5 51 0a bc
       0.017287107 0.03613056 -0.027815932 -0.008442317
0003c0 ce 9a bb 3c 56 5f ea bb a7 8a 3f bb ba 8d 4c bd
       0.022900965 -0.007152478 -0.002922693 -0.04993985
0003d0 6b 08 0a bd aa 91 17 bd 84 43 2b 3d 2c 07 82 bd
       -0.033699434 -0.03700415 0.041812435 -0.06349024
0003e0 0c 2a e0 3c e4 b2 6c bd 70 02 89 bc 5a 83 69 b7
       0.0273638 -0.05778779 -0.016724795 -1.3918465e-05
0003f0 e6 ec 32 bb a1 b8 c8 3c 2e b3 2e bd 6b f1 d9 3d
       -0.0027301847 0.0245021 -0.042651348 0.1064175
