Model/weights/model_test_6811_10_last.pt (torch, 853582 bytes, 15 tensors)

lstm.weight_ih_l0 f4 [512, 3]
00000000: ea36 3b3e 850a 8b3c 93c5 ceba ab7c 163e
00000010: 7909 bdbd eb5e 11bd ddc5 e73d 2eb5 6d3d
00000020: cff7 383d 30c0 7abd 4a9e 633b ba48 58bd
00000030: 45c4 873c 8ccb eebc a79b 9dbd 7a63 82bc
00000040: 3eb9 853d bcd0 5bba 612c 773d b9dc d23d
00000050: 9574 3bba d6e3 f43c 8b43 e0bc e4ab 293c
00000060: dc4f 993d 5a83 003d 7ca5 5d3d a5f3 983d
00000070: 01b8 74bd 1b07 90bb d93c 8bbd 1f58 cb3d
00000080: ac36 8d3c 2684 053d 5849 d9bd 4034 9b3d
00000090: 0752 923d 1474 cf3d c13d b53b 4c12 30bd
000000a0: 4f3d 0fbd 808e bdbc 65e1 943d 3e45 8b3c
000000b0: a82d 8cbd 8a29 cebd fe02 cf3d 91f3 cebc
000000c0: 8484 37be a010 3e3d 8ea6 5cbd 46c1 e63d
000000d0: 10d4 aa3d f70d be3d 21b0 a5bd 2cff 98bc
000000e0: 1548 3dbc 2197 bbbd affb 9e3d 6f34 c7bb
000000f0: c4bb 4ebd 0d4e a7bc fcbb 2bbe ebe3 ffbd
00000100: e580 7dbe 8ec1 d5bc b811 043e 7854 353b
00000110: af4d bcb9 89c7 003c e7a2 72be 7434 1f3d
00000120: e123 533e 866b 22be bfb9 19bd 43df 3ebc
00000130: 95b9 cd3d 8e82 2a3d 200c 793d b47b 04be
00000140: be9c 6b3c b1ca 49bc 3f55 dc3d cfa0 9a3d
00000150: 70b0 213d 4be8 93bd d58f 713d 018c 0c3e
00000160: 6089 32bd 8bf3 d13d 6950 3ebd 308a ca3d
00000170: 7533 593d ac5c 8d3d 4d2f 483d 9701 4b3c
00000180: b9f2 563d 54ae 14bd ebb8 c93c f14c 87bd
00000190: ead2 b53c d697 1fbd 73cf b3bd db47 073e
000001a0: 8e03 07be ae8e 3d3c 5e89 0f3e 3ec8 b43d
000001b0: b4f9 b1bd 589a eabd 3bf9 043d 22ce a63c
000001c0: fac3 dabc 9f2d 4fbd a12e 3ebd 967f b8bd
000001d0: 33fd 8c3d f5bd d5bd 38f4 e5bc 5770 39bd
000001e0: 6c95 06be 54b9 bcbd 90b4 473d c8fb 073e
000001f0: 5264 c13c c38d dc3d 3b64 56be 6903 d63d
00000200: 464d 213d 762d 72be 13d7 763c 54cb 473d
00000210: b33a 813b 0ed5 d0bd dc7b b6bd 5781 77be
00000220: 3d52 75bc 64a6 92bd e005 62bb 3da9 503e
00000230: d0c3 0abe 0c7b 2a3e 1212 b33c 9313 6b3d
00000240: d030 c1bd d490 50bc 8d4c bfbd 623c 1bbd
00000250: b2ac 0cbd d612 043c 1219 80bd e69d 57bd
00000260: 83ce 5bbc 8b78 0c3e 1032 ea3d cf8d fbbc
00000270: f02b b13d e21a 2dbe 9d9d 62bd 9016 66be
00000280: 7581 42be bc61 34bd dc43 0b3e a800 3fbe
00000290: 2e06 103d e147 f8bc 1bbc 3cbc eadc a63c
000002a0: 2693 14be 9642 18be 1e97 a8ba 61bc 30be
000002b0: 7503 0c3d 76de 383d 4bea e5bd 6edb b6bc
000002c0: 44c5 b63a 9460 1bbe a2cb 36bd 0c2d 833d
000002d0: efae 9ebd 70f3 99bd 2180 863d 2e00 1cbe
000002e0: 1f0b 0ebe bbca 053e 7bf0 fd3c e97a 24bd
000002f0: 99a2 c5bd 412e d03d 3122 1e3d 7610 a93c
00000300: 6a27 3bbe 9796 de3c 92f9 9d3d 03a6 603d
00000310: 7d0f 293e 7149 94bd ecc2 48be 13ac 15bc
00000320: 7508 c23c e87e 79bd 7935 633d 9aef 25bd
00000330: 6642 08be 7c7a f23c e06f 943b 69cc 383d
00000340: b4bb f7bb 62e7 8b3d 877d 46bd 8166 db3c
00000350: 9a84 97bd 6718 82bc 09db c13c 7134 31bd
00000360: 7c80 85bc 44d9 733d 9cb9 80bd 8dd6 a3bd
00000370: 4538 1ebe e0d4 16bd ef34 033e 769b 11be
00000380: 23fa 4cbd 7778 ad3d 68be 93bd 02ca 34bd
00000390: 9a6b 0e3e 1545 55bc 3847 c43d cd1e 55bd
000003a0: 67a1 60be 9a6b 363d 2117 ddbd 50dc fd3d
000003b0: 69ea 82bd 2c87 5fbc b852 adbd 00dd 9a3d
000003c0: 16c7 f03c ae7c 1cbd ad28 303b 6b32 533d
000003d0: bd78 0ebe ec3b 96bc a600 67be 540e aa3d
000003e0: 210e 5e3c b7fa d93c 6d37 6a3c 53cd f93d
000003f0: b76d 9e3d 5996 753d 09f8 67bd 7c13 4e3d
0.18282667 0.01697279 -0.0015775434 0.14695995 -0.092303224 -0.03549091 0.11317036 0.058034115
0.045158204 -0.06121844 0.0034731799 -0.052803732 0.01657308 -0.029149793 -0.07695704 -0.015916575
0.06529473 -0.0008385291 0.060345057 0.10296006 -0.0007150856 0.029893797 -0.027375957 0.010355923
0.07485935 0.031375267 0.054112896 0.074683465 -0.059745792 -0.0043953783 -0.06798715 0.09928917
0.017237984 0.03259673 -0.10609692 0.07578325 0.07144552 0.10129562 0.0055310433 -0.0429862
-0.034970578 -0.023139238 0.07269553 0.01700079 -0.06844646 -0.10066517 0.101079926 -0.025262626
-0.17921644 0.046402574 -0.053869776 0.11267333 0.08341229 0.09280007 -0.080902345 -0.018676363
-0.01155283 -0.09159685 0.077628486 -0.0060792486 -0.050472036 -0.02042296 -0.16770929 -0.12494644
-0.247562 -0.02609327 0.12897384 0.0027668756 -0.00035916033 0.007860073 -0.23694955 0.038868383
0.20619155 -0.1586133 -0.037530657 -0.011649909 0.100451626 0.041628413 0.06080258 -0.12937814
0.014380632 -0.012316392 0.10758447 0.07550203 0.039474905 -0.07222041 0.05897506 0.13725282
-0.043588042 0.1025153 -0.046463404 0.098896384 0.05302759 0.069024414 0.048873235 0.012390516
0.052477572 -0.036299065 0.024624309 -0.06606472 0.022195298 -0.03896316 -0.08779802 0.13211004
-0.1318495 0.011569662 0.14017245 0.08827256 -0.08690205 -0.1145522 0.032464247 0.020361964
-0.026704777 -0.050580617 -0.046431188 -0.0900871 0.068842314 -0.10436622 -0.028070554 -0.04527315
-0.13142937 -0.09215036 0.048756182 0.1327964 0.023607407 0.107692264 -0.20936672 0.10449869
0.039380334 -0.23650154 0.015065926 0.048777893 0.003943765 -0.10196887 -0.08910343 -0.24170433
-0.01497322 -0.07160643 -0.0034488365 0.2037706 -0.13551259 0.16648501 0.021859203 0.057391714
-0.09433138 -0.012729842 -0.09340773 -0.037899382 -0.034344383 0.008061131 -0.06254782 -0.052640818
-0.013415935 0.13717858 0.1143533 -0.030707268 0.086509585 -0.16904786 -0.055326093 -0.22469544
-0.18994696 -0.04403852 0.13600105 -0.18652594 0.035162143 -0.030307712 -0.011519457 0.020369012
-0.14509258 -0.1486915 -0.0012862419 -0.17259361 0.034182984 0.04513403 -0.112263285 -0.02232143
0.0013944288 -0.1517356 -0.044627793 0.064050764 -0.0774821 -0.07517135 0.065674074 -0.15234444
-0.1387143 0.13065617 0.03099846 -0.04015628 -0.09650154 0.10165072 0.038606826 0.020637732
-0.18276754 0.027171416 0.077136174 0.05484582 0.16509815 -0.0724057 -0.19605607 -0.009135264
0.023685673 -0.060912043 0.055470917 -0.040511705 -0.13306579 0.02959942 0.004529938 0.045116816
-0.0075602178 0.06831242 -0.048459556 0.026782276 -0.073983386 -0.015880777 0.023664014 -0.043262903
-0.016296618 0.059533373 -0.06285402 -0.07999907 -0.15451153 -0.036824107 0.12813161 -0.1421946
-0.050043236 0.084702425 -0.072140515 -0.044137962 0.13908234 -0.013016959 0.095838964 -0.052031327
-0.2193657 0.04453621 -0.10795427 0.12395537 -0.063923664 -0.013643067 -0.08463043 0.07561684
0.029391807 -0.03820484 0.0026879713 0.051561754 -0.13913245 -0.01833912 -0.22558841 0.08303514
0.013553173 0.026608808 0.014295441 0.121973656 0.0773577 0.059957836 -0.05663303 0.05031155

lstm.weight_hh_l0 f4 [512, 128]
00000000: f340 87bd b77b 803d bda4 223c 383a 16be
00000010: b2a0 363c d5a5 043d d0aa c73c 5866 8abd
00000020: 1a49 a03d b646 27bd d89e 2cbc 630e 20bd
00000030: fbd0 9fbd 7d09 93bb 3082 093e 412b ac3c
00000040: 8c15 b63c ed6c bf3b d61e b73c 0224 3f3d
00000050: 273b e73c 9ade 383d 796f 95bd a16e e43d
00000060: 801e 023d e95d 9e3c 24eb 8bbc d946 3e3e
00000070: 4360 393c 45a1 c83d 8999 43bd 6b31 3c3d
00000080: e1f1 69bc 94f7 d13d cea3 36bc 6e6e 743d
00000090: 8ed3 bbba 605c b83c ae25 a73d bbd8 44bd
000000a0: 2145 0fbe 8857 963d aea7 92bc c1a3 d13c
000000b0: 61dd bd3c 64c9 603d 618e 45bc d17a aa3d
000000c0: 2dea 1ebd 74c2 04bc ed56 b2bd 0c50 cbbd
000000d0: 946b 3dbd 142f ffbd 7617 2bbe b44b 1e3d
000000e0: 61a0 12bd 8f40 cdbd deff 83bd 3308 d7bd
000000f0: 12e1 4ebd 6513 313d ce77 3dbd d64b aebd
00000100: 1f17 91bd d4a3 85bd fb7a 6a3d 405a 11bd
00000110: 9b3e 433d 9929 67bd 45eb 463c 9e32 763c
00000120: 3763 0ebe 5b87 a53d 8c95 26bd 8ab4 3c3c
00000130: 6543 d0bd b5a4 acbc e7a0 94bd 2023 94bd
00000140: 600a e93d 54f5 aa3b 15c8 2d3c ea04 10bd
00000150: 1dba 65bc 9d70 b2bd 9b3b 7d3d 510f 3f3c
00000160: 82da 833c 6d7f a43d 7c75 f93b 5670 803d
00000170: 7e0d 483c a34d 9cbc 070d 713c 369c efbc
00000180: 23a1 47bd 9905 163d 70ac 5abd a83d 663d
00000190: 11de d13d 4d79 5d3c 6fe6 6cbd ef17 1bbd
000001a0: 55a4 8a3b 20b3 4a3d baec 8f3c d6c8 efbd
000001b0: 8bdf b3bb f932 cc3b c12a 8fbd f350 06bd
000001c0: fc63 2b3d 53ae 8a3d 7896 2dbc ac55 753b
000001d0: a7f4 dcbc 17eb 2f3d 1881 86bd 811b 91bd
000001e0: 2cc7 10bd e4a1 b53d 1c24 8b3d 5450 6dbb
000001f0: a0a4 9ebc 803f a4bd b1be faba ab3b bd3d
00000200: 7bd0 183e 1561 3cbe b20c 6cbd ea7d 073d
00000210: 69cf f33d a5e4 36bb 5e6d aa3d 114c 76bd
00000220: e114 cebc fa43 47bd 146c 44bb 40d4 de3a
00000230: 9a1c 6fbd 8f59 e8bd 9a08 99bd 1142 47bd
00000240: 4f55 debc 8eb2 13bc 2426 2e3d cf73 b03c
00000250: 3737 2dbd d7ca 7e3d 82e7 a33d 06b0 79bc
00000260: b762 c73d 7c64 273d 6bc0 c83c 4518 90bc
00000270: f2b8 043e 624e ddbd ed65 893d 0c16 bc3c
00000280: 7961 27ba 2f24 803d 5f9d 56bd 6c2b 89bc
00000290: 7ea7 d6bd b522 6fbd 2deb b93d 346e b63b
000002a0: 90bc 073e bb9e 083d 73f4 94bd a83f babd
000002b0: 44f5 dc3c d392 243d fdc9 193d 344c 1e3d
000002c0: 4910 3e3b f20b 283e e846 4c3d b27f e83c
000002d0: 1b6c 1ebd 1e9b ca3d 5ad2 3e3d cb72 4f3d
000002e0: ab3e c33d 72db 7d3c c59d 533d 578d 9d3d
000002f0: 0c62 9a3d 5296 723c 4809 ac3b 4001 c6bb
00000300: cb39 033e 3d04 ddbc 9632 08bb 68df 1c3d
00000310: b0b6 8fbd 9b6a 34bd 84bf b73d 93ae 38bd
00000320: b313 d93b 00b0 a4bc 2c46 3a3b 2cdd 913c
00000330: 287d bb3b 4f6d d8bd 714f f63c c547 b63d
00000340: 8ad5 c2bc 8726 36bc 3ba1 d1bd dd12 26bd
00000350: 1169 ddbd 0fb1 693d bbf4 ac3d 88f4 c23d
00000360: d1bd 903d a8ae babc 902a abbc 891e 7bbc
00000370: 991d acbb 3a69 ae3d 6382 91bd 1c8b a2bd
00000380: 7de7 4cbc 3ca4 1abd a595 e13d a3cc cabd
00000390: 4ab3 9d3d fa82 a9bd ef90 03bc 2133 923c
000003a0: a690 873b c759 253d aeb1 d7bd aa56 97bb
000003b0: ca6e 9abb 25dc b6ba f2f3 e43d 6d65 9d3d
000003c0: 3fef 26bd a4f6 363b f47d babd 34da 95bd
000003d0: 82d1 443c 420f 2bbe 4989 25bd ed0a 703c
000003e0: 99f6 cd3d 0c66 7d3d 58e0 a93c 8b86 983d
000003f0: eeca 763c 3647 90bd 418f afba 59d5 1dbd
-0.06604185 0.06273597 0.009926972 -0.14670646 0.011146711 0.032384712 0.024373442 -0.06757802
0.07826443 -0.04083892 -0.010535918 -0.03907622 -0.07803532 -0.004487215 0.13428569 0.021016719
0.022227071 0.0058418424 0.02235357 0.0466652 0.028226448 0.045134164 -0.07296652 0.11153913
0.03176737 0.01933189 -0.017079897 0.18581714 0.0113144545 0.09796385 -0.047753844 0.045945566
-0.01427886 0.102523 -0.0111474525 0.059675626 -0.0014330016 0.022504985 0.08161484 -0.048058253
-0.13991214 0.07340914 -0.017902222 0.02559078 0.02317685 0.05487956 -0.012057872 0.083242066
-0.038797546 -0.008103002 -0.08707986 -0.09927377 -0.046245173 -0.12460151 -0.16708168 0.038646415
-0.03579748 -0.10022079 -0.06445287 -0.10499611 -0.050507613 0.043231387 -0.046256833 -0.08510558
-0.07084488 -0.06525388 0.05724619 -0.03548646 0.047667127 -0.056436155 0.012141054 0.0150267165
-0.13905035 0.08082458 -0.040669963 0.011517653 -0.101691045 -0.021074632 -0.07257252 -0.07233262
0.11378932 0.0052172337 0.010606785 -0.035160936 -0.014021424 -0.087128855 0.061824422 0.011661367
0.016095404 0.08032117 0.007612882 0.062714264 0.012210248 -0.019079989 0.014712579 -0.029249292
-0.048737656 0.036626432 -0.053387105 0.056211144 0.10247434 0.01351769 -0.057836946 -0.03786462
0.0042310157 0.049487233 0.017568935 -0.11708228 -0.005489295 0.0062316624 -0.069905765 -0.032792043
0.0418434 0.06771531 -0.010594957 0.0037435098 -0.026972128 0.04294881 -0.065675914 -0.07085324
-0.035346195 0.08868769 0.06793997 -0.003621121 -0.019365609 -0.08019924 -0.0019130317 0.092398964
0.14923279 -0.18396409 -0.057629295 0.033079065 0.11904795 -0.002790728 0.083216414 -0.060131136
-0.02515644 -0.048648812 -0.0029971646 0.0017000511 -0.058376886 -0.11345207 -0.07472344 -0.04864699
-0.027140288 -0.009014739 0.042516842 0.021539597 -0.042288985 0.062205162 0.08003141 -0.015239721
0.09735625 0.040867314 0.024505815 -0.017589698 0.12961176 -0.10805966 0.06708894 0.022959732
-0.0006385069 0.062569015 -0.052396175 -0.016744338 -0.10481165 -0.05838271 0.09078059 0.0055673365
0.13255525 0.033354502 -0.072731875 -0.09094173 0.02697242 0.040179085 0.037546147 0.03864689
0.0029001406 0.16410807 0.04987231 0.028381202 -0.038677316 0.098928675 0.046587326 0.050646584
0.09533437 0.015494214 0.051664133 0.07692974 0.07538232 0.014806347 0.00525013 -0.0060426295
0.12815015 -0.02697956 -0.0020782105 0.038298994 -0.07017267 -0.04404698 0.089720756 -0.045088362
0.006624663 -0.020103455 0.0028423173 0.017805658 0.005721707 -0.10567724 0.030067177 0.08900408
-0.023783464 -0.011117584 -0.102358304 -0.040545333 -0.108110555 0.05705362 0.08445116 0.09519297
0.070674546 -0.02278836 -0.020894319 -0.015327104 -0.0052525518 0.08516164 -0.071049474 -0.07936689
-0.012506363 -0.037754282 0.110148706 -0.099023126 0.07700212 -0.08276935 -0.00803016 0.017846646
0.0041371165 0.04036882 -0.105319366 -0.0046184855 -0.004712914 -0.0013951106 0.111793414 0.07685361
-0.040755507 0.0027918005 -0.09106055 -0.073170096 0.012012841 -0.16705039 -0.04041413 0.014651042
0.100568004 0.061864898 0.020736858 0.07447537 0.015063031 -0.070448324 -0.0013394133 -0.038533542

lstm.bias_ih_l0 f4 [512]
00000000: a24d 55bd f9b4 bebc 8d18 a9bc b56b 653c
00000010: cc3a c2bc fc85 43bd ea44 05bc 42a1 9abc
00000020: 0852 153d 5260 70bd 8afd 02bd d23a abbd
00000030: 6837 74bd 6139 adbc 2fa4 033c 64fa 43bd
00000040: 8529 d63a 9e17 76bd 9e45 103d f237 59bd
00000050: 25f9 27bd cfba 49bd 4bbe 38bc 0bd0 fe3b
00000060: bb74 c0bc bd05 08bd c42b 32bd 4bec 83bd
00000070: 0490 e8bc c1ad 88bd 17e3 c2bd 532c 793a
00000080: 93ff d6bc 3658 88bd 6e80 9a3d 8334 1d3c
00000090: f545 d8bd abc5 703c d64d f9bc 269c 8ebd
000000a0: 241b 37bd 21e3 a3bd 4d1e 85bd acb8 7fbd
000000b0: 9b5b 11bd 8e46 e33b 6948 5bbc 3923 5bbd
000000c0: 2a71 413c e970 95bd 4b7f 93bc 04c9 3dbd
000000d0: ec57 a3bd 3b04 a83c 9a7c a438 1a32 e13c
000000e0: 1958 aabc 4547 63bc 371f 45bd acf9 a4bc
000000f0: d51c 3fbd e192 a9bd 9de2 edbc 1d36 e9bb
00000100: 8949 80bd ed7f ffbb 4e24 d03c e917 6e3b
00000110: 579a 83bd f2b8 1b3c b9fd a4bc 4013 07bd
00000120: bd62 9ebc cd87 41bd dc33 87bd d0ce fdbc
00000130: 1392 66bd a9da b0bc 98e5 8abd 894f c1bc
00000140: 481a 0ebd 4223 dcbb fe43 0abd 1120 1fbd
00000150: a378 273c 83d7 c7bb 8555 3bbd 70f0 c43c
00000160: bcb7 d1bc cc4f 01bd e867 52bc 7add c9bc
00000170: d6c5 fcbc 8bd7 4bbc 37f3 55bd 70df f43b
00000180: 077b d7bd d6c4 41bd fdca d2bc a4f3 44bd
00000190: 1533 52bd 50bd 1cbd d472 293b 177d 00bd
000001a0: 7f05 00bd 7ca1 86bd b247 cebc a0b3 c7bd
000001b0: 1283 a1bd 35eb c6bc e55c ab3a 37a3 24bb
000001c0: 9787 193c 6881 8fbd f098 10bd 6ced 28bd
000001d0: 6cbe 1abd 98dc d6bd bdd2 993c 6463 5fbb
000001e0: e5db 65bd 9040 18bd c2ec bbbd a242 71bd
000001f0: 60d2 5bbd 90da 7ebc d286 b1bd 3c02 71bd
00000200: 902e 713f 7d99 803f cc6d 773f 6a49 863f
00000210: 3757 743f 4bed 6f3f 9ebb 7b3f e14a 783f
00000220: f916 803f 4b16 6e3f fe81 773f 5dac 683f
00000230: 1b04 6f3f e645 743f 60d4 7e3f 8ee4 743f
00000240: 0b54 7d3f b98f 6a3f 180a 803f 0435 6f3f
00000250: 2e1b 713f 4fa3 623f dba0 813f 705e 793f
00000260: e01a 7d3f 8650 7f3f cd5e 743f 6679 703f
00000270: 5ba7 713f 9ddc 693f 5014 6d3f b2cc 803f
00000280: f971 763f 06b6 683f 3f60 873f 751b 7f3f
00000290: 3b93 643f 0c9d 813f e527 743f 6c91 623f
000002a0: 65d0 693f 4d4e 703f db2d 6c3f b2b4 693f
000002b0: 3226 753f b79e 7f3f bb63 783f f40f 6d3f
000002c0: b8f5 7b3f c4cf 663f 541f 783f a42f 753f
000002d0: b62f 6c3f 1280 6e3f f74e 803f 9a37 7d3f
000002e0: c771 6f3f 9595 6e3f 5b07 703f e8c0 7e3f
000002f0: 9f54 753f 4f77 693f ded5 753f 6cc6 7b3f
00000300: efe3 6b3f 5e07 803f c419 823f 884a 7d3f
00000310: baa5 6d3f eacc 7d3f ea22 793f 4e58 763f
00000320: fd98 7b3f 3f68 743f a95d 683f be15 763f
00000330: c22c 713f ceda 6c3f 0338 6f3f edd1 753f
00000340: 698b 713f 5b3c 7f3f 6be9 743f 20ab 733f
00000350: b31c 823f ce39 7a3f 38b3 6f3f e1d6 803f
00000360: b150 723f d7e0 6b3f 9470 7a3f 38e1 793f
00000370: 3ffe 733f c8fb 773f 5f2d 733f 6f7c 7c3f
00000380: 6424 693f eb10 753f 2a99 783f 4b18 723f
00000390: 854f 733f fe2c 723f dc04 863f 14c7 783f
000003a0: 01c4 753f e8f9 713f 8d48 793f 4533 663f
000003b0: 504f 673f 747f 7a3f 2085 803f 8b79 7d3f
000003c0: 7372 7e3f 53b8 693f 2e05 763f 5836 723f
000003d0: f7ea 773f 62cc 633f 98c0 813f 7cc7 7e3f
000003e0: 73f3 713f 051a 733f 0aa2 673f c339 6e3f
000003f0: 868b 6f3f daa3 753f f2b0 643f af22 6d3f
-0.05207599 -0.023279654 -0.02064159 0.01400273 -0.023709677 -0.0477352 -0.008134106 -0.018875722
0.036455184 -0.05868561 -0.031980075 -0.083608285 -0.059623152 -0.021145524 0.00803475 -0.047846213
0.0016339278 -0.060081117 0.035222642 -0.05303187 -0.041009087 -0.04925042 -0.011275838 0.0077762655
-0.023493161 -0.033208597 -0.04349877 -0.06441554 -0.028388985 -0.06673766 -0.0951597 0.0009505201
-0.026244914 -0.0665745 0.07544027 0.009595039 -0.10560218 0.014695565 -0.030432623 -0.06963377
-0.044703618 -0.08002306 -0.0649992 -0.062431976 -0.035487752 0.006935901 -0.013383963 -0.053500388
0.011806766 -0.072969265 -0.018005034 -0.04633428 -0.07975754 0.02050983 7.843338e-05 0.02748971
-0.020793961 -0.013871972 -0.048125472 -0.020138584 -0.046658356 -0.08279968 -0.029038722 -0.0071170465
-0.06264026 -0.0077972324 0.025407936 0.003633017 -0.06425922 0.009504544 -0.020140516 -0.032977343
-0.019334191 -0.04724865 -0.06601688 -0.030982405 -0.05629165 -0.02158864 -0.06782073 -0.023597496
-0.034693033 -0.0067180702 -0.03375625 -0.03884894 0.010221633 -0.006098689 -0.045735855 0.02404043
-0.025600307 -0.03157024 -0.012842156 -0.024641741 -0.030856054 -0.012441526 -0.0522339 0.007472925
-0.105215125 -0.047306858 -0.025731558 -0.048083916 -0.051318247 -0.03826648 0.0025855796 -0.031369295
-0.03125524 -0.065737695 -0.025180671 -0.097510576 -0.07886328 -0.024282077 0.0013073949 -0.0025121698
0.009370706 -0.07007104 -0.035302103 -0.04124205 -0.037779257 -0.10491294 0.018777246 -0.003408634
-0.05611791 -0.037170947 -0.09176017 -0.058901437 -0.053667426 -0.015555039 -0.08668293 -0.05884002
0.94211674 1.0046841 0.9665191 1.0491154 0.9544558 0.93721455 0.98333156 0.96989256
1.0007011 0.93002766 0.9668273 0.90888005 0.9336564 0.95419157 0.9954281 0.95661247
0.98956364 0.91625553 1.000308 0.9344027 0.941821 0.8853044 1.0127214 0.97409725
0.98869133 0.99732244 0.95457155 0.9393524 0.9439599 0.91352254 0.9260912 1.0062468
0.9626766 0.90902746 1.0576247 0.9965127 0.89287156 1.0126052 0.95373374 0.88503146
0.9133361 0.9386948 0.9225747 0.91291344 0.95761406 0.99851555 0.97027177 0.9260247
0.9842181 0.90160775 0.969228 0.9577582 0.922603 0.9316417 1.0024098 0.98912966
0.93532985 0.93196994 0.93761224 0.995131 0.95832247 0.91197675 0.9602946 0.9834964
0.92144674 1.0002248 1.0164113 0.9894185 0.92831004 0.991408 0.973189 0.9622849
0.98280317 0.95471567 0.90767914 0.96126926 0.9420892 0.9252137 0.9344484 0.96023446
0.9435335 0.9970147 0.9566867 0.9518299 1.0165008 0.9774445 0.9363284 1.0065576
0.94654375 0.92139953 0.9782803 0.9760928 0.95309824 0.9686856 0.94991106 0.9862737
0.9107115 0.9572894 0.9710871 0.9456832 0.9504321 0.945999 1.0470233 0.9717877
0.96002203 0.9452195 0.9737633 0.8992198 0.90355396 0.9785073 1.0040627 0.99013585
0.99393386 0.9129688 0.96101654 0.9461417 0.968429 0.8898374 1.01369 0.9952314
0.945121 0.9496158 0.90481627 0.9305689 0.9357227 0.9595314 0.893325 0.9263105

lstm.bias_hh_l0 f4 [512]
00000000: a24d 55bd f9b4 bebc 8d18 a9bc b56b 653c
00000010: cc3a c2bc fc85 43bd ea44 05bc 42a1 9abc
00000020: 0852 153d 5260 70bd 8afd 02bd d23a abbd
00000030: 6837 74bd 6139 adbc 2fa4 033c 64fa 43bd
00000040: 8529 d63a 9e17 76bd 9e45 103d f237 59bd
00000050: 25f9 27bd cfba 49bd 4bbe 38bc 0bd0 fe3b
00000060: bb74 c0bc bd05 08bd c42b 32bd 4bec 83bd
00000070: 0490 e8bc c1ad 88bd 17e3 c2bd 532c 793a
00000080: 93ff d6bc 3658 88bd 6e80 9a3d 8334 1d3c
00000090: f545 d8bd abc5 703c d64d f9bc 269c 8ebd
000000a0: 241b 37bd 21e3 a3bd 4d1e 85bd acb8 7fbd
000000b0: 9b5b 11bd 8e46 e33b 6948 5bbc 3923 5bbd
000000c0: 2a71 413c e970 95bd 4b7f 93bc 04c9 3dbd
000000d0: ec57 a3bd 3b04 a83c 9a7c a438 1a32 e13c
000000e0: 1958 aabc 4547 63bc 371f 45bd acf9 a4bc
000000f0: d51c 3fbd e192 a9bd 9de2 edbc 1d36 e9bb
00000100: 8949 80bd ed7f ffbb 4e24 d03c e917 6e3b
00000110: 579a 83bd f2b8 1b3c b9fd a4bc 4013 07bd
00000120: bd62 9ebc cd87 41bd dc33 87bd d0ce fdbc
00000130: 1392 66bd a9da b0bc 98e5 8abd 894f c1bc
00000140: 481a 0ebd 4223 dcbb fe43 0abd 1120 1fbd
00000150: a378 273c 83d7 c7bb 8555 3bbd 70f0 c43c
00000160: bcb7 d1bc cc4f 01bd e867 52bc 7add c9bc
00000170: d6c5 fcbc 8bd7 4bbc 37f3 55bd 70df f43b
00000180: 077b d7bd d6c4 41bd fdca d2bc a4f3 44bd
00000190: 1533 52bd 50bd 1cbd d472 293b 177d 00bd
000001a0: 7f05 00bd 7ca1 86bd b247 cebc a0b3 c7bd
000001b0: 1283 a1bd 35eb c6bc e55c ab3a 37a3 24bb
000001c0: 9787 193c 6881 8fbd f098 10bd 6ced 28bd
000001d0: 6cbe 1abd 98dc d6bd bdd2 993c 6463 5fbb
000001e0: e5db 65bd 9040 18bd c2ec bbbd a242 71bd
000001f0: 60d2 5bbd 90da 7ebc d286 b1bd 3c02 71bd
00000200: 902e 713f 7d99 803f cc6d 773f 6a49 863f
00000210: 3757 743f 4bed 6f3f 9ebb 7b3f e14a 783f
00000220: f916 803f 4b16 6e3f fe81 773f 5dac 683f
00000230: 1b04 6f3f e645 743f 60d4 7e3f 8ee4 743f
00000240: 0b54 7d3f b98f 6a3f 180a 803f 0435 6f3f
00000250: 2e1b 713f 4fa3 623f dba0 813f 705e 793f
00000260: e01a 7d3f 8650 7f3f cd5e 743f 6679 703f
00000270: 5ba7 713f 9ddc 693f 5014 6d3f b2cc 803f
00000280: f971 763f 06b6 683f 3f60 873f 751b 7f3f
00000290: 3b93 643f 0c9d 813f e527 743f 6c91 623f
000002a0: 65d0 693f 4d4e 703f db2d 6c3f b2b4 693f
000002b0: 3226 753f b79e 7f3f bb63 783f f40f 6d3f
000002c0: b8f5 7b3f c4cf 663f 541f 783f a42f 753f
000002d0: b62f 6c3f 1280 6e3f f74e 803f 9a37 7d3f
000002e0: c771 6f3f 9595 6e3f 5b07 703f e8c0 7e3f
000002f0: 9f54 753f 4f77 693f ded5 753f 6cc6 7b3f
00000300: efe3 6b3f 5e07 803f c419 823f 884a 7d3f
00000310: baa5 6d3f eacc 7d3f ea22 793f 4e58 763f
00000320: fd98 7b3f 3f68 743f a95d 683f be15 763f
00000330: c22c 713f ceda 6c3f 0338 6f3f edd1 753f
00000340: 698b 713f 5b3c 7f3f 6be9 743f 20ab 733f
00000350: b31c 823f ce39 7a3f 38b3 6f3f e1d6 803f
00000360: b150 723f d7e0 6b3f 9470 7a3f 38e1 793f
00000370: 3ffe 733f c8fb 773f 5f2d 733f 6f7c 7c3f
00000380: 6424 693f eb10 753f 2a99 783f 4b18 723f
00000390: 854f 733f fe2c 723f dc04 863f 14c7 783f
000003a0: 01c4 753f e8f9 713f 8d48 793f 4533 663f
000003b0: 504f 673f 747f 7a3f 2085 803f 8b79 7d3f
000003c0: 7372 7e3f 53b8 693f 2e05 763f 5836 723f
000003d0: f7ea 773f 62cc 633f 98c0 813f 7cc7 7e3f
000003e0: 73f3 713f 051a 733f 0aa2 673f c339 6e3f
000003f0: 868b 6f3f daa3 753f f2b0 643f af22 6d3f
-0.05207599 -0.023279654 -0.02064159 0.01400273 -0.023709677 -0.0477352 -0.008134106 -0.018875722
0.036455184 -0.05868561 -0.031980075 -0.083608285 -0.059623152 -0.021145524 0.00803475 -0.047846213
0.0016339278 -0.060081117 0.035222642 -0.05303187 -0.041009087 -0.04925042 -0.011275838 0.0077762655
-0.023493161 -0.033208597 -0.04349877 -0.06441554 -0.028388985 -0.06673766 -0.0951597 0.0009505201
-0.026244914 -0.0665745 0.07544027 0.009595039 -0.10560218 0.014695565 -0.030432623 -0.06963377
-0.044703618 -0.08002306 -0.0649992 -0.062431976 -0.035487752 0.006935901 -0.013383963 -0.053500388
0.011806766 -0.072969265 -0.018005034 -0.04633428 -0.07975754 0.02050983 7.843338e-05 0.02748971
-0.020793961 -0.013871972 -0.048125472 -0.020138584 -0.046658356 -0.08279968 -0.029038722 -0.0071170465
-0.06264026 -0.0077972324 0.025407936 0.003633017 -0.06425922 0.009504544 -0.020140516 -0.032977343
-0.019334191 -0.04724865 -0.06601688 -0.030982405 -0.05629165 -0.02158864 -0.06782073 -0.023597496
-0.034693033 -0.0067180702 -0.03375625 -0.03884894 0.010221633 -0.006098689 -0.045735855 0.02404043
-0.025600307 -0.03157024 -0.012842156 -0.024641741 -0.030856054 -0.012441526 -0.0522339 0.007472925
-0.105215125 -0.047306858 -0.025731558 -0.048083916 -0.051318247 -0.03826648 0.0025855796 -0.031369295
-0.03125524 -0.065737695 -0.025180671 -0.097510576 -0.07886328 -0.024282077 0.0013073949 -0.0025121698
0.009370706 -0.07007104 -0.035302103 -0.04124205 -0.037779257 -0.10491294 0.018777246 -0.003408634
-0.05611791 -0.037170947 -0.09176017 -0.058901437 -0.053667426 -0.015555039 -0.08668293 -0.05884002
0.94211674 1.0046841 0.9665191 1.0491154 0.9544558 0.93721455 0.98333156 0.96989256
1.0007011 0.93002766 0.9668273 0.90888005 0.9336564 0.95419157 0.9954281 0.95661247
0.98956364 0.91625553 1.000308 0.9344027 0.941821 0.8853044 1.0127214 0.97409725
0.98869133 0.99732244 0.95457155 0.9393524 0.9439599 0.91352254 0.9260912 1.0062468
0.9626766 0.90902746 1.0576247 0.9965127 0.89287156 1.0126052 0.95373374 0.88503146
0.9133361 0.9386948 0.9225747 0.91291344 0.95761406 0.99851555 0.97027177 0.9260247
0.9842181 0.90160775 0.969228 0.9577582 0.922603 0.9316417 1.0024098 0.98912966
0.93532985 0.93196994 0.93761224 0.995131 0.95832247 0.91197675 0.9602946 0.9834964
0.92144674 1.0002248 1.0164113 0.9894185 0.92831004 0.991408 0.973189 0.9622849
0.98280317 0.95471567 0.90767914 0.96126926 0.9420892 0.9252137 0.9344484 0.96023446
0.9435335 0.9970147 0.9566867 0.9518299 1.0165008 0.9774445 0.9363284 1.0065576
0.94654375 0.92139953 0.9782803 0.9760928 0.95309824 0.9686856 0.94991106 0.9862737
0.9107115 0.9572894 0.9710871 0.9456832 0.9504321 0.945999 1.0470233 0.9717877
0.96002203 0.9452195 0.9737633 0.8992198 0.90355396 0.9785073 1.0040627 0.99013585
0.99393386 0.9129688 0.96101654 0.9461417 0.968429 0.8898374 1.01369 0.9952314
0.945121 0.9496158 0.90481627 0.9305689 0.9357227 0.9595314 0.893325 0.9263105

fc.weight f4 [1, 128]
00000000: e2d7 82bd 5f30 043e db7c c6bc ee8e 933d
00000010: 34b7 9bbd 08dc 7e3d 97b0 b4bc bfb7 6abd
00000020: 82bb 243e f726 04be 87e2 febd 36f6 b63c
00000030: 17f0 413e bfd8 c63d 41a6 623c 9120 bb3d
00000040: 9b49 943e ae4a 9fbd 425a d83d a636 903d
00000050: 935e 983d f08e 83bc 786a bebd a4b7 123e
00000060: 470b 083d 4f24 2d3c 05f2 2a3d c902 26bd
00000070: fbf5 10be 04fb 663e a8d7 773c c6b6 a4bd
00000080: 8e0c 3d3c a6af 27be 92c1 103d 1a8a 4dbe
00000090: be81 b3bc 7860 03bd 6080 89bd 807c 0abd
000000a0: b164 c33c 6327 ddbd 3f99 cebd b6b7 153e
000000b0: 2b08 bbbd c6c6 d53d b79c 943d d9fa 403d
000000c0: 01c8 dd3c ee55 773e d7fd 15be ea51 843d
000000d0: 11ba 72be d197 81bd 6abe 78be 403f cd3d
000000e0: 753b b23d 418a 853d ef96 99bc 1eca e53d
000000f0: 4135 d23c bc06 1e3d ed2a 093d b9c7 86bd
00000100: 58ca aa3d dbbe ac3d 613f 47be 603d 98bc
00000110: 0f4b 47bd 7a2a 923e 43dc e33b 5017 c0bd
00000120: a634 25bd 8615 cf3d 4ecb eabd 402b 52be
00000130: 72d2 14bc 97dc a53d 77bf 393e bd2a fabd
00000140: e0a8 c4bc b1f2 453d 2e89 f73d 6060 0dbd
00000150: 83e6 943d 89f1 64bd 9ca9 a03d 4319 3ebe
00000160: 6b7a 4cbe be89 ecbd 9874 1abe fa5b 343e
00000170: a8c6 f5ba 98f2 2bbd 78f9 dcbc b63f 843d
00000180: fa56 093e 306b 433c 7d3c 203d eaa6 613d
00000190: b28c 37bd f30c 943d 489a 333d 204f fc3c
000001a0: 7021 883d 9b66 f83d a711 52bd 0f0b 923d
000001b0: e849 483d eefa c4bd 1138 41bd 199c e13c
000001c0: 9211 c33d 9a5d 9ebd 44d5 28be b308 e93d
000001d0: dc1e f2bd e3ed aabc b126 913d bb1b b4bd
000001e0: b6ce bb3d 431c 7abe c75e 1ebc d73e 5d3e
000001f0: 01cc c23d 816c bbbd 8b1e fa3d 5de8 523d
-0.06388833 0.12909077 -0.024229458 0.07204996 -0.076033026 0.062221557 -0.02205686 -0.05730414
0.16087154 -0.12905489 -0.124455504 0.0223342 0.18939243 0.0970931 0.013833583 0.09137071
0.28962407 -0.07777916 0.1056409 0.07041673 0.074399136 -0.016059369 -0.09297651 0.14327866
0.03321388 0.010567739 0.041734714 -0.04053 -0.14156334 0.22556692 0.0151271 -0.08042674
0.011538638 -0.16375598 0.035340853 -0.20072213 -0.021912452 -0.03207442 -0.06713939 -0.03381014
0.023851724 -0.10798528 -0.10087823 0.14620861 -0.09132417 0.10438304 0.072564535 0.047114227
0.027072908 0.24153873 -0.14647613 0.06460936 -0.23703791 -0.06327785 -0.24291387 0.100218296
0.08702747 0.065205105 -0.018748729 0.112201914 0.025660159 0.03858064 0.033488203 -0.06581063
0.08339375 0.0843484 -0.19457771 -0.018583953 -0.048655566 0.28548032 0.0069537475 -0.093794465
-0.040333413 0.10111527 -0.114645585 -0.20524311 -0.009083377 0.08098715 0.18139444 -0.12215183
-0.024006307 0.04832715 0.12086712 -0.03451574 0.07270529 -0.05589441 0.078448504 -0.18564324
-0.19968574 -0.1154971 -0.1508354 0.17613211 -0.0018751221 -0.041979402 -0.026974425 0.064574644
0.13412085 0.011927411 0.039120186 0.055090822 -0.044811912 0.07229032 0.043848306 0.030799448
0.06647003 0.121289454 -0.051286366 0.071310155 0.048898607 -0.096181735 -0.04717261 0.027540253
0.09524836 -0.07732697 -0.16487604 0.11378612 -0.11822292 -0.020865386 0.07087458 -0.08794352
0.09170286 -0.24424843 -0.009666151 0.21606003 0.09511567 -0.09151555 0.12212857 0.05149113

exp_avg f4 [512, 3]
00000000: 1400 9339 fa8b 3f39 44b5 e9b7 6eb2 593a
00000010: acb6 013a 9840 a3b8 25ee 0139 af09 ae38
00000020: 102a 7838 ca6d c837 7ea8 0038 705f 03b6
00000030: 6915 8739 056f 5a39 d835 28b6 25d8 a4b8
00000040: b333 3fb8 4516 b237 e82b 3838 370a 2b38
00000050: 94c5 ba36 b500 36b8 16b4 59b8 d6bf 2bb7
00000060: 6178 8bb8 0b65 93b8 5a4d 7fb7 f51f d639
00000070: 231f 0d39 a041 9db8 7a36 6c38 2b4a 4d38
00000080: 1a37 1836 8a6a 3739 f656 0939 ae03 8836
00000090: 36c3 c239 4ee5 9639 843d 0cb8 09c7 b3b8
000000a0: 24dc abb8 1657 4db6 307f 6d37 67e9 5637
000000b0: 2943 1736 31e8 70b9 ddae 18b9 505f 4934
000000c0: ea80 323a 7cf3 a039 6c19 d0b9 7033 eab6
000000d0: 1e98 27b8 7f90 af37 3828 0d39 acf1 1739
000000e0: 9d7a 3438 505b 36b9 5fdd e7b8 09ac 8938
000000f0: f631 9138 9b76 7638 842b 48b8 ac77 8b38
00000100: 14e5 8538 de87 2f37 8643 8238 3e47 6f38
00000110: 233d 0c37 9e93 963a 7df9 2c3a 985c 65b8
00000120: 92b4 053a 02ac 9539 a701 43b8 24fd 8f38
00000130: aa7b 4b38 92cf 5d37 7c2b f938 b670 9538
00000140: 40d1 9cb4 2d9d edb7 e0b2 3bb7 b2c8 a8b7
00000150: 20e7 1d37 3c91 0cb8 488b 3937 65de b939
00000160: 4a89 3539 3bcb 66b8 fc9b c8b7 4876 6f37
00000170: ba8b 87b7 25c5 033a 6e74 9b39 3d12 5fb9
00000180: 2aa0 5839 56fb 2539 8fb9 5c37 7cf9 ffb9
00000190: 3943 92b9 ded5 0a38 593c b7b7 35f9 a9b7
000001a0: ecbf 92b6 639c a6b9 26a4 99b9 31c3 e2b7
000001b0: 51d4 c2b7 4006 97b7 d202 a136 2946 5438
000001c0: 862e 4538 7f8e 1537 bcb8 ae39 f2ef 9f39
000001d0: a5bc 1638 5bf2 c638 ec75 9f38 e0e6 30b5
000001e0: 019d 5239 2e33 3639 c46b 60b7 796a 8839
000001f0: 4286 4d39 605a 66b6 e0f8 e2b6 7cfa 0139
00000200: 15ae d138 ce65 1b39 1629 1939 20e0 1438
00000210: 16d3 ba39 0818 2339 0275 e3b7 5826 36ba
00000220: 20d3 bdb9 c546 9838 b65b 8e38 3643 8438
00000230: 8c6e e036 9fdf b438 384a 5838 099f f3b7
00000240: 088a 0438 d0e2 0638 1d06 c636 ead6 bfb9
00000250: 8a29 fcb9 3869 f5b8 bc7c 4e39 1c48 9438
00000260: 88c9 6ab8 45a3 aab8 c889 14b8 24f5 01b7
00000270: 7e2d 803a acee fe39 59fb e7b8 6d75 4f38
00000280: 8f59 8538 ac40 4238 7edf 263a 4a5f d739
00000290: ecb7 37b9 b7bf ae38 f9b5 c236 6c54 0db8
000002a0: e0c0 1b39 67d1 1d39 1ce8 e537 1ebc 9d38
000002b0: 6f7f 9c38 dfd3 8737 2bad c3b9 6e67 6eb9
000002c0: 9409 0c38 8180 1b39 6bcd 0539 501f a337
000002d0: 04dd 0538 508c eb36 8a31 b0b7 7c17 1639
000002e0: 7281 0339 5b8c 4eb8 3b66 9c39 9723 5839
000002f0: 9a57 afb8 adeb 9738 8cbb 9238 8e99 4337
00000300: 9bc4 0f39 d260 d338 8b32 1638 644d 8a37
00000310: 1050 a537 329e 5136 e003 7639 34f9 b639
00000320: 5717 88b9 56b3 d337 0d4e e637 c4be cd36
00000330: 9da2 beb8 b0cc cd37 62e8 9838 7848 ab3a
00000340: 7072 473a 92f8 f4b9 c864 943a e4da 523a
00000350: bf71 cfb8 2fad 2d38 e486 7838 acd4 6937
00000360: 6e69 61b8 c853 44b8 0d86 b4b7 a29a 6038
00000370: fa65 9338 ec27 c036 7aa8 8439 a012 5238
00000380: 38f6 5ab8 c4a5 923a c18f 323a faaa 8d38
00000390: d0fd cb37 9e3f 0238 d613 1637 6b86 e538
000003a0: 226f aa38 d0ba 1f37 7029 1b3a 99c6 fe39
000003b0: c502 a0b8 6888 aeb7 032b b1b8 62c8 09b8
000003c0: 7c28 9339 8834 4938 ec79 e5b8 8983 023a
000003d0: 24e3 b139 0686 6938 5956 b9b9 c564 dab7
000003e0: e96a f538 2e2b feb6 098a 47b7 0b05 9fb6
000003f0: 2c5f 52b8 ee03 54b8 c4f8 33b7 f9fe 1c39
0.00028038083 0.00018267325 -2.7860173e-05 0.0008304481 0.00049481797 -7.784477e-05 0.00012391114 8.29877e-05
5.916698e-05 2.3892982e-05 3.06745e-05 -1.9576073e-06 0.00025765158 0.00020831458 -2.5065292e-06 -7.8603895e-05
-4.5586097e-05 2.1229624e-05 4.390991e-05 4.077909e-05 5.566233e-06 -4.339284e-05 -5.190455e-05 -1.02370595e-05
-6.650459e-05 -7.028327e-05 -1.5217194e-05 0.0004084107 0.00013458407 -7.498567e-05 5.631752e-05 4.8944883e-05
2.2681838e-06 0.00017491929 0.00013097734 4.053544e-06 0.00037148007 0.00028781075 -3.3435892e-05 -8.572458e-05
-8.19492e-05 -3.059807e-06 1.4155914e-05 1.2809737e-05 2.2539846e-06 -0.00022974682 -0.00014560991 1.8754258e-07
0.0006809371 0.00030698988 -0.00039691792 -6.9797316e-06 -3.9957573e-05 2.0928912e-05 0.0001346179 0.00014490512
4.3029537e-05 -0.00017390889 -0.00011056172 6.564713e-05 6.923445e-05 5.876143e-05 -4.7724243e-05 6.650327e-05
6.384603e-05 1.0462447e-05 6.21146e-05 5.704839e-05 8.358885e-06 0.0011488085 0.0006598456 -5.468409e-05
0.00051004544 0.0002854765 -4.649316e-05 6.8659225e-05 4.8514143e-05 1.3220955e-05 0.00011881345 7.125868e-05
-2.9209514e-07 -2.8325792e-05 -1.1187716e-05 -2.0120617e-05 9.411742e-06 -3.351386e-05 1.1059288e-05 0.00035451647
0.0001731265 -5.5025546e-05 -2.3914494e-05 1.427305e-05 -1.615832e-05 0.000502663 0.0002965065 -0.00021273732
0.00020659031 0.00015829256 1.3156226e-05 -0.0004882327 -0.00027897375 3.3100943e-05 -2.1843402e-05 -2.0262416e-05
-4.3734817e-06 -0.00031778504 -0.00029304734 -2.7032193e-05 -2.322547e-05 -1.8003513e-05 4.7985022e-06 5.061008e-05
4.701179e-05 8.9142695e-06 0.00033325504 0.00030505616 3.5938476e-05 9.486518e-05 7.6036755e-05 -6.5901077e-07
0.00020085649 0.00017375938 -1.3376532e-05 0.0002601927 0.00019600338 -3.4325276e-06 -6.7642977e-06 0.00012395711
9.998322e-05 0.00014819877 0.00014606523 3.5494682e-05 0.00035633956 0.00015553844 -2.7114995e-05 -0.00069484627
-0.0003620619 7.261107e-05 6.78817e-05 6.3067695e-05 6.6885896e-06 8.6247215e-05 5.1567535e-05 -2.9041914e-05
3.1599804e-05 3.2159325e-05 5.9015715e-06 -0.00036590482 -0.00048096135 -0.00011702109 0.00019692158 7.070621e-05
-5.5977638e-05 -8.136643e-05 -3.541427e-05 -7.746075e-06 0.0009779183 0.0004862448 -0.000110617555 4.9462007e-05
6.358616e-05 4.6313435e-05 0.00063657004 0.00041078991 -0.00017520756 8.332676e-05 5.802835e-06 -3.3695644e-05
0.00014853803 0.00015050695 2.7407012e-05 7.521383e-05 7.462396e-05 1.6191914e-05 -0.00037322319 -0.0002273598
3.338752e-05 0.00014829823 0.00012760393 1.9445695e-05 3.1915508e-05 7.0198803e-06 -2.1003903e-05 0.00014313863
0.00012541356 -4.9244944e-05 0.00029830806 0.00020612623 -8.360967e-05 7.244139e-05 6.996756e-05 1.1658658e-05
0.00013710784 0.00010079298 3.580986e-05 1.648692e-05 1.9706815e-05 3.1235509e-06 0.00023461832 0.00034899416
-0.0002595733 2.523667e-05 2.7454482e-05 6.131684e-06 -9.090195e-05 2.453322e-05 7.2912095e-05 0.0013067862
0.00076083 -0.00046724506 0.0011321539 0.00080434815 -9.891716e-05 4.1407704e-05 5.9253434e-05 1.3937399e-05
-5.374237e-05 -4.680807e-05 -2.1520094e-05 5.3549775e-05 7.028501e-05 5.7266934e-06 0.00025302527 5.0085247e-05
-5.220456e-05 0.0011188318 0.0006811582 6.755251e-05 2.4317676e-05 3.1053663e-05 8.945315e-06 0.00010944608
8.126932e-05 9.520634e-06 0.00059189554 0.00048594622 -7.6299104e-05 -2.0805935e-05 -8.448029e-05 -3.2849966e-05
0.00028068188 4.7971058e-05 -0.00010942281 0.0004978707 0.00033929304 5.5676348e-05 -0.00035350284 -2.603455e-05
0.00011702424 -7.5748167e-06 -1.1893463e-05 -4.7391563e-06 -5.0156537e-05 -5.05484e-05 -1.0727152e-05 0.00014972304

exp_avg_sq f4 [512, 3]
00000000: af54 fc34 1c9b d034 306e 7133 d016 5336
00000010: b0da 7235 5f07 d834 2fc1 2634 7d24 8034
00000020: b4e8 0233 736a ac32 6f7d c833 f8c8 8732
00000030: 1413 4435 d968 8835 dff0 4833 19a8 be33
00000040: a3fd 8134 a577 fa32 78e3 b432 2ef2 f332
00000050: fe4c e630 b77a cf33 7fb6 2334 95f4 ca32
00000060: d75d 1435 cd90 1735 bc99 f532 af7f 9c35
00000070: e62c 4c35 1735 4334 63e7 c133 88f9 d533
00000080: 7706 b431 276d 7234 655f e434 fa2c e733
00000090: a8bd a335 4e2b 9135 9669 0734 cff7 6934
000000a0: c71f b334 c0da 6c32 84c6 9e31 6481 cf31
000000b0: 1be3 6930 6eb0 d334 b828 6535 79d8 5234
000000c0: 32e3 0b38 e87c 7138 21e0 5736 d1f6 3634
000000d0: 3d91 b234 42fe 9b32 47c4 8b34 d5b9 7f34
000000e0: e865 be32 177d c334 b634 3935 aa5f 1134
000000f0: 3cb0 2e34 9be4 e234 d839 8533 c2e6 dd32
00000100: 0b36 5733 3c6b b731 db76 d933 5d14 c833
00000110: c385 8f31 711f b736 d19c 0237 fc46 1336
00000120: 9d60 9635 2571 b134 0eb4 f933 bd96 ed32
00000130: 698c 9532 f832 3a31 0c86 b833 5c58 3234
00000140: 19fc a532 ce05 3133 8158 0934 6f62 1832
00000150: 704a 9534 def1 fd35 24fe a334 49f6 6235
00000160: f3d8 0136 93e5 4f34 0c3f 9a33 2e6b b334
00000170: 4f49 1233 915c 1536 a63e 3336 dc79 8c34
00000180: 69fa c534 1945 3235 ef7e 5133 54d4 e835
00000190: 06fc 5736 93a2 c634 9a74 9533 f736 a733
000001a0: 6ed9 ae31 2a47 2a36 2c7a 3a36 6a21 f533
000001b0: bb10 3b33 01af 3833 4d82 a431 165c 7d33
000001c0: 083d 8633 b49f af31 92d2 1435 f12b 9435
000001d0: 7567 d933 9f02 0133 11ca 1433 ae29 2232
000001e0: a52a 8734 c3a5 8434 c83c 9d32 5e82 9234
000001f0: 0482 8034 cf3c b832 bde1 2f35 d957 db35
00000200: 75b6 ac34 67b0 fc34 ea85 0a35 3073 db32
00000210: be48 8135 dcc2 2836 a2ff 8934 3cf7 4c36
00000220: 374c 0436 d690 d834 cc74 9834 44df 9534
00000230: 1b5f 8d32 62e6 5f33 60ef 0f33 3eac 2032
00000240: 6523 b632 b7d0 ac32 87aa 8b31 1acc 4537
00000250: e0a3 5337 6b28 c134 1771 7636 ec0a bd36
00000260: 2b2c e134 f9f3 4934 96d0 cf34 2ee8 7132
00000270: 6c1b ac36 6236 c336 7ae0 8935 4b02 5e33
00000280: e50c c733 7906 8932 fa80 df35 328c 8435
00000290: 00f4 e134 88eb 6b34 f691 8f34 753c 9433
000002a0: fb5f da33 bcd6 df33 a9d9 0532 3edc bb33
000002b0: 77e2 4e34 d120 b732 c7f3 7736 ba09 5537
000002c0: 6ed9 9d35 4b59 2d34 8dfc c634 9712 b832
000002d0: 0c95 ea32 6bac b633 2d38 0d32 cbd0 2934
000002e0: 0977 6634 2fea 5833 7328 0a35 b0ca f034
000002f0: b9fe 2134 7a63 fa33 9084 f033 bb3e a931
00000300: de46 7b34 b160 8b34 961f 9432 20ba 3734
00000310: 3697 1934 078e 1332 d8c5 df36 5dc8 0138
00000320: bcc7 8536 7828 b732 aad0 c232 53a3 df30
00000330: b115 8635 f8b9 8d36 cf59 f334 201b 7137
00000340: 4b6b 3937 09e7 cb35 11a0 c836 cc05 5e36
00000350: 509a 9635 360a 2833 719d 7b33 d45f 2332
00000360: 3939 8f34 9112 4635 c54b 9633 2087 9534
00000370: 52d4 8835 0f23 3034 0ebe 1335 5fcb 2334
00000380: bc00 a433 2336 d936 d050 0037 0d5f dc35
00000390: db94 5334 e27d ff34 5a0b 1333 d619 f632
000003a0: 378a 3333 ab33 a631 c24f c635 bdc1 9b35
000003b0: bb51 5234 457e 7135 55a7 3f35 3cf9 8c33
000003c0: e45e 5136 eae4 2236 77cb 8134 0f55 a835
000003d0: 921a 3b36 6fdf cf34 2322 0636 a7bf 3936
000003e0: aa11 4d35 2c0d 6432 85a4 cb32 f89f 8b31
000003f0: 5900 db33 ac73 d733 e5ab b431 7025 3735
4.7000273e-07 3.8855876e-07 5.62124e-08 3.1454729e-06 9.047026e-07 4.0238498e-07 1.5530235e-07 2.3868407e-07
3.0479626e-08 2.0071843e-08 9.336042e-08 1.5807458e-08 7.304345e-07 1.0163304e-06 4.67852e-08 8.878141e-08
2.4212667e-07 2.9158238e-08 2.1058199e-08 2.8399054e-08 1.6756585e-09 9.66151e-08 1.524695e-07 2.3627118e-08
5.527085e-07 5.6462596e-07 2.8591664e-08 1.1660067e-06 7.606126e-07 1.8180104e-07 9.029352e-08 9.963975e-08
5.2394244e-09 2.2577716e-07 4.2537718e-07 1.0764957e-07 1.2199644e-06 1.0815945e-06 1.2611267e-07 2.1789968e-07
3.336447e-07 1.3786746e-08 4.620974e-09 6.039203e-09 8.508764e-10 3.9430182e-07 8.53684e-07 1.9636526e-07
3.3351775e-05 5.7575206e-05 3.2167957e-06 1.7039862e-07 3.3260758e-07 1.8159998e-08 2.6033578e-07 2.3816331e-07
2.2165253e-08 3.6412595e-07 6.8994575e-07 1.353898e-07 1.6269126e-07 4.2262113e-07 6.203817e-08 2.5832723e-08
5.010774e-08 5.338192e-09 1.01264696e-07 9.31693e-08 4.1770547e-09 5.4574853e-06 7.7851155e-06 2.1946025e-06
1.1203989e-06 3.3051143e-07 1.1627718e-07 2.7658979e-08 1.7409734e-08 2.7095535e-09 8.592551e-08 1.6609687e-07
1.9323169e-08 4.1216303e-08 1.2791317e-07 8.869946e-09 2.7807573e-07 1.8920362e-06 3.0546028e-07 8.454995e-07
1.934878e-06 1.9361896e-07 7.182652e-08 3.3419332e-07 3.4059948e-08 2.225661e-06 2.6709545e-06 2.6165696e-07
3.6876307e-07 6.641072e-07 4.877705e-08 1.7347143e-06 3.2184194e-06 3.6998662e-07 6.959563e-08 7.7865415e-08
5.0887854e-09 2.5373397e-06 2.7787273e-06 1.14147795e-07 4.3554547e-08 4.3000004e-08 4.7878417e-09 5.8989905e-08
6.250963e-08 5.1113265e-09 5.5440717e-07 1.1039648e-06 1.0123669e-07 3.0037537e-08 3.4642714e-08 9.439118e-09
2.5176737e-07 2.4707523e-07 1.8304846e-08 2.7289474e-07 2.3936457e-07 2.1448072e-08 6.552107e-07 1.6342339e-06
3.2170252e-07 4.7067007e-07 5.1603877e-07 2.5547337e-08 9.63242e-07 2.5147374e-06 2.5704236e-07 3.0542278e-06
1.9713896e-06 4.0338517e-07 2.8397187e-07 2.791586e-07 1.645781e-08 5.2130765e-08 3.3512492e-08 9.352389e-09
2.1203684e-08 2.0118348e-08 4.064819e-09 1.1789636e-05 1.2614735e-05 3.597846e-07 3.6722683e-06 5.6339104e-06
4.1941652e-07 1.880834e-07 3.870852e-07 1.4080838e-08 5.129192e-06 5.817784e-06 1.0272627e-06 5.169049e-08
9.269005e-08 1.5951843e-08 1.6652332e-06 9.875569e-07 4.208705e-07 2.1971766e-07 2.6742026e-07 6.902784e-08
1.0168875e-07 1.0423307e-07 7.791109e-09 8.747928e-08 1.9267632e-07 2.1318927e-08 3.6947765e-06 1.2698054e-05
1.1760692e-06 1.6144365e-07 3.706413e-07 2.1428873e-08 2.7308964e-08 8.506398e-08 8.220053e-09 1.581531e-07
2.1463724e-07 5.0504408e-08 5.146787e-07 4.4850958e-07 1.5086961e-07 1.1659627e-07 1.1199984e-07 4.925679e-09
2.3401978e-07 2.596112e-07 1.7243831e-08 1.7110915e-07 1.4304246e-07 8.588819e-09 6.66895e-06 3.09426e-05
3.986961e-06 2.1322407e-08 2.2679462e-08 1.6271805e-09 9.990091e-07 4.223777e-06 4.5327621e-07 1.4371035e-05
1.105184e-05 1.5191919e-06 5.9790987e-06 3.3083952e-06 1.1220782e-06 3.9124835e-08 5.8583684e-08 9.5096375e-09
2.667746e-07 7.3787766e-07 6.998702e-08 2.785173e-07 1.0194583e-06 1.6404032e-07 5.5038333e-07 1.5254544e-07
7.636979e-08 6.4734063e-06 7.64821e-06 1.6418941e-06 1.970506e-07 4.7589043e-07 3.423643e-08 2.8649918e-08
4.180239e-08 4.83711e-09 1.4775362e-06 1.1604785e-06 1.9587507e-07 8.996324e-07 7.1396545e-07 6.5645935e-08
3.119866e-06 2.4273127e-06 2.4176163e-07 1.2541731e-06 2.7880637e-06 3.8719324e-07 1.9987426e-06 2.7678705e-06
7.6394156e-07 1.3274342e-08 2.3707125e-08 4.0636188e-09 1.01980454e-07 1.0032758e-07 5.2582316e-09 6.822729e-07

exp_avg f4 [512, 128]
00000000: f4c3 50b8 5e07 8538 d4ac 61b7 1e91 f1b8
00000010: 1935 12b9 8b7e dab8 ae52 0e39 4b95 0039
00000020: a077 f938 8244 e5b8 de97 2eb9 00bd 8fb7
00000030: 343d 9938 2210 c038 ebca ea38 0c8c 7837
00000040: ec80 6837 3ae8 2db9 3cfa 04b9 327c 02b7
00000050: a6a3 b836 dcc8 8437 b41a f8b8 3345 0439
00000060: 160d 6838 cc6b bcb8 c4d3 9c37 f4fa 3d38
00000070: fc64 8837 2e4e e638 c7bc 01b8 e5a3 57b8
00000080: a204 f338 c3ba b338 5343 3db9 b22e 3039
00000090: 477b 59b6 3d12 39b9 6e4b e637 d8fd 07b7
000000a0: 74a8 9537 9dfd 18b8 2b7f 6f37 87e6 5336
000000b0: 6bbc 00b9 0477 b5b8 3a57 2d39 4f8b 3137
000000c0: dbf0 ff38 a7be 0837 e648 10b7 8273 01b9
000000d0: 0118 dcb8 0c99 0137 1281 c5b8 2199 3639
000000e0: b43e a8b4 d35f e7b6 f839 6e37 32a5 6d37
000000f0: ba37 b936 0a57 4d37 64a9 e337 5c62 0bb9
00000100: 2722 4436 a8c1 32b9 0b7a a037 b094 2bb9
00000110: 6c43 f7b6 4008 0039 baa7 7738 302c e3b6
00000120: ff17 29b8 6335 2037 9d59 83b8 f668 abb8
00000130: 189d 0a38 aa62 8236 8939 5d37 1846 2fb9
00000140: daf2 6837 883c d0b8 beb2 f7b8 2b1b 1a39
00000150: 8000 1c39 0b6b 2a39 856a 0538 80dc dcb8
00000160: 5c70 2439 6c8a f538 d4c5 f4b8 ab1a 1537
00000170: 8477 cbb7 544d 0037 f852 6d37 e410 23b9
00000180: 225b 5c37 8ea1 32b7 3d6a 8236 854c 7ab7
00000190: e5c5 8c38 5aa5 4138 c6bb 7db8 3a6f de37
000001a0: 54c8 09b9 4884 32b8 e830 23b8 b483 beb7
000001b0: 00dd b735 2501 86b8 d089 2db7 fb9c d638
000001c0: 7569 0139 f6fd f837 569d c2b7 946e f238
000001d0: b6af 2bb9 f243 5bb6 9a10 5f38 21c5 3639
000001e0: ea53 c8b8 d80a d3b7 5370 2db6 67de afb8
000001f0: 2c7f 8fb8 307c ea37 dc76 08b7 8cf8 1a38
00000200: c366 1fb9 c4c9 4339 9a2c 2eb8 6669 9bb9
00000210: 3c14 bfb9 9ad9 90b9 d425 c039 1e96 a239
00000220: fe51 aa39 89c2 99b9 d6f3 e7b9 9826 4fb8
00000230: 663b 6a39 6aff 8539 7788 9939 a3c6 1a38
00000240: 7bfe a538 de02 ebb9 6436 b4b9 c0ca c6b7
00000250: 0504 3937 b7ae a837 feab a3b9 8946 bc39
00000260: 6fa1 2739 9858 76b9 3be0 4938 61a8 dd38
00000270: 2e2b be37 6419 9839 09ed b8b8 1865 36b9
00000280: a60c a039 960a 5739 e0cd efb9 6353 e139
00000290: d01a ccb6 c408 eeb9 f472 c338 9dd9 04b8
000002a0: c801 2b38 34c4 beb8 a33e 0738 3afa 4637
000002b0: e81b acb9 f6ba 64b9 4252 e439 ded0 e837
000002c0: d550 ac39 476d 3b38 8836 28b8 8ee6 a7b9
000002d0: e222 95b9 40ac d136 d4be 8fb9 f04d f339
000002e0: ecd8 c6b7 0906 3a37 2640 d237 f6b2 2538
000002f0: 89c0 6037 9af9 1f38 4491 b338 0074 b8b9
00000300: b065 18b7 2eff e9b9 04fc 2f38 b499 deb9
00000310: 74af aab6 421b c739 6c25 3739 1b1d 34b7
00000320: 8b76 cdb8 4e75 0337 0e6a 39b9 e043 72b9
00000330: 105c b638 7155 da37 160f 5638 4dca e7b9
00000340: 2f74 1e38 915e 96b9 be96 a2b9 6ce3 c739
00000350: dc53 d439 0f39 de39 a499 a838 1850 a6b9
00000360: 5c4e d239 a141 9a39 986f a2b9 26fa 5b38
00000370: cbba b0b8 2812 11b6 f1cc d237 20d5 d2b9
00000380: 4484 1738 0e2e f1b7 3851 de37 64d0 17b8
00000390: 9807 3139 929f 0539 f602 1cb9 3eda 8c38
000003a0: 06a6 aeb9 3757 eeb8 6e4e d9b8 78d9 86b8
000003b0: 2076 8a37 a5a0 32b9 f2d8 46b8 f51b 8d39
000003c0: 2ed7 a839 d3d7 8f38 70c8 b4b8 78a3 a139
000003d0: 2fc6 e2b9 3060 de36 f4f5 4c39 ab3f ec39
000003e0: 1947 83b9 b4e8 88b8 abcf 11b7 0294 64b9
000003f0: 80fb 34b9 3bad ab38 ebcb 89b7 c4bb d538
-4.977356e-05 6.3433064e-05 -1.3451285e-05 -0.00011518806 -0.00013943425 -0.000104186205 0.00013572976 0.00012262647
0.00011895527 -0.000109323315 -0.00016650508 -1.7134938e-05 7.3070085e-05 9.1582784e-05 0.00011195786 1.4814559e-05
1.3858295e-05 -0.00016585077 -0.0001268172 -7.77752e-06 5.5026785e-06 1.5829159e-05 -0.000118305354 0.0001261428
5.5325298e-05 -8.984617e-05 1.869526e-05 4.529483e-05 1.6259488e-05 0.00010981817 -3.093181e-05 -5.1412633e-05
0.00011588006 8.570172e-05 -0.00018049525 0.00016802063 -3.2407277e-06 -0.00017649769 2.7453261e-05 -8.10573e-06
1.7840626e-05 -3.647582e-05 1.4275119e-05 3.1575635e-06 -0.00012277222 -8.652921e-05 0.0001653106 1.0582457e-05
0.0001220421 8.150621e-06 -8.600042e-06 -0.00012345429 -0.000104948886 7.724633e-06 -9.417733e-05 0.00017413918
-3.133806e-07 -6.895492e-06 1.4199402e-05 1.4164763e-05 5.519917e-06 1.22392175e-05 2.7139387e-05 -0.00013292715
2.9226155e-06 -0.00017047545 1.9130317e-05 -0.00016363221 -7.3690226e-06 0.00012210105 5.9045597e-05 -6.7702713e-06
-4.0315088e-05 9.549173e-06 -6.2632585e-05 -8.173466e-05 3.304807e-05 3.885788e-06 1.3186022e-05 -0.00016715412
1.3884821e-05 -9.929488e-05 -0.00011811171 0.00014696705 0.00014877506 0.0001625234 3.1808875e-05 -0.00010531489
0.00015682116 0.000117082935 -0.00011671675 8.887301e-06 -2.425514e-05 7.647399e-06 1.41456185e-05 -0.00015551184
1.313424e-05 -1.0647242e-05 3.8866697e-06 -1.4918977e-05 6.712581e-05 4.616878e-05 -6.0494778e-05 2.6516256e-05
-0.00013139966 -4.2561704e-05 -3.8907776e-05 -2.2711094e-05 1.3698882e-06 -6.389831e-05 -1.03436905e-05 0.00010233555
0.00012341684 2.9682164e-05 -2.3199867e-05 0.00011560056 -0.00016373288 -3.2673092e-06 5.3182805e-05 0.00017430309
-9.5523734e-05 -2.515821e-05 -2.584439e-06 -8.386076e-05 -6.842459e-05 2.7952803e-05 -8.133906e-06 3.694794e-05
-0.00015201703 0.00018671813 -4.152637e-05 -0.00029642432 -0.00036445435 -0.00027627946 0.00036649278 0.00031010894
0.00032486016 -0.00029327374 -0.00044241425 -4.938859e-05 0.00022338107 0.00025558035 0.00029284108 3.6901456e-05
7.915214e-05 -0.0004482483 -0.000343728 -2.3697852e-05 1.1027795e-05 2.0108519e-05 -0.00031217927 0.00035910707
0.000159865 -0.00023493392 4.8130965e-05 0.00010569464 2.2669872e-05 0.00029010617 -8.817955e-05 -0.00017394533
0.00030527002 0.00020507941 -0.0004573902 0.00042977472 -6.082795e-06 -0.00045401428 9.319736e-05 -3.167392e-05
4.0771236e-05 -9.096452e-05 3.2244843e-05 1.185998e-05 -0.00032827188 -0.00021813423 0.00043548836 2.7753817e-05
0.0003286662 4.4686047e-05 -4.0105107e-05 -0.000320245 -0.00028445484 6.248738e-06 -0.00027417263 0.0004640664
-2.3704451e-05 1.1087869e-05 2.5063822e-05 3.9505736e-05 1.33962685e-05 3.8141014e-05 8.562443e-05 -0.00035181642
-9.083582e-06 -0.00044631347 4.195796e-05 -0.00042457657 -5.0868202e-06 0.00037976546 0.0001746618 -1.0735613e-05
-9.797242e-05 7.835521e-06 -0.00017682483 -0.00023104204 8.695584e-05 2.6027412e-05 5.1035626e-05 -0.0004421048
3.777834e-05 -0.00028680687 -0.0003101136 0.0003812568 0.0004049827 0.00042385652 8.039482e-05 -0.00031721662
0.00040112704 0.00029422066 -0.00030982192 5.2446638e-05 -8.427127e-05 -2.1617252e-06 2.5129384e-05 -0.00040213112
3.6124387e-05 -2.8750885e-05 2.6502283e-05 -3.6195284e-05 0.00016882864 0.00012743313 -0.00014878422 6.716371e-05
-0.00033311563 -0.000113649694 -0.00010361975 -6.4301246e-05 1.6505888e-05 -0.00017035248 -4.7408925e-05 0.00026914445
0.00032203778 6.858972e-05 -8.620403e-05 0.00030830107 -0.00043253737 6.6273133e-06 0.00019546581 0.00045060864
-0.0002503924 -6.52833e-05 -8.691025e-06 -0.00021798912 -0.00017259829 8.186182e-05 -1.642663e-05 0.000101916055
