Model/weights/model_test_111_10_last.pt (torch, 643570 bytes, 27 tensors)

lstm.weight_ih_l0 f4 [256, 2]
000000 bb 4c d7 3c 44 15 97 3d 8a d5 26 3b cf 4a 8c bd
       0.026281705 0.07377103 0.002545687 -0.06850206
000010 63 75 75 bd 0c 34 b7 bc 51 7f e0 bd 48 0f 9f 3c
       -0.0599264 -0.022363685 -0.10961784 0.019416466
000020 4f 7f e4 bd fd b7 bd bd 42 3e 33 3e 35 8b 48 bb
       -0.11157095 -0.092636086 0.17504218 -0.0030600552
000030 a4 ef f7 bc c1 9c 2c 3d 66 bd 22 bd 53 46 6a bd
       -0.030265637 0.04214168 -0.039731406 -0.057195973
000040 4a e6 ed 3b 35 e8 04 3e 10 b2 7e bd 20 21 3f 3d
       0.0072601186 0.12979205 -0.062181532 0.04666245
000050 db 92 dc bc d4 a3 d7 bd 04 24 b5 3d e0 c9 4d 3c
       -0.026925495 -0.105292946 0.0884476 0.012560338
000060 d6 a7 15 bd 03 85 97 bd 2b cf 91 bd 84 39 c2 bd
       -0.036537014 -0.07398417 -0.07119592 -0.094836265
000070 46 8d 3a be ce c7 d3 bd 39 cc d6 bd c8 25 de bd
       -0.18217954 -0.10340844 -0.10488171 -0.1084705
000080 15 c8 5e bd 96 74 65 bc 72 27 ff 3c 16 d7 a9 3d
       -0.05439003 -0.014004847 0.031146739 0.082929775
000090 6f 59 ae 3c 34 78 2e 3c cc a5 01 be 3f 79 0f 3c
       0.02128288 0.010648776 -0.12660903 0.008756935
0000a0 41 b8 04 3e 8b 53 d8 bb ef d5 0d 3c 57 31 07 be
       0.12960912 -0.006601756 0.008656963 -0.13202415
0000b0 80 04 05 be d5 54 9e 3d 83 73 45 bd 75 05 f3 bd
       -0.12989998 0.07731024 -0.048205864 -0.11866275
0000c0 b2 65 bc bd df 50 8f bd e7 ce 1e 3e 7b 2e 26 bb
       -0.09199084 -0.06997847 0.15508614 -0.0025357294
0000d0 07 2a bd bd 95 65 a1 bd 5e 83 ac be 24 ca f8 bd
       -0.09236532 -0.07880703 -0.33693975 -0.1214793
0000e0 4e 82 fc bb 97 c0 26 3e 44 dd 78 bd 6c 15 07 3c
       -0.007705963 0.16284405 -0.06075789 0.0082448535
0000f0 b6 4f 1a be 12 eb 7c 3c 3f 88 34 3e 06 f4 83 bd
       -0.1506947 0.0154369045 0.17630099 -0.06443028
000100 f4 27 74 3d 4a ca 5e 3d 13 f7 af bd 52 72 08 bc
       0.059608415 0.054392137 -0.085920475 -0.008328037
000110 58 ae c4 bd 37 1f a2 3d 2f d0 4c 3e 8f 21 82 3d
       -0.09603566 0.0791611 0.2000129 0.06354057
000120 2f 04 60 bd b9 84 c8 3d 50 07 7c 3c 01 42 bc bd
       -0.05469149 0.0979094 0.015382603 -0.09192277
000130 15 e7 42 be 75 b3 ac bd 98 26 11 bc f5 d7 29 bd
       -0.19033463 -0.08432666 -0.008859299 -0.04146572
000140 94 ed a9 bd 8c 72 c2 3d 66 31 e5 bd 28 04 ae bd
       -0.082972676 0.09494504 -0.11191063 -0.084968865
000150 d4 cd af 3c f9 57 9c bd f6 95 28 bc c3 4c 9e 3c
       0.021460451 -0.07633967 -0.01028966 0.019323712
000160 7f 6b e6 bd 91 fa 80 bc f3 35 2a be b0 ae a4 bd
       -0.11250972 -0.01574448 -0.16622142 -0.080411315
000170 cc e1 86 bd 88 61 29 3d 5e 8d 7e ba d0 19 77 3d
       -0.06586036 0.04135278 -0.00097103964 0.06032735
000180 b1 cd ee bd 20 4c 0b 3d 51 0b aa bd 09 de 01 ba
       -0.11660326 0.034008145 -0.0830294 -0.0004954045
000190 fb 1b a6 bd 03 fd eb 3d dd e9 77 3e a8 8e 97 3d
       -0.081108056 0.115228675 0.24210306 0.074002564
0001a0 01 f2 03 3d c7 34 20 be 58 73 9f bd bd e6 f4 3c
       0.032213215 -0.15645133 -0.07785672 0.02989518
0001b0 fc 61 10 be d9 f2 0e 3e 79 2a 25 bd 84 d6 75 3d
       -0.14099878 0.13959827 -0.04032371 0.06001903
0001c0 10 90 c2 bb 91 ad 9c 3d 6e a5 25 bd af 0e 14 3d
       -0.0059375837 0.07650293 -0.04044097 0.036146816
0001d0 64 b3 ab bd cb 97 3a bc 45 30 17 3d af f4 38 3e
       -0.083838254 -0.011388729 0.036911268 0.1806209
0001e0 2e 04 14 3d 2f de f0 3c d3 06 c9 bd d1 40 69 bd
       0.0361368 0.02940282 -0.09815755 -0.05694658
0001f0 ad d8 ea 3d 9c 81 31 3b 00 68 2a be 6d 28 b5 bc
       0.11467109 0.002708531 -0.16641235 -0.022114003
000200 4d c4 35 3e 0d 7a c6 bd e0 3c ed bd 50 46 9c bc
       0.17750664 -0.09691248 -0.115838766 -0.019076496
000210 05 02 54 3d 2b db d7 3d cb f2 7e bd af bd 84 3c
       0.05175974 0.1053985 -0.062243264 0.01620373
000220 13 73 17 3d 0e d1 79 bd 9e 51 54 3c 94 f7 f5 bd
       0.036974978 -0.060990386 0.012958912 -0.120101124
000230 a0 89 f7 bc 78 b2 0d 3e 4e 1a 85 3b 1f 79 c1 bd
       -0.030216992 0.13837612 0.0040619737 -0.0944693
000240 d1 b7 fb 3b 99 30 0d 3e fb 55 fa bd 66 64 8f 3c
       0.0076818247 0.1378807 -0.12223431 0.017503928
000250 0b 7b a6 3d 70 ee ec 3d 95 d8 8a 3c 79 b7 89 3e
       0.08128937 0.11568916 0.016948977 0.2689779
000260 ce e7 82 be 08 5f 4b 3d 54 ac b4 bd f7 b0 04 3e
       -0.25567478 0.049651176 -0.088219315 0.12958132
000270 01 b2 a3 3d ab a9 9c bd b0 2c d9 3d ea c5 92 bb
       0.07992936 -0.07649549 0.106042266 -0.0044791596
000280 d8 96 bf bd e7 ec 3c 3e 7c 2c a4 bd 5b b9 47 3e
       -0.09354943 0.18449746 -0.08016297 0.19504301
000290 a9 0e 8c bd 42 f3 28 3e 1f a4 5f be c7 77 65 bc
       -0.06838734 0.16499045 -0.21839951 -0.014005608
0002a0 86 b6 d1 3d 75 c3 87 bd f9 34 a6 bd cc 65 71 bd
       0.10239892 -0.06629077 -0.081155725 -0.05893497
0002b0 b7 21 16 bd 00 f6 05 3e f3 f9 bd bd be c2 b1 bd
       -0.036653247 0.13082123 -0.0927619 -0.08679722
0002c0 f4 c3 29 be 50 67 2a bd 65 66 a1 3c 11 05 bc 3d
       -0.16578656 -0.041602433 0.019702146 0.09180654
0002d0 58 2c b8 3d 89 17 64 3d 72 ef ac bd 87 fd e5 bb
       0.08992833 0.055686507 -0.08444108 -0.007018748
0002e0 a5 1b d7 3c 38 56 e5 3d c8 bc 20 be 67 d0 cf 3d
       0.0262583 0.111980855 -0.15697014 0.101471715
0002f0 10 59 9d bd f8 5f b2 3c b0 20 b7 3c e3 7e 9f 3d
       -0.07683003 0.021774277 0.022354454 0.077878736
000300 e9 f4 79 bd a9 bd 39 be 23 37 22 3d 5b 46 43 bc
       -0.06102458 -0.18138756 0.039603364 -0.0119186295
000310 42 cd 5e be 81 4b 92 3d b9 75 24 be 98 35 85 bd
       -0.21757987 0.071433075 -0.16060533 -0.06504363
000320 e8 88 40 be a8 80 1f 3d 2c 66 2b 3e 82 a3 15 be
       -0.18802226 0.038941056 0.16738194 -0.14613155
000330 45 af 1f be 31 da f8 3b 18 c7 94 3d 4e 76 f6 3c
       -0.15594204 0.00759437 0.072645366 0.030085709
000340 5b b5 65 bb b6 51 a6 3b 48 9b 1f bd 63 2e 96 3d
       -0.0035050723 0.0050756587 -0.038966447 0.07333066
000350 38 ed 62 bd 0e 11 2f 3e 51 86 60 3d e8 4d 54 bd
       -0.05540201 0.1709635 0.054815594 -0.05183211
000360 cd 3e f3 bd 97 b3 9e 3d 57 ae d4 bd 4e 8f e2 bd
       -0.11877213 0.07749098 -0.10384815 -0.110624894
000370 0f b8 a3 bc ae 68 66 bc 9e 9b 00 be d8 0b 02 3e
       -0.019985227 -0.0140630435 -0.12559363 0.1269983
000380 ff 08 ec bc 61 94 9f bd cb 0e 0b 3d a4 22 45 3d
       -0.028812883 -0.07791973 0.033949655 0.04812874
000390 c0 a5 13 be c7 8d 61 bc c7 01 f4 3b e5 7b 59 3e
       -0.14418697 -0.0137667125 0.007446501 0.21238668
0003a0 d7 c6 9c 3d 9c 28 16 3d 6b 8f 57 bd 37 d0 c7 bd
       0.07655113 0.036659822 -0.05262701 -0.09756511
0003b0 44 f0 8d bd 15 f5 86 3c 61 3b 35 bd bd 90 e3 3d
       -0.06930593 0.016474286 -0.04424608 0.11111591
0003c0 ce d8 39 be a4 59 0d be 57 55 fb 3c d5 55 f5 bd
       -0.1814911 -0.13803726 0.030680342 -0.11979262
0003d0 6d 72 57 bc 10 dd 25 3d 0d 68 c1 bc 3d 44 e3 3d
       -0.01314984 0.040494025 -0.023609186 0.11097
0003e0 24 81 ea 3d c2 e6 24 3e c8 56 69 be ba 3e d5 3d
       0.11450413 0.16103652 -0.2278701 0.10412355
0003f0 30 fe 91 bc c1 61 c4 3d 63 e5 80 3d c3 d4 81 be
       -0.017821401 0.095889576 0.06293752 -0.25357637

lstm.weight_hh_l0 f4 [256, 64]
000000 37 17 19 bd 5e 8b 0c 3e 9f 42 f0 3d 07 cf bb bd
       -0.037375655 0.1372504 0.11731457 -0.09170347
000010 56 af c0 bd 85 84 d7 bd 47 65 08 3d 02 6d 27 bd
       -0.09408443 -0.10523323 0.03329971 -0.040875442
000020 17 41 d7 bc b3 45 8a bd ee 40 65 3d c3 b4 fa bc
       -0.026276154 -0.06751575 0.055970125 -0.030603772
000030 e1 03 51 3e 4e 86 0a 3c a0 c3 d4 3d 31 f2 a4 bc
       0.20411636 0.008454872 0.10388875 -0.020135017
000040 3a 03 13 3d 28 ea 90 bd ca cd f3 3b e3 11 c8 bc
       0.03589175 -0.07075912 0.0074403035 -0.024422592
000050 b6 64 0e 3e f6 4f e7 3d 43 1e ef 3d 19 12 f8 3d
       0.13905606 0.11294548 0.11675694 0.12112827
000060 69 0e 14 3c 90 0a 8f bb 0a 6d 51 3d 86 b2 6b bc
       0.009036639 -0.004365273 0.05112938 -0.014385825
000070 0b f3 60 bc 1c 69 01 bd 82 38 8d bd bd 75 26 3e
       -0.013729821 -0.03159438 -0.06895544 0.16255851
000080 75 03 6b bd bd 92 38 bd 8a 28 b7 bc fe 7d c3 3d
       -0.057376344 -0.045061816 -0.022358198 0.095455155
000090 ec 01 eb bd 2b 05 53 3c 08 ae bd bb 14 40 8f bc
       -0.11474976 0.01287965 -0.0057885684 -0.01748661
0000a0 8d a9 07 3e c2 b8 8e 3d 5f 98 60 bc 9f a0 b9 3d
       0.13248272 0.069688335 -0.013708203 0.09063839
0000b0 b3 79 92 bd 19 e1 a1 3c 42 64 0b bb fd b8 0e 3c
       -0.071521185 0.019760655 -0.0021269475 0.008711097
0000c0 98 e1 9e bd 1c 30 22 3e 30 d1 02 3e 3c d9 c9 3d
       -0.07757872 0.15838665 0.12775111 0.09855887
0000d0 34 ca 54 3d c2 49 1a be 14 bf 11 bd 48 62 cb bc
       0.05195065 -0.15067199 -0.035582617 -0.024827138
0000e0 fc fc 7e be c7 df 8c bd 64 89 9a 3c e8 f4 1f bd
       -0.24901193 -0.0687862 0.018864341 -0.03905192
0000f0 53 6d 90 3d ba 62 6e 3d 31 57 58 3b 43 2c 46 bd
       0.07052102 0.05819962 0.0033010955 -0.048382055
000100 f5 1d 27 3e 2c 1b ee bc 83 b3 ec 3c 27 4e 9c 3d
       0.16320021 -0.029065691 0.028894192 0.07632094
000110 3f 5a 38 3d 73 75 9c bd 06 03 cb bd a1 b0 c2 3c
       0.04500794 -0.07639589 -0.09912686 0.023765864
000120 19 b9 97 3d e3 00 a0 3d e6 16 9f bc 4c 3e 9c bc
       0.074083515 0.07812669 -0.019420099 -0.019072674
000130 cb f6 ff bc b9 3b cc 3d c2 7f c4 3d 07 d5 85 3c
       -0.03124561 0.09972329 0.0959468 0.01633693
000140 0e 3c eb 3d fb 72 13 bc 3a 23 78 3c 3c 6d df bd
       0.11486064 -0.008999581 0.015145117 -0.10909507
000150 c0 0c 13 3e 70 98 c0 bd fa 6f dc 3c ad 9c ff bc
       0.14360332 -0.09404075 0.026908863 -0.031202639
000160 be 12 b6 3d 7d 81 99 3c c6 fa b0 bd 64 90 65 3d
       0.088902935 0.018738503 -0.08641581 0.056045905
000170 4c de 33 bd 61 03 03 3e dd 09 ad bd d6 8e a9 bd
       -0.04391317 0.12794258 -0.08449147 -0.08279197
000180 2b 15 9a 3c 31 33 32 3d e0 50 9c bd 0a 1b 88 3c
       0.018808922 0.04350585 -0.07632613 0.016614456
000190 9c 91 07 3e f9 7c 0f 3d 65 ee 03 3e 97 d4 3c bd
       0.1323914 0.035031293 0.12883909 -0.04610118
0001a0 4a 3f 9a 3c 89 a2 7c 3c 4e 1d 9a ba b0 b9 59 3d
       0.018829007 0.015419611 -0.0011758001 0.0531556
0001b0 0c 4d 4e bc 98 88 94 3c ad 59 81 bc 0c 3a c8 3b
       -0.012591612 0.01813154 -0.015789831 0.0061104354
0001c0 58 d8 64 bd 2f e2 fb bc 29 6a 32 3d f2 3b ba bd
       -0.055870384 -0.030747501 0.043558273 -0.09093465
0001d0 6b d2 78 bd 29 5d 85 bd 17 ec 93 3c c3 45 90 bd
       -0.060747545 -0.065119095 0.018056912 -0.07044556
0001e0 fd 0a cb bd e6 44 59 3e 92 41 ad bb 9a dd f9 bd
       -0.09914205 0.21217689 -0.0052873576 -0.1220047
0001f0 68 8d 4f bd 3e a4 50 3c 48 eb 1c bd b3 0c 2c 3e
       -0.050671965 0.012734471 -0.03831032 0.1680172
000200 7c a4 c5 bd ce 90 f3 3c 61 36 76 be 06 4f 2e 3d
       -0.096505135 0.029732134 -0.24044181 0.04255583
000210 06 4b c6 3d 60 94 61 bd f1 7b 95 bd 93 10 32 bd
       0.09682278 -0.055073142 -0.072990306 -0.043472838
000220 4a 94 1b be 73 86 c3 3d 6e 0c c4 3c 07 43 50 bd
       -0.15193287 0.095471285 0.023931708 -0.050845172
000230 a7 8b 27 be d3 59 26 3d 01 03 86 bc e1 27 d6 3d
       -0.16361867 0.040613007 -0.016358854 0.10456825
000240 7a d2 c0 bb 56 df c1 bd 8b ae 6d bc 5a a3 4a bd
       -0.0058844658 -0.09466426 -0.014506946 -0.04947219
000250 6a e8 13 bd 59 44 98 3c b0 c0 0f bd 5e 89 8e bc
       -0.03611032 0.018587278 -0.03509587 -0.017399486
000260 02 8b 14 3d d8 62 99 bd 2d 50 c8 bc 0f bd c2 3d
       0.03626538 -0.07489556 -0.024452293 0.09508716
000270 7e 6b 5f bd bf 72 19 3d 23 95 a0 3d 05 11 de bb
       -0.054545872 0.037462946 0.078409456 -0.006776931
000280 de 8c 2a bc 8b c0 c8 bd 7c 51 dd bb 5a 76 98 3d
       -0.010409562 -0.0980235 -0.0067540985 0.07444449
000290 57 d7 41 3d f8 1e 37 3d b7 6c 41 bd 79 8c 02 be
       0.047324505 0.04470727 -0.04722282 -0.12748899
0002a0 51 c1 a7 3d c2 f5 3a be a6 50 49 3c 30 c8 06 bd
       0.08191169 -0.18257812 0.0122872945 -0.032905757
0002b0 3b 39 90 bb ef 66 cb 3d 2a a0 8a 3d 0b 14 6b bd
       -0.0044013537 0.099317424 0.0676883 -0.05739216
0002c0 00 28 a2 3d bb 94 6b 3d 55 e6 fe bd f3 25 5f bd
       0.07917786 0.057514887 -0.12446276 -0.05447955
0002d0 9a 99 f0 bd f7 58 c5 bd 9a fd c7 bd 03 fa a2 3a
       -0.11748047 -0.09636109 -0.097651675 0.0012434128
0002e0 50 7f 46 bc f8 f1 96 3d 01 a7 74 bc 1e f5 73 bd
       -0.012115315 0.073703706 -0.014932395 -0.059559934
0002f0 bc 7f a6 3d 2b a0 73 3c 4b 18 a5 bd 3e 0f 63 bd
       0.08129832 0.01486973 -0.08061274 -0.055434458
000300 db 9f 7e bd 65 17 2e be 49 8d af bc 26 c4 50 bd
       -0.06216417 -0.17001112 -0.021429675 -0.05096831
000310 5c 28 f0 bc 9b 06 3a 3d 41 75 f1 bc 36 54 d5 3d
       -0.02931612 0.045416456 -0.029474856 0.104164526
000320 8e 2c 21 3d 0c 6c dd 3c 63 09 29 be 84 8e 16 bd
       0.03934913 0.02702906 -0.16507487 -0.036757007
000330 31 df 97 3d 04 5b 80 bd bb fa aa 3a d1 6e b2 bd
       0.07415617 -0.0626736 0.0013044694 -0.08712543
000340 c9 52 17 be ef c9 a8 3c c8 98 2e 3e 53 97 66 3d
       -0.14777674 0.020604102 0.17050469 0.056296658
000350 3e 8d d7 bd cd c9 8c be 8e 3d c8 3d f0 cf 2d 3d
       -0.10524987 -0.27497712 0.097773656 0.042434633
000360 1f 78 ec bd fd 40 65 bd 87 ea 12 3e f5 ed b6 3d
       -0.11546349 -0.05597018 0.14347278 0.089321055
000370 41 93 5f 3d 6f 10 0b 3b 92 fc 09 bd ea ec c3 bd
       0.05458379 0.0021219512 -0.033688135 -0.09566672
000380 50 bb 3b 3c 75 2c d3 3c 6f b9 08 be e8 24 0a 3d
       0.011458233 0.025778035 -0.13351987 0.033726603
000390 8a bf dd bd 51 f1 aa 3d 61 1e e5 bd 33 03 0c be
       -0.10827549 0.08346809 -0.11187435 -0.13673095
0003a0 3f 9e ac 3d a1 0d f8 bd f5 73 c6 bd f1 ae d2 bd
       0.084286205 -0.121119745 -0.09690086 -0.10287274
0003b0 e2 b4 c2 3d 9c f7 9b ba 96 2c ca bd 72 b7 15 3e
       0.09507157 -0.0011899355 -0.09871785 0.1462076
0003c0 45 bb 86 bd d7 dc 78 3c 15 ad 90 bd 41 5a 2b 3e
       -0.065786876 0.015189371 -0.07064263 0.16733648
0003d0 1d b9 49 3d 85 7e e3 bd cb 51 1a bd 20 a0 22 3e
       0.049248803 -0.11108116 -0.03767566 0.15881395
0003e0 c6 92 d6 bd 06 45 e1 bc 46 4e eb bc 5c 1d b0 bb
       -0.104772136 -0.027498733 -0.028723847 -0.0053745937
0003f0 f4 e1 1f bd ec e6 4f bc a1 e6 a9 bb d7 ab c7 bd
       -0.039033845 -0.012689333 -0.005184964 -0.09749573

lstm.bias_ih_l0 f4 [256]
000000 2d c1 93 bd 76 5c fa bc 82 55 07 3c 8e c2 9d bd
       -0.0721458 -0.030561667 0.008260133 -0.07703124
000010 97 fc b5 bc 8a c3 8d bc 14 ba c2 bd f4 d8 a7 bc
       -0.02221517 -0.017305154 -0.09508148 -0.020489193
000020 e4 01 92 bd 1f 9a 9d bb 70 1e 1d bd 75 2b 56 bd
       -0.07129267 -0.0048096324 -0.038359106 -0.052287538
000030 56 28 a2 bd 7e c2 31 bd 65 9c 10 bd 64 75 f1 bc
       -0.0791785 -0.043398373 -0.0353054 -0.029474922
000040 e7 84 6b bd 2d 61 2f bd fc c8 1c bd 6c 65 26 bd
       -0.057499792 -0.042817283 -0.03827761 -0.040624067
000050 03 6d db bd 33 34 81 bd a2 ed 25 bd 7f 00 06 bd
       -0.10714152 -0.06308784 -0.040509827 -0.032715317
000060 86 f4 31 bd 29 6b 41 bd 34 e6 fb bc 8d 07 5d bd
       -0.043446086 -0.047221337 -0.030749418 -0.05396228
000070 55 60 a8 bd f5 4c 05 be 7b 62 a8 bd bf e2 3b bd
       -0.08221499 -0.13017638 -0.08221909 -0.04587054
000080 a8 93 f6 bc 4c fd c8 3b cd 4c 66 bd 9b 93 a2 bc
       -0.030099705 0.006133711 -0.056225587 -0.019845774
000090 98 18 22 bd 29 bb 52 bd 8b 9a 77 bd 67 c2 ab bc
       -0.039574236 -0.05144802 -0.060450118 -0.020966722
0000a0 f7 a5 5c bd ea e0 4f bd 1f dc 06 bd 54 72 b1 bd
       -0.053869214 -0.050751604 -0.032924768 -0.086643845
0000b0 fc 7e 5f bd b0 95 ac bd 51 4e 64 bd 04 16 7b bd
       -0.05456446 -0.08426988 -0.05573875 -0.061300293
0000c0 35 81 38 bd fd 09 a8 bd 18 21 b8 bd 46 f2 a6 bd
       -0.045045096 -0.0820503 -0.08990687 -0.08151679
0000d0 2d a9 18 bd 76 c5 af bd c5 2f 6e bd ab e7 a8 bd
       -0.037270714 -0.085825846 -0.058151025 -0.08247312
0000e0 e4 16 42 bd 46 0e be bc ac 28 f5 bc 57 80 a5 3c
       -0.04738511 -0.023200165 -0.02992662 0.020202799
0000f0 3f 81 9f bd d3 55 39 bd 46 4c c9 bd 88 21 03 ba
       -0.077883236 -0.045247864 -0.09829001 -0.000500225
000100 ae b9 69 3f 17 7d 77 3f 45 af 7d 3f 42 0a 6d 3f
       0.9129895 0.96675247 0.99095565 0.9259378
000110 7c 19 75 3f 87 fb 78 3f 64 00 67 3f ba 3d 79 3f
       0.9574201 0.972588 0.9023497 0.9735981
000120 cf 98 6b 3f c4 cf 7c 3f 68 34 70 3f 64 76 69 3f
       0.9203004 0.98754525 0.93829966 0.91196275
000130 6f 8a 6e 3f af 26 75 3f 9c c9 7a 3f 02 6d 76 3f
       0.9317998 0.9576215 0.9796388 0.9626008
000140 e7 86 6f 3f a9 fe 71 3f a5 f6 70 3f ae ef 77 3f
       0.9356522 0.94529206 0.9412635 0.968501
000150 e7 08 72 3f 88 3f 75 3f 99 ea 73 3f 3c 81 78 3f
       0.94544834 0.95800066 0.9527984 0.97072196
000160 e0 8b 73 3f 41 5f 70 3f 3b 04 77 3f f1 89 75 3f
       0.9513531 0.93895346 0.9649083 0.95913607
000170 1e 33 6b 3f 6b 30 54 3f c0 10 6f 3f 0f 26 74 3f
       0.91874874 0.8288638 0.93384933 0.9537057
000180 d6 a7 7a 3f aa b8 80 3f 54 b4 72 3f f6 3d 7d 3f
       0.9791235 1.0056355 0.9480641 0.9892267
000190 b9 5c 72 3f de de 72 3f 7d ca 70 3f dc 76 78 3f
       0.94672734 0.9487132 0.9405897 0.97056365
0001a0 3f 8b 77 3f db f7 72 3f 67 3d 6f 3f a4 28 6a 3f
       0.9669685 0.9490945 0.9345307 0.9146826
0001b0 14 a8 71 3f 20 53 68 3f 5a 33 71 3f 8c 79 6e 3f
       0.9439709 0.9075184 0.9421898 0.93154216
0001c0 b2 4d 74 3f 1b 0c 6b 3f 11 b9 67 3f be c3 6b 3f
       0.95431054 0.91815346 0.90516764 0.92095554
0001d0 1b 44 6d 3f 53 61 66 3f ff 79 73 3f 78 e7 6f 3f
       0.92682046 0.89992255 0.95108026 0.9371257
0001e0 ef 66 78 3f 55 86 78 3f 1a 39 7a 3f ee f5 7e 3f
       0.97032064 0.97079974 0.9774338 0.9959401
0001f0 18 ac 6c 3f 35 5b 77 3f 2e cb 6a 3f 9f e5 7c 3f
       0.92450094 0.96623546 0.9171628 0.98787874
000200 be 79 32 3b 39 81 05 3d db a2 4d bc b8 83 69 3c
       0.0027233209 0.03259394 -0.012551035 0.014252596
000210 48 f1 a0 bb b2 e1 26 bc 37 29 96 3c 04 64 b2 3b
       -0.0049115755 -0.010185646 0.0183302 0.0054440517
000220 36 10 bc bb fb ad 44 3c 51 69 74 bb 15 7c 98 bc
       -0.005739237 0.012004371 -0.0037294219 -0.018613854
000230 c6 0b 49 3d eb 59 13 3c 8e 5e f4 bb dd f5 1a 3d
       0.049083494 0.008993606 -0.007457561 0.03783213
000240 66 0e 82 3c 3d 67 ae bc 82 56 a5 bc d1 fc 14 bd
       0.015876006 -0.021289462 -0.020182852 -0.036373917
000250 3b e5 38 bd 86 bd 8f bb 5f 86 26 bd 3b e1 72 bc
       -0.045140486 -0.0043866066 -0.04065549 -0.014824207
000260 78 fd 88 bb 9e 2f 5f 3b c3 d6 15 bc 85 08 18 3b
       -0.0041806065 0.0034055482 -0.009145441 0.0023198437
000270 ee dc fd 3c af 39 aa 39 4d 93 98 3c e6 20 a4 39
       0.030989137 0.00032467904 0.018624926 0.0003130503
000280 1d 9f 10 bb 94 6c 0a bc cc f1 d0 3c 8a 4e 5d bd
       -0.0022067495 -0.008448739 0.025505923 -0.05402998
000290 61 12 9c 3b d5 1c eb bc 49 61 56 3c f6 5c dc 3b
       0.004762933 -0.028700272 0.013084718 0.006724949
0002a0 7f cb bf 3c 2a 82 7d bc 1b 63 78 3c d7 5b 75 bc
       0.023412464 -0.015472928 0.015160347 -0.01497551
0002b0 8e f4 2c 3d 35 46 3a ba 94 76 d6 3c 1c 1a 33 bc
       0.042225413 -0.00071057986 0.02617959 -0.010931518
0002c0 29 90 31 bc aa 32 41 3c 68 46 b7 3a cc 97 0d bd
       -0.010837593 0.011791864 0.0013982775 -0.034568593
0002d0 f0 f4 cf 3c ee aa 98 3a 97 53 a0 3c 0f cf 9c bc
       0.02538535 0.0011647621 0.019571109 -0.019141702
0002e0 4d f1 10 3d 37 10 66 bd ae 9a b9 3c 6e 3a a5 bb
       0.035386372 -0.056167807 0.022656765 -0.0050423658
0002f0 57 58 36 3d 14 bd 70 bc d0 7c c6 bb 71 3d 03 3d
       0.04451784 -0.014693517 -0.0060573593 0.032041017
000300 dc 77 89 bd 3c a0 52 bd d9 ba b2 3b 10 82 8f bd
       -0.067123145 -0.051422343 0.005454403 -0.07007229
000310 51 10 ae bc e8 bd 69 bc 00 53 ab bd f9 a3 ab bc
       -0.021248015 -0.014266469 -0.0836544 -0.020952212
000320 28 a6 8f bd cc 4e 82 bb 9a f3 3b bd 2b 16 35 bd
       -0.07014114 -0.0039766785 -0.045886613 -0.044210594
000330 0e 66 8c bd 04 f4 08 bd f6 9e f4 bc a5 e0 88 bd
       -0.06855403 -0.033435836 -0.029860955 -0.066834725
000340 6f 76 5a bd 3b 1a 42 bd c5 be ff bc ae 94 33 bd
       -0.053335603 -0.047388297 -0.031218896 -0.043842964
000350 94 bf f7 bd 7f 89 48 bd 49 57 86 bd c7 7a bb bc
       -0.120970875 -0.04895925 -0.06559617 -0.022885693
000360 ec 0e 05 bd f9 55 5b bd 2d ec 0d bd d1 fb 81 bd
       -0.032484934 -0.053548787 -0.034649063 -0.06346858
000370 25 69 94 bd 67 a8 c3 bd d0 11 aa bd cb 5d d6 bc
       -0.07246617 -0.095536046 -0.08304179 -0.02616777
000380 87 c9 b2 bc 73 81 22 bc 22 b4 8a bd ac cd 2d bd
       -0.021824611 -0.009918558 -0.06772639 -0.042432472
000390 f6 ad 3f bd 90 42 ce bd a0 2b 6f bd e0 d5 c2 bc
       -0.04679676 -0.100712895 -0.058391213 -0.023783624
0003a0 d0 e8 65 bd 40 89 45 bd 32 e1 d6 bc 17 09 95 bd
       -0.05613023 -0.048226595 -0.026230428 -0.072771244
0003b0 56 7e b9 bd 45 37 64 bd 27 97 59 bd b5 2d 6b bd
       -0.090573 -0.05571677 -0.053122666 -0.057416636
0003c0 71 e0 72 bd 49 fa b9 bd 7e d2 b5 bd 8e 69 ed bd
       -0.059296075 -0.09080941 -0.08878039 -0.115923986
0003d0 2f 87 10 bd d5 da b2 bd 14 71 71 bd a8 c0 b8 bd
       -0.03528517 -0.08733145 -0.05894573 -0.09021121
0003e0 6c df b7 bd 39 f6 a2 bd 60 3d f9 bc 7c 50 bf 3c
       -0.08978161 -0.079571195 -0.030424774 0.023353808
0003f0 d6 ec ca bd 87 c6 6d bd 29 f0 ac bd 07 0e 27 bd
       -0.09908454 -0.05805066 -0.084442444 -0.040784862

lstm.bias_hh_l0 f4 [256]
000000 2d c1 93 bd 76 5c fa bc 82 55 07 3c 8e c2 9d bd
       -0.0721458 -0.030561667 0.008260133 -0.07703124
000010 97 fc b5 bc 8a c3 8d bc 14 ba c2 bd f4 d8 a7 bc
       -0.02221517 -0.017305154 -0.09508148 -0.020489193
000020 e4 01 92 bd 1f 9a 9d bb 70 1e 1d bd 75 2b 56 bd
       -0.07129267 -0.0048096324 -0.038359106 -0.052287538
000030 56 28 a2 bd 7e c2 31 bd 65 9c 10 bd 64 75 f1 bc
       -0.0791785 -0.043398373 -0.0353054 -0.029474922
000040 e7 84 6b bd 2d 61 2f bd fc c8 1c bd 6c 65 26 bd
       -0.057499792 -0.042817283 -0.03827761 -0.040624067
000050 03 6d db bd 33 34 81 bd a2 ed 25 bd 7f 00 06 bd
       -0.10714152 -0.06308784 -0.040509827 -0.032715317
000060 86 f4 31 bd 29 6b 41 bd 34 e6 fb bc 8d 07 5d bd
       -0.043446086 -0.047221337 -0.030749418 -0.05396228
000070 55 60 a8 bd f5 4c 05 be 7b 62 a8 bd bf e2 3b bd
       -0.08221499 -0.13017638 -0.08221909 -0.04587054
000080 a8 93 f6 bc 4c fd c8 3b cd 4c 66 bd 9b 93 a2 bc
       -0.030099705 0.006133711 -0.056225587 -0.019845774
000090 98 18 22 bd 29 bb 52 bd 8b 9a 77 bd 67 c2 ab bc
       -0.039574236 -0.05144802 -0.060450118 -0.020966722
0000a0 f7 a5 5c bd ea e0 4f bd 1f dc 06 bd 54 72 b1 bd
       -0.053869214 -0.050751604 -0.032924768 -0.086643845
0000b0 fc 7e 5f bd b0 95 ac bd 51 4e 64 bd 04 16 7b bd
       -0.05456446 -0.08426988 -0.05573875 -0.061300293
0000c0 35 81 38 bd fd 09 a8 bd 18 21 b8 bd 46 f2 a6 bd
       -0.045045096 -0.0820503 -0.08990687 -0.08151679
0000d0 2d a9 18 bd 76 c5 af bd c5 2f 6e bd ab e7 a8 bd
       -0.037270714 -0.085825846 -0.058151025 -0.08247312
0000e0 e4 16 42 bd 46 0e be bc ac 28 f5 bc 57 80 a5 3c
       -0.04738511 -0.023200165 -0.02992662 0.020202799
0000f0 3f 81 9f bd d3 55 39 bd 46 4c c9 bd 88 21 03 ba
       -0.077883236 -0.045247864 -0.09829001 -0.000500225
000100 ae b9 69 3f 17 7d 77 3f 45 af 7d 3f 42 0a 6d 3f
       0.9129895 0.96675247 0.99095565 0.9259378
000110 7c 19 75 3f 87 fb 78 3f 64 00 67 3f ba 3d 79 3f
       0.9574201 0.972588 0.9023497 0.9735981
000120 cf 98 6b 3f c4 cf 7c 3f 68 34 70 3f 64 76 69 3f
       0.9203004 0.98754525 0.93829966 0.91196275
000130 6f 8a 6e 3f af 26 75 3f 9c c9 7a 3f 02 6d 76 3f
       0.9317998 0.9576215 0.9796388 0.9626008
000140 e7 86 6f 3f a9 fe 71 3f a5 f6 70 3f ae ef 77 3f
       0.9356522 0.94529206 0.9412635 0.968501
000150 e7 08 72 3f 88 3f 75 3f 99 ea 73 3f 3c 81 78 3f
       0.94544834 0.95800066 0.9527984 0.97072196
000160 e0 8b 73 3f 41 5f 70 3f 3b 04 77 3f f1 89 75 3f
       0.9513531 0.93895346 0.9649083 0.95913607
000170 1e 33 6b 3f 6b 30 54 3f c0 10 6f 3f 0f 26 74 3f
       0.91874874 0.8288638 0.93384933 0.9537057
000180 d6 a7 7a 3f aa b8 80 3f 54 b4 72 3f f6 3d 7d 3f
       0.9791235 1.0056355 0.9480641 0.9892267
000190 b9 5c 72 3f de de 72 3f 7d ca 70 3f dc 76 78 3f
       0.94672734 0.9487132 0.9405897 0.97056365
0001a0 3f 8b 77 3f db f7 72 3f 67 3d 6f 3f a4 28 6a 3f
       0.9669685 0.9490945 0.9345307 0.9146826
0001b0 14 a8 71 3f 20 53 68 3f 5a 33 71 3f 8c 79 6e 3f
       0.9439709 0.9075184 0.9421898 0.93154216
0001c0 b2 4d 74 3f 1b 0c 6b 3f 11 b9 67 3f be c3 6b 3f
       0.95431054 0.91815346 0.90516764 0.92095554
0001d0 1b 44 6d 3f 53 61 66 3f ff 79 73 3f 78 e7 6f 3f
       0.92682046 0.89992255 0.95108026 0.9371257
0001e0 ef 66 78 3f 55 86 78 3f 1a 39 7a 3f ee f5 7e 3f
       0.97032064 0.97079974 0.9774338 0.9959401
0001f0 18 ac 6c 3f 35 5b 77 3f 2e cb 6a 3f 9f e5 7c 3f
       0.92450094 0.96623546 0.9171628 0.98787874
000200 be 79 32 3b 39 81 05 3d db a2 4d bc b8 83 69 3c
       0.0027233209 0.03259394 -0.012551035 0.014252596
000210 48 f1 a0 bb b2 e1 26 bc 37 29 96 3c 04 64 b2 3b
       -0.0049115755 -0.010185646 0.0183302 0.0054440517
000220 36 10 bc bb fb ad 44 3c 51 69 74 bb 15 7c 98 bc
       -0.005739237 0.012004371 -0.0037294219 -0.018613854
000230 c6 0b 49 3d eb 59 13 3c 8e 5e f4 bb dd f5 1a 3d
       0.049083494 0.008993606 -0.007457561 0.03783213
000240 66 0e 82 3c 3d 67 ae bc 82 56 a5 bc d1 fc 14 bd
       0.015876006 -0.021289462 -0.020182852 -0.036373917
000250 3b e5 38 bd 86 bd 8f bb 5f 86 26 bd 3b e1 72 bc
       -0.045140486 -0.0043866066 -0.04065549 -0.014824207
000260 78 fd 88 bb 9e 2f 5f 3b c3 d6 15 bc 85 08 18 3b
       -0.0041806065 0.0034055482 -0.009145441 0.0023198437
000270 ee dc fd 3c af 39 aa 39 4d 93 98 3c e6 20 a4 39
       0.030989137 0.00032467904 0.018624926 0.0003130503
000280 1d 9f 10 bb 94 6c 0a bc cc f1 d0 3c 8a 4e 5d bd
       -0.0022067495 -0.008448739 0.025505923 -0.05402998
000290 61 12 9c 3b d5 1c eb bc 49 61 56 3c f6 5c dc 3b
       0.004762933 -0.028700272 0.013084718 0.006724949
0002a0 7f cb bf 3c 2a 82 7d bc 1b 63 78 3c d7 5b 75 bc
       0.023412464 -0.015472928 0.015160347 -0.01497551
0002b0 8e f4 2c 3d 35 46 3a ba 94 76 d6 3c 1c 1a 33 bc
       0.042225413 -0.00071057986 0.02617959 -0.010931518
0002c0 29 90 31 bc aa 32 41 3c 68 46 b7 3a cc 97 0d bd
       -0.010837593 0.011791864 0.0013982775 -0.034568593
0002d0 f0 f4 cf 3c ee aa 98 3a 97 53 a0 3c 0f cf 9c bc
       0.02538535 0.0011647621 0.019571109 -0.019141702
0002e0 4d f1 10 3d 37 10 66 bd ae 9a b9 3c 6e 3a a5 bb
       0.035386372 -0.056167807 0.022656765 -0.0050423658
0002f0 57 58 36 3d 14 bd 70 bc d0 7c c6 bb 71 3d 03 3d
       0.04451784 -0.014693517 -0.0060573593 0.032041017
000300 dc 77 89 bd 3c a0 52 bd d9 ba b2 3b 10 82 8f bd
       -0.067123145 -0.051422343 0.005454403 -0.07007229
000310 51 10 ae bc e8 bd 69 bc 00 53 ab bd f9 a3 ab bc
       -0.021248015 -0.014266469 -0.0836544 -0.020952212
000320 28 a6 8f bd cc 4e 82 bb 9a f3 3b bd 2b 16 35 bd
       -0.07014114 -0.0039766785 -0.045886613 -0.044210594
000330 0e 66 8c bd 04 f4 08 bd f6 9e f4 bc a5 e0 88 bd
       -0.06855403 -0.033435836 -0.029860955 -0.066834725
000340 6f 76 5a bd 3b 1a 42 bd c5 be ff bc ae 94 33 bd
       -0.053335603 -0.047388297 -0.031218896 -0.043842964
000350 94 bf f7 bd 7f 89 48 bd 49 57 86 bd c7 7a bb bc
       -0.120970875 -0.04895925 -0.06559617 -0.022885693
000360 ec 0e 05 bd f9 55 5b bd 2d ec 0d bd d1 fb 81 bd
       -0.032484934 -0.053548787 -0.034649063 -0.06346858
000370 25 69 94 bd 67 a8 c3 bd d0 11 aa bd cb 5d d6 bc
       -0.07246617 -0.095536046 -0.08304179 -0.02616777
000380 87 c9 b2 bc 73 81 22 bc 22 b4 8a bd ac cd 2d bd
       -0.021824611 -0.009918558 -0.06772639 -0.042432472
000390 f6 ad 3f bd 90 42 ce bd a0 2b 6f bd e0 d5 c2 bc
       -0.04679676 -0.100712895 -0.058391213 -0.023783624
0003a0 d0 e8 65 bd 40 89 45 bd 32 e1 d6 bc 17 09 95 bd
       -0.05613023 -0.048226595 -0.026230428 -0.072771244
0003b0 56 7e b9 bd 45 37 64 bd 27 97 59 bd b5 2d 6b bd
       -0.090573 -0.05571677 -0.053122666 -0.057416636
0003c0 71 e0 72 bd 49 fa b9 bd 7e d2 b5 bd 8e 69 ed bd
       -0.059296075 -0.09080941 -0.08878039 -0.115923986
0003d0 2f 87 10 bd d5 da b2 bd 14 71 71 bd a8 c0 b8 bd
       -0.03528517 -0.08733145 -0.05894573 -0.09021121
0003e0 6c df b7 bd 39 f6 a2 bd 60 3d f9 bc 7c 50 bf 3c
       -0.08978161 -0.079571195 -0.030424774 0.023353808
0003f0 d6 ec ca bd 87 c6 6d bd 29 f0 ac bd 07 0e 27 bd
       -0.09908454 -0.05805066 -0.084442444 -0.040784862

lstm.weight_ih_l1 f4 [256, 64]
000000 90 b4 9e 3d 81 17 18 be 3d 6a 15 3e ec 7c 4a bc
       0.07749283 -0.14852716 0.14591308 -0.012358885
000010 b5 c8 43 3e 71 aa 03 3d 89 02 eb 3c bb 09 1a bd
       0.19119532 0.032144967 0.028687732 -0.037606936
000020 e6 ba 2f bd b9 4c df 3c 53 a0 b5 bd d4 7a 4a be
       -0.04290285 0.027258264 -0.0886847 -0.19773418
000030 98 47 d0 3d 8c 41 7c 3d 01 05 01 be 78 e8 1a bd
       0.101699054 0.061585948 -0.12599565 -0.037819356
000040 a7 6f 20 bc 28 f8 9b bd fc 89 43 3d 6c 96 23 3e
       -0.009792245 -0.076156914 0.047739014 0.1597535
000050 4a 90 3c 3e 37 6d 4a 3d 44 7e a2 3d 52 10 04 bd
       0.18414417 0.04942056 0.079342395 -0.032242127
000060 30 9e 0f 3c d9 99 cc bd 62 3d 52 3d 79 72 2e 3e
       0.008765742 -0.099902816 0.05132807 0.17035855
000070 39 44 84 3d 8e 55 77 3d cd cf 47 3d 10 56 29 3d
       0.06458325 0.060384326 0.04878216 0.04134184
000080 da 4c 29 be f1 34 48 bb d3 38 f3 bd bf 0d 00 3c
       -0.16533223 -0.0030549134 -0.11876073 0.007815777
000090 06 e4 10 be 2c b9 e1 bc 40 23 30 3d 61 06 44 be
       -0.14149484 -0.027554117 0.043002367 -0.19143058
0000a0 78 c1 c4 3d c1 7e a6 bd cd 13 47 be 40 e3 0e be
       0.09607214 -0.08129645 -0.19441147 -0.13953876
0000b0 6f c9 09 be 54 b5 e0 3d 92 c0 d6 bd e3 48 44 3e
       -0.13455747 0.109720856 -0.104859486 0.19168429
0000c0 97 3f 3e be 2d 98 b8 bd bf 38 aa bc 9c fd 11 bd
       -0.18578945 -0.090134 -0.020779012 -0.03564225
0000d0 09 d5 c7 3d 89 c4 bb 3c 7b d9 0d bd 33 4c 0a 3d
       0.0975743 0.022920864 -0.034631234 0.033764075
0000e0 48 ef a6 3c 98 be aa bd 22 74 dd 3d 93 65 d8 bd
       0.02037777 -0.08337134 0.10813166 -0.10566249
0000f0 a2 1e 31 bd 5f c7 de bd 5b a9 42 3d de c1 4f be
       -0.043242104 -0.10877871 0.04752479 -0.20288798
000100 d4 9d 9a 3d c3 7a 2a 3e 79 a2 85 3d 8e d7 61 3c
       0.075496346 0.16648392 0.0652513 0.013784302
000110 b6 9d 50 bc f4 14 3a 3c 21 73 20 be 0c 07 22 bd
       -0.012732914 0.011357535 -0.15668918 -0.0395575
000120 61 a1 94 bd 02 93 f1 3d fd 93 02 3e 32 b2 1a 3d
       -0.07257343 0.11795618 0.12751766 0.037767597
000130 d9 22 e7 3d 29 5f db 3d 22 40 05 3c f6 21 f9 3d
       0.112859435 0.1071151 0.008132966 0.12164681
000140 7a fc 8c 3d 19 c9 ef bd bc ab 5e bd 47 9b 9c 3b
       0.068840936 -0.11708278 -0.054362997 0.0047792527
000150 f6 f0 ae bd 80 72 50 bc 3b c6 b0 bd db 87 2c bd
       -0.085420534 -0.012722611 -0.086315595 -0.04212175
000160 34 2d 2c 3c ea 76 16 3d f9 75 e0 bd 08 7f 8d bc
       0.010508824 0.0367345 -0.109600015 -0.017272487
000170 2a 94 19 3d 16 e2 84 bd 25 63 19 be 30 d6 d0 bd
       0.037494816 -0.06488435 -0.14979227 -0.10197103
000180 b6 73 a2 3d 22 0c 11 3c 39 de a9 bc d5 49 04 bd
       0.07932226 0.00885299 -0.020735847 -0.032296974
000190 bc e5 30 be a6 b4 1d be 36 af 23 bc a0 44 a9 bc
       -0.17275137 -0.15400943 -0.009990504 -0.020662606
0001a0 98 04 4a 3d aa c7 50 be 0d 48 64 bd 59 18 ba bd
       0.049320787 -0.20388666 -0.055732775 -0.09086675
0001b0 e2 01 11 3e fd ff eb 3c 2b 1a 7a bc 03 e6 d2 3d
       0.14160874 0.028808588 -0.015265028 0.102977775
0001c0 83 60 7e bd 3a 22 d4 bd 33 7e 0b bd 9d e2 39 be
       -0.06210376 -0.10358091 -0.0340559 -0.18152852
0001d0 98 de 05 be fa 99 96 3d 90 c0 b7 3b d8 f9 9c bb
       -0.13073194 0.073535874 0.005607672 -0.004790526
0001e0 af 20 cb 3c 90 ec 70 3d f6 f8 98 3b 74 ea fb 3d
       0.024795858 0.058819354 0.0046683503 0.12300578
0001f0 1a 37 de 3d d7 b8 bf bc ee 19 ac bd b2 7e ea bd
       0.108503535 -0.023403568 -0.08403383 -0.114499465
000200 58 50 8f 3d 03 e5 e9 3d 86 a9 8f bd cf 61 bd 3d
       0.06997746 0.11420634 -0.07014756 0.09247171
000210 d4 9e 0d 3d 1c b6 83 3d 95 38 79 be 42 c5 c2 3c
       0.0345753 0.06431219 -0.2433799 0.0237757
000220 76 e3 42 be 75 7f 23 3d bf 75 ee bd c7 71 36 3b
       -0.19032082 0.039916474 -0.11643552 0.0027838813
000230 a6 ef 6c 3d 22 bb 68 3c bd 9f 77 bd 99 6d 71 bd
       0.057845734 0.014204772 -0.060455073 -0.05894241
000240 0d 12 41 3e b5 e1 0d bc 2b 1b f1 3c be 4f dc 3c
       0.18854542 -0.00865977 0.0294319 0.026893493
000250 23 6e 22 bb 6b c5 98 bd ad a9 f6 bc 77 bb 28 be
       -0.0024784885 -0.074595295 -0.030110205 -0.16477762
000260 8b 58 93 3c 35 82 bb bd 98 72 d2 3c 4b ba 14 3e
       0.017986557 -0.091556944 0.025689408 0.1452419
000270 7e a7 ca 3c a3 41 2d ba 53 f7 fb bc 85 28 ec bd
       0.02473807 -0.0006609207 -0.030757582 -0.11531166
000280 d0 52 9c bd 8e 75 c7 3c c5 37 9e bd af 24 c6 3a
       -0.07632983 0.024348047 -0.07725481 0.0015117134
000290 eb f5 33 bd 97 4e fb bd 76 0d af bd 2b cc 8b 3b
       -0.043935698 -0.12270849 -0.08547489 0.004266282
0002a0 14 72 ad bd df db 79 bd f4 9e 4a 3d b5 86 e4 bd
       -0.08469024 -0.0610007 0.049467996 -0.11158506
0002b0 bd a3 c6 bb 51 b4 bf 3d ab cc 33 bd 5e f1 bc 3d
       -0.0060619996 0.093605645 -0.04389636 0.09225725
0002c0 d2 73 78 3d 3a 32 c5 3d 87 5a e9 3d 19 bc 95 3d
       0.06065733 0.096287206 0.1139422 0.073112674
0002d0 f5 cc cb bd d2 8d 8c 3d 50 d2 e6 bd 58 e1 1d 38
       -0.09951202 0.068629876 -0.11270583 3.7641585e-05
0002e0 aa bb a9 bc 7f 31 79 bd de 93 8e 3d 3e c4 15 be
       -0.020719368 -0.06083822 0.06961797 -0.14625642
0002f0 81 a8 1d 3d 9b 0f 3c bb 37 ba f7 3c db 8e 18 3d
       0.038490776 -0.0028695825 0.030240161 0.037245613
000300 43 20 3c 3d 0c f7 1e be e3 0c ea 3d 17 ce 14 3c
       0.045929205 -0.15523928 0.11428239 0.009082339
000310 5f 12 62 bc 64 4a 2b 3e 8b b7 06 be c9 3f f9 3c
       -0.013798325 0.16727597 -0.13155954 0.030425923
000320 c4 71 9b 3d 16 d1 2a be f1 f6 19 bd 1f fa e7 bb
       0.075900584 -0.16681322 -0.037589017 -0.0070793773
000330 2d cd a8 3c f5 e8 ba bc f1 07 9a 3b 85 63 89 3d
       0.020605648 -0.02281616 0.0047006537 0.06708435
000340 d6 0c 3a bd d4 7c 4b 3d 2d 8c 88 3c 95 42 20 bd
       -0.045422398 0.049679592 0.016668404 -0.039125998
000350 29 10 df 3b 57 78 57 bd 77 aa 18 bd ac c0 35 bd
       0.0068073464 -0.052605 -0.037271943 -0.0443732
000360 df b7 9e bc f3 37 a9 bc f3 75 2a bd 88 b0 ee bc
       -0.019374786 -0.020656561 -0.04161639 -0.029136911
000370 2c 84 4f 3d 2c 8c fe bc 1f 7b 3a bd ac 31 9e bd
       0.05066316 -0.031072699 -0.045527574 -0.07724318
000380 57 d0 8a bb 4f 01 94 bc df 19 d6 3d 30 96 79 bc
       -0.004236262 -0.01806703 0.10454153 -0.015233561
000390 4b c8 a9 3c d2 d5 d6 3c 7e 29 14 bc e5 93 0e be
       0.02072539 0.026225004 -0.009043096 -0.13923605
0003a0 dd 50 88 3d 76 73 94 3d 0f 15 58 3d 38 e1 74 be
       0.066560484 0.07248585 0.052754458 -0.23914039
0003b0 cc 80 33 bc 76 b1 74 bd 07 fa 04 3d 38 2d 27 bd
       -0.010956001 -0.059739552 0.032465007 -0.04081461
0003c0 7e 24 92 bd d6 82 b2 bc ff 3e 02 3d b1 3c 55 3d
       -0.071358666 -0.021790903 0.03179836 0.052059833
0003d0 d1 97 16 be 19 89 b0 3c 38 8a 2f be a2 a2 47 bd
       -0.14706351 0.021549748 -0.1714257 -0.048739083
0003e0 47 1c d0 3d a6 fb ec 3d fb 6f e8 bd 3e 3c 9c bd
       0.101616435 0.11571436 -0.113494836 -0.07628678
0003f0 31 7d ca bb 07 8b 2e bc 72 7e 0a be fd c9 34 bc
       -0.0061794748 -0.010653264 -0.13524798 -0.011034486

lstm.weight_hh_l1 f4 [256, 64]
000000 df 20 02 3e 91 47 20 3d 02 bd 85 bd b6 cb 96 3d
       0.12707852 0.03913075 -0.06530191 0.073630735
000010 91 f8 40 3c 60 7d 4f bd aa d6 0e be b4 3e 78 bc
       0.011778013 -0.050656676 -0.13949075 -0.015151668
000020 9e 8c 7f bd 90 ca 0f 3e cc cb a4 bd 74 fb b5 bd
       -0.062389962 0.14042115 -0.08046684 -0.088858515
000030 08 15 14 bd 1f 14 a4 bd ce 5a f8 bd 93 5d 52 bd
       -0.03615287 -0.0801165 -0.121266946 -0.05135877
000040 53 f0 89 3d ab f1 75 bd e3 83 35 3e 64 79 2a 3c
       0.06735291 -0.060044926 0.17726092 0.010404918
000050 8c ce 26 be ae c7 a6 bb c6 6e ff 3c 57 d0 c4 3d
       -0.16289729 -0.0050897216 0.03118075 0.0961005
000060 07 bf 1e 3d 12 ff f9 3c c3 c6 44 bd b9 cf 5d bc
       0.038756397 0.030517135 -0.048041116 -0.0135382945
000070 dc 02 a4 3d c9 c3 e1 bd fb 3f b4 3c b9 48 11 be
       0.08008358 -0.11023671 0.022003165 -0.14187898
000080 29 5e 20 3e f6 f4 3e 3e 66 f6 e3 3d db 93 f2 3d
       0.15660919 0.18648133 0.11130981 0.118446074
000090 f0 97 ed 3c c3 ae f2 bb 4a ef 19 3e 9d e3 a7 bd
       0.029003114 -0.007406087 0.15032688 -0.08197711
0000a0 b6 73 51 3d 92 92 a5 bb e7 fd 38 bd 5e 0c 7f 3d
       0.05113574 -0.005052873 -0.045164015 0.062267654
0000b0 34 a4 80 bd 37 06 3c 3e ba ad 08 bc e2 47 3e bc
       -0.06281319 0.18361746 -0.008342201 -0.011613818
0000c0 ee 15 27 3e 76 ec 09 be 80 cf 2f 3d 51 6c 2a be
       0.1631696 -0.13469109 0.042922497 -0.16642882
0000d0 66 cc d4 3c 09 42 46 3c b4 5a 3a 3e aa 85 8f bd
       0.025976371 0.012100705 0.18198663 -0.07007916
0000e0 30 8e e7 3d 41 89 dd 3d d3 56 82 bd 26 d1 f8 3c
       0.11306417 0.10817195 -0.06364217 0.030373167
0000f0 33 fb 46 bd 4a 1e 5d bd a5 da 86 3d 6b 99 b9 3d
       -0.048579406 -0.053983964 0.06584672 0.09062465
000100 37 cf 1a 3d f5 94 51 3c 0b 05 cc 3d 3d 6c 27 3e
       0.03779527 0.012791862 0.09961899 0.16349883
000110 15 a9 5f bd c5 05 3c 3e 4d d3 a9 3d e0 e4 75 bd
       -0.05460461 0.18361576 0.082922556 -0.060032725
000120 ef f5 3e 3d d4 fa a4 3d 77 66 71 be 5c 7e 04 3d
       0.04662126 0.08055654 -0.23574243 0.03234707
000130 7c b5 19 be d7 5a fe 3d eb 7c 98 bc bf 8a ca bd
       -0.15010637 0.1241967 -0.018614253 -0.09889745
000140 ec 4a c9 bc 86 d9 3a be ba 4d 1c bc 47 05 43 be
       -0.024571858 -0.18247041 -0.009540016 -0.19044982
000150 33 7c 20 3e 19 8e 62 3e 33 7a f8 ba 50 18 4a 3e
       0.15672378 0.22124518 -0.0018957317 0.19735837
000160 54 af 9f bd 3e 50 d6 bc 1d ef 45 3e f2 8b 15 3d
       -0.07797113 -0.02616131 0.19329496 0.036510415
000170 6c 21 66 be 68 96 a7 3d 50 e0 0c 3d 30 69 94 3d
       -0.22473687 0.081829846 0.03439361 0.072466254
000180 b3 c5 e4 bd 59 2e 99 3c 11 00 65 3c b0 9d dc 3c
       -0.11170521 0.018698858 0.013977067 0.02693066
000190 30 c6 69 3e e0 6c b5 3d 78 59 e0 bb f6 0f a8 3e
       0.22829509 0.08858657 -0.006846603 0.32824677
0001a0 2c 3f 5a bd 8b 6f be bc 15 29 83 bc ba 84 25 3e
       -0.0532829 -0.023246547 -0.0160108 0.16163912
0001b0 e7 d6 03 3e 3c 7f dc bd 6c a0 64 bd ae d4 27 3c
       0.12874947 -0.107664555 -0.055817053 0.010243578
0001c0 4a 1c 5d bd 81 87 88 3c de d7 37 be 8c 5c e0 3d
       -0.053982057 0.016666176 -0.1795344 0.10955152
0001d0 f9 0c 2b 3c cc 5f 23 bd 15 56 c6 bd 0e 46 3b bd
       0.010440105 -0.03988628 -0.096843876 -0.045721106
0001e0 ae 0f 5c 3d 94 12 f5 3d f4 43 d7 3d 6a 86 1b 3e
       0.05372589 0.11966434 0.10511008 0.15187994
0001f0 c2 8a 81 be d0 a1 bd 3d 98 60 af 3d 17 d1 0b 3c
       -0.25301176 0.09259379 0.08563346 0.008533738
000200 ca d6 d6 3d b4 04 df 3b cb 0e e9 bd 3b a9 2d bd
       0.104901865 0.0068059806 -0.11379775 -0.04239772
000210 05 73 f8 3d ab 09 de 3d f6 ef 17 bc 34 88 e5 bd
       0.12131313 0.10841688 -0.00927352 -0.11207619
000220 87 02 7e bc b9 7c 8e 3d 16 b3 0b be f3 d0 49 3d
       -0.015503532 0.06957383 -0.13642535 0.049271535
000230 31 e9 43 bd 3a 0f b7 bc 07 85 9c 3d fa f7 4b 3e
       -0.04782981 -0.022346128 0.076425605 0.19918814
000240 4b e1 12 be 55 e5 2b 3d aa 8a a1 bd ba e3 8e 3c
       -0.14343755 0.041966755 -0.07887776 0.017442573
000250 63 e1 b7 bd c8 f6 85 bb 59 89 96 3d a2 d2 88 3d
       -0.08978536 -0.0040882565 0.07350416 0.066808
000260 99 da ef 3a fc b6 9a bd 72 fa 21 3d d7 7b df bd
       0.00182994 -0.07554433 0.039545484 -0.109122925
000270 f7 93 bc bc 9b 4a 10 3e f9 41 5f bd 89 5b 84 3d
       -0.023019774 0.1409096 -0.054506276 0.064627714
000280 81 f1 0b 3e 32 11 07 be 33 c2 d1 3c a8 c1 80 3d
       0.13666345 -0.13190153 0.025605297 0.06286937
000290 d0 10 10 bd da 02 84 bd e0 88 c1 bc a4 72 b3 bd
       -0.035172284 -0.064458564 -0.023624837 -0.087621
0002a0 3c 0b 39 3e f6 9d d9 3d 8f fa f8 bd 9c a3 8c bc
       0.18070692 0.10625832 -0.12157165 -0.017167859
0002b0 03 e8 1c 3e 93 25 11 3e 8d 46 dc 3b c1 f8 86 3d
       0.1532288 0.1417449 0.0067222775 0.06590415
0002c0 66 18 9d bc 36 a9 38 be f6 d6 bf bc 73 a8 fb bd
       -0.019176673 -0.18033299 -0.023417931 -0.122879885
0002d0 2d d1 c1 3d 1f ee 0b bd c0 aa 73 3d 92 cc c8 3d
       0.09463725 -0.034162637 0.05948901 0.09804644
0002e0 e6 e1 ec 3c c7 54 93 3c 57 b3 c1 3d f2 82 78 bc
       0.02891631 0.01798476 0.094580345 -0.015167939
0002f0 93 2a d7 bb f6 79 f0 bc 27 6a 78 bc 33 2a f3 3d
       -0.0065663545 -0.02935503 -0.015162027 0.11873283
000300 eb e6 0d be 2b 91 1d bd 4d 31 50 3d 60 60 b6 3c
       -0.1385762 -0.03846852 0.050828267 0.022262752
000310 20 64 29 3e 56 5d e6 bc 90 e9 b5 bd 77 5a 50 bd
       0.16542101 -0.028120678 -0.08882439 -0.050867524
000320 8d 00 82 bd c0 b5 2e bd 5a 28 ce bd 45 ae ba 3d
       -0.06347761 -0.0426538 -0.1006629 0.091152705
000330 83 0e a9 3d 11 c2 34 be 9f fc 97 3d e7 13 8b 3d
       0.08254721 -0.17652155 0.074212305 0.067909054
000340 53 ad fc 3c bd e2 a5 bd 1e 02 51 bd 87 e3 6c 3d
       0.030844366 -0.080998875 -0.05102741 0.057834174
000350 ef dc a7 bd 34 bc 14 3d f7 99 1c be 40 94 27 3d
       -0.081964366 0.036312297 -0.15293108 0.040912867
000360 bc e4 99 bc 6a 65 d4 3d 50 15 80 bd 03 4f 94 3d
       -0.018785827 0.10370906 -0.06254065 0.07241633
000370 15 16 dd 3d 12 ac 65 3d ef bf 97 bd 95 1d 8e 3d
       0.107952274 0.056072302 -0.07409655 0.06939236
000380 0c 14 8b bd 97 a8 f2 3d f9 9d f8 3d e7 b4 ba 3d
       -0.06790933 0.11848562 0.12139506 0.09116536
000390 47 71 54 3e c8 d6 77 bd 9b 4c e5 ba 2b 19 ae bc
       0.20746337 -0.060507566 -0.0017494144 -0.021252235
0003a0 d8 a1 c8 bc 5d da e5 3d 7b 09 c1 bd e9 28 d7 bd
       -0.024491236 0.1122329 -0.094256364 -0.1050585
0003b0 d9 90 a9 3d 38 85 08 3d 6d 16 ca bd ad 86 ed 3d
       0.082795806 0.033330172 -0.09867559 0.11597953
0003c0 d2 94 a9 3d 34 ca e6 3c 03 09 82 3c bc 7c 44 3d
       0.08280338 0.02817259 0.015873438 0.04797052
0003d0 49 7b 0d 3d 7a 36 63 3d 48 a6 39 3e 21 8b 80 3c
       0.034541402 0.055471875 0.18129838 0.015691342
0003e0 33 7e a8 3d 43 b3 0a bc 57 c1 b6 3d cc cb 4e bd
       0.082271956 -0.008465591 0.089235954 -0.050487325
0003f0 86 23 01 bd 18 19 d7 bd a5 8a 6d 3d 6f 4f e5 bd
       -0.03152802 -0.10502833 0.05799355 -0.111967914

lstm.bias_ih_l1 f4 [256]
000000 c2 cb ab bd 15 71 89 3d 1d 68 31 3e dc b9 9f bc
       -0.08388473 0.06711022 0.17324872 -0.019497804
000010 c8 6f 98 bc 1f ab 3d bd 05 ae d2 bd c3 4c fc bd
       -0.018607989 -0.046305772 -0.10287098 -0.12319329
000020 21 44 6e bd a1 9d 97 3d 3d b4 d8 3d e3 26 72 bd
       -0.05817044 0.07403112 0.10581253 -0.059119117
000030 28 cd 6a 3d c3 f9 d7 3c 90 fc 77 bd 26 a3 1d 3e
       0.05732456 0.026364213 -0.060543597 0.15394267
000040 37 40 df bc a4 9e c5 bd 9d 9b e2 bd 95 be d2 3c
       -0.0272523 -0.09649399 -0.11064837 0.025725642
000050 3a 93 6e bd 10 58 82 3e 5a f1 18 bd 24 86 b2 3d
       -0.058245875 0.2545781 -0.037339546 0.087169915
000060 bf 8a 51 bd c0 05 6b 3e 43 d4 80 bd 85 bb 12 bc
       -0.05115771 0.22951412 -0.06290486 -0.008955841
000070 36 f8 f5 3e 23 ba 97 bd 33 31 cc bd 3d 47 e6 bd
       0.48040932 -0.0740855 -0.099703215 -0.112440564
000080 fd e4 62 3e af c1 b7 bd da 46 de ba 91 f0 ec bd
       0.22157665 -0.08972489 -0.0016958371 -0.11569322
000090 6c 59 d1 bd 61 53 94 bd 21 f2 1c be c3 c6 28 3e
       -0.10222134 -0.07242466 -0.1532674 0.16482072
0000a0 ae 93 7c bd 4d 4c 7a bd e4 7e de bc bb 83 45 bd
       -0.061664276 -0.061107922 -0.027160116 -0.04822133
0000b0 96 34 32 bd 7e 98 99 3d d5 65 ca 3a e3 b8 56 bc
       -0.04350718 0.07499789 0.0015441725 -0.013105604
0000c0 38 99 09 3d c5 05 b7 bd 12 66 40 bd 32 d6 85 bd
       0.033593386 -0.08936647 -0.04697234 -0.06534995
0000d0 4a ef e3 3c d0 d9 86 bd c2 2f b4 3c 42 99 e1 bd
       0.027824063 -0.06584513 0.021995429 -0.1101556
0000e0 94 8c af bd d1 46 c4 bd bd 16 be bc 89 5c 02 bd
       -0.08571735 -0.0958382 -0.023204202 -0.03182653
0000f0 93 3f eb 3d d2 d8 9a 3e ed 07 76 bd a7 a2 95 3d
       0.11486735 0.30243546 -0.060066152 0.07306414
000100 2a a2 7a 3f c0 58 87 3f 6f 73 75 3f cb 83 7f 3f
       0.9790369 1.0573959 0.9587926 0.99810475
000110 ec c2 83 3f be 21 80 3f 2d c1 7d 3f 92 4e 75 3f
       1.029386 1.0010297 0.9912289 0.95823014
000120 d8 21 87 3f 0d ec 77 3f 2e 79 7c 3f 3f 19 76 3f
       1.0557203 0.9684456 0.98622406 0.9613227
000130 03 02 80 3f 98 d4 72 3f a8 d7 76 3f a9 7a 6a 3f
       1.0000614 0.9485564 0.96422815 0.91593415
000140 14 ef 7e 3f a9 b0 83 3f f6 be 8a 3f c8 aa 6d 3f
       0.99583554 1.0288287 1.0839527 0.92838717
000150 cb 85 7d 3f ac 2c 7f 3f ea 23 82 3f 2f 0e 80 3f
       0.99032277 0.9967754 1.016721 1.0004328
000160 74 84 7c 3f d7 c3 77 3f 7a 93 86 3f 5f eb 77 3f
       0.9863961 0.967832 1.0513756 0.9684352
000170 39 32 8d 3f 2b 43 6e 3f 07 2c 80 3f fd 57 87 3f
       1.1030952 0.9307124 1.0013436 1.0573727
000180 c4 2b 6c 3f a2 df 83 3f de af 6e 3f fc f2 84 3f
       0.9225428 1.0302622 0.932371 1.0386653
000190 2b 11 81 3f 81 80 73 3f f7 b9 88 3f 1e de 7e 3f
       1.0083364 0.95117956 1.0681752 0.99557674
0001a0 d7 b5 68 3f 09 6b 72 3f 1b 40 82 3f 23 d0 7f 3f
       0.90902466 0.9469457 1.0175813 0.99926966
0001b0 c7 ef 84 3f 0a 7b 7e 3f 21 1f 79 3f 48 36 7e 3f
       1.0385674 0.9940649 0.97313124 0.99301577
0001c0 57 97 81 3f 0d bc 80 3f 70 73 7c 3f b0 e8 81 3f
       1.012431 1.0057389 0.98613644 1.0149136
0001d0 2f 47 80 3f fc 67 7d 3f 92 32 81 3f 9f d7 84 3f
       1.0021724 0.9898679 1.0093558 1.0378302
0001e0 0f 03 8a 3f ca 25 83 3f 66 96 7d 3f e7 6a 84 3f
       1.0782183 1.0245907 0.99057615 1.0345124
0001f0 f1 57 81 3f 72 ee 83 3f 8c 4c 77 3f 09 1b 77 3f
       1.0104963 1.0307143 0.96601176 0.9652563
000200 d5 ec 4f bc 5f b1 7f 3d 03 59 a6 3e f1 b9 86 3d
       -0.0126907425 0.062425014 0.32489786 0.06578434
000210 23 28 66 bd 4e 0a 00 bc 3c 8a 2c 3d f0 68 37 3d
       -0.05619062 -0.007814957 0.042124018 0.04477781
000220 3c bb 3f 3d 69 26 92 3d 69 b7 ca bd 33 a9 58 3c
       0.04680942 0.071362324 -0.09898264 0.013223934
000230 4d b6 bc 3c ac d1 2a 3e 56 53 a4 bd 49 cd 86 be
       0.023036147 0.16681546 -0.080237076 -0.26328495
000240 67 18 86 3c 8f f2 26 bd 97 2d a9 3b f3 9c dd bd
       0.016369058 -0.040758666 0.0051629054 -0.10820951
000250 e8 c5 20 3e 74 d8 6b 3e cd 3c d5 bc be 4c a5 3d
       0.15700495 0.23031789 -0.026029969 0.08071278
000260 6f 8f 25 bd 00 13 61 be 14 db 9e 3c b5 d9 f8 3d
       -0.040419992 -0.21979904 0.019391574 0.12150899
000270 4c c9 fb bd 2d da 43 3d e2 a7 96 bc 9b df b0 3b
       -0.12294254 0.04781549 -0.0183906 0.0053977496
000280 68 2e 61 be b0 2d a6 bc 3e ba ca bd 91 79 8f bc
       -0.21990359 -0.020285457 -0.09898804 -0.017514022
000290 a1 13 7b 3d 43 3c d0 3d 11 7e 0d ba 68 52 84 3e
       0.061298016 0.10167744 -0.00053975085 0.2584412
0002a0 13 b4 d8 bd 3d 9f 28 bd 27 d1 f9 3a d8 9e 1e 3d
       -0.105812214 -0.041167486 0.0019059525 0.038725704
0002b0 1b 6b b6 3c ee 60 24 be 72 13 f9 bd e9 7a c3 3c
       0.022267869 -0.160526 -0.12161912 0.023862319
0002c0 27 1e 7e bd 40 30 63 bd 9e 01 11 bd 53 7b 21 3d
       -0.062040474 -0.055465937 -0.035401933 0.03942425
0002d0 b4 75 13 3d 3d 3f 04 bc f3 f5 94 bd ab b6 89 bd
       0.036000922 -0.008071718 -0.072734736 -0.06724294
0002e0 4f 83 e6 3c 22 fa cf 3c 51 ad 8e 3d 9d 10 35 3c
       0.028138785 0.025387827 0.06966651 0.011051324
0002f0 3f 51 a6 bd 25 72 2e 3e d1 3a 22 bd 29 0e 17 3e
       -0.08120965 0.1703573 -0.039606873 0.14751495
000300 76 fd 7a bd 7e fa 2f bc 90 be a0 3c 12 d1 a4 bc
       -0.061276875 -0.010740874 0.019622117 -0.020119224
000310 d2 c2 66 bb 9e 02 b4 bb 6e c8 a9 bd 35 89 94 3b
       -0.0035211337 -0.005493476 -0.08290182 0.004532958
000320 3a 44 96 bc 8d d3 a2 bc 78 f2 ca bc 49 e6 56 bd
       -0.01834308 -0.019876266 -0.024773821 -0.05246571
000330 cb 73 2c bd 20 61 0c bc 23 5a 7e bd b8 23 95 bc
       -0.042102616 -0.008568078 -0.06209768 -0.018205509
000340 cc 56 0d bd 9d a2 93 bc e4 cf 50 bd b3 56 fc 3b
       -0.034506604 -0.018021876 -0.05097951 0.007700765
000350 4f d0 23 bd 3e 85 91 bc b4 f3 a2 3c b9 7c ad 3d
       -0.03999358 -0.01776373 0.019891597 0.084710546
000360 1e db 39 bc 29 27 60 3d d2 1f 84 3a dc ba 82 3c
       -0.0113437455 0.054724846 0.0010080284 0.015958242
000370 27 77 90 3d 28 12 7a bd da 86 cd bc ea 62 d0 3c
       0.070539765 -0.06105247 -0.025088716 0.02543779
000380 9a 49 6f 3d 6c b6 84 3b 8f 09 10 3c 5b 02 a0 b8
       0.0584198 0.0040500667 0.008791341 -7.629833e-05
000390 90 7d 0c bd fc 67 e8 bc 8d 55 0e bd f2 3c 43 bc
       -0.034299433 -0.028369896 -0.034749556 -0.011916386
0003a0 c0 9d 85 bd 5c b3 1b bd 52 3a 8c bc a8 7c ef bc
       -0.06524229 -0.038012847 -0.017117653 -0.029234245
0003b0 39 0a 8e 3c ba 19 14 3d 6c bd e2 bc 6f 23 09 bc
       0.017338859 0.036157347 -0.027678214 -0.008370264
0003c0 3f ae bb 3c 79 74 e8 bb e6 bb 36 bb 50 72 4c bd
       0.022910235 -0.0070939627 -0.0027882992 -0.049913704
0003d0 c8 f8 09 bd fc 82 17 bd 78 42 2b 3d 50 fe 81 bd
       -0.033684522 -0.03699015 0.041811436 -0.063473344
0003e0 63 54 e0 3c 62 94 6c bd 71 5f 88 bc e6 2a f8 38
       0.027383989 -0.057758696 -0.016647073 0.00011833552
0003f0 08 d9 2d bb 1b f4 c8 3c a1 61 2e bd 81 a3 da 3d
       -0.0026527066 0.024530461 -0.042573575 0.10675717
