Model/weights/model_test_1011_1_last.pt (torch, 648306 bytes, 27 tensors)

lstm.weight_ih_l0 f4 [256, 2]
-0.06705186 -0.055544 0.023914142 -0.062894695 0.03950505 -0.07801888 -0.016274072 0.051689766
0.15847465 0.107208945 0.054676726 0.21449585 0.03718597 -0.090632826 -0.20849063 -0.028895153
-0.13566178 0.27397707 -0.22543956 -0.19775702 0.04600403 0.03126067 0.100857385 0.1679888
0.045643948 0.01695682 0.067023404 -0.089027405 -0.030905597 0.07910288 -0.12294665 -0.10648196
-0.13491808 -0.020729987 0.014449707 0.012079722 0.13403338 0.042644307 0.14829661 0.053147983
0.070616186 0.01410508 0.057089716 0.12956291 -0.05548763 -0.010618048 0.13810144 0.0734745
-0.15495135 -0.11698241 0.012142216 0.04125273 -0.114234984 0.11339965 -0.12292159 -0.07035842
-0.072260804 0.13670178 0.01006166 0.09265755 -0.07367275 0.0024357329 -0.15589029 0.031093746
0.036943253 0.07825437 0.08884694 0.096703984 -0.037562672 -0.099385574 0.0807705 -0.10105646
0.22534665 -0.064576045 0.049330994 0.06576158 0.087338045 -0.09134054 0.13096307 0.16594273
0.13485987 0.008212073 -0.045127258 -0.01765524 -0.019705037 -0.047418945 0.033424255 0.19378257
0.19600861 0.17943212 0.05863496 -0.006690167 -0.058660436 0.111998275 0.081087455 0.1308187
0.05287342 0.12739006 -0.056887604 0.14184232 0.006207196 0.13369875 -0.09483152 -0.18834695
-0.07962563 0.051013116 -0.061642617 0.25161675 -0.08342433 -0.014876171 -0.052496396 -0.025366897
0.027844425 0.023726692 0.010480565 0.18667077 -0.14062439 0.058160596 0.109627694 0.06185816
-0.15905745 0.025003664 -0.073425 0.026221314 -0.010538809 -0.022359496 -0.058613107 0.073961526
0.08464111 -0.058319222 0.044833865 -0.0367433 0.147889 0.018915955 0.11011675 0.16213806
-0.061324377 -0.06994921 0.17048717 0.08078965 0.03274403 0.17433892 0.052832637 -0.026046293
-0.23279521 0.07103913 -0.1477871 -0.0749665 0.0593485 0.065363124 0.04286873 -0.08102838
0.11023785 0.18533342 -0.031875357 -0.037798956 0.068443075 -0.047229525 -0.17302002 0.19680567
0.1367527 -0.23442799 -0.14865088 -0.08632037 0.15967579 0.22049996 -0.016093962 0.05508935
-0.039298076 0.08730022 0.02325771 0.23154931 -0.09177438 -0.015490964 -0.054290816 0.029342147
-0.007814645 -0.07437327 0.17696235 -0.03975677 0.042793427 0.026085434 0.18769635 0.07920195
0.09982094 -0.07063551 -0.069232024 -0.008724444 0.17310725 0.023315473 -0.02162298 0.13317123
0.0588924 -0.009561808 -0.1282136 0.100286074 0.22250508 0.027381906 0.1572281 0.12318682
0.054307595 0.093498595 0.14658578 0.1364389 0.042795278 0.062086847 -0.020933064 0.0654626
-0.0032730396 0.117853604 -0.022485988 0.05361253 0.046277434 0.0022516171 0.09992513 0.010392518
-0.0044095176 0.18493651 0.1544376 0.0030035686 -0.14030288 -0.034778073 0.011065669 0.021458574
-0.03311157 0.2654164 -0.014010577 0.10545797 -0.080899626 -0.052668944 0.028181681 -0.028000984
0.041503567 0.05190254 -0.15748101 0.031569246 -0.00042828976 0.110058926 -0.11165688 -0.07643394
0.08649421 0.013069009 0.03910579 0.24591838 0.010999704 0.007280097 0.13492088 -0.02803057
-0.029018262 0.11991067 0.06335867 0.049725737 -0.01171429 -0.0054867775 0.1509843 -0.17090085
00000000: 7c52 89bd 1b82 63bd 97e7 c33c efce 80bd
00000010: 0cd0 213d 5dc8 9fbd 3451 85bc a6b8 533d
00000020: 2e47 223e 5d90 db3d b4f4 5f3d cda4 5b3e
00000030: 5150 183d b49d b9bd 917e 55be 87b5 ecbc
00000040: ecea 0abe b946 8c3e a1d9 66be d180 4abe
00000050: b96e 3c3d 300b 003d 518e ce3d 4205 2c3e
00000060: 26f5 3a3d 07e9 8a3c 9143 893d 0054 b6bd
00000070: bc2d fdbc b100 a23d 74cb fbbd 3713 dabd
00000080: f727 0abe efd1 a9bc 77be 6c3c 07ea 453c
00000090: 0c40 093e ccab 2e3d 11db 173e b3b1 593d
000000a0: 389f 903d fe18 673c e8d6 693d 24ac 043e
000000b0: ff46 63bd 52f7 2dbc 776a 0d3e cc79 963d
000000c0: 91ab 1ebe 7994 efbd 25f0 463c 9ff8 283d
000000d0: 08f4 e9bd 133e e83d 51be fbbd 1318 90bd
000000e0: 79fd 93bd 8dfb 0b3e a9d9 243c 3ec3 bd3d
000000f0: bde1 96bd d1a0 1f3b b4a1 1fbe 50b8 fe3c
00000100: cf51 173d d443 a03d 62f5 b53d bd0c c63d
00000110: 51db 19bd aa8a cbbd 016b a53d b0f6 cebd
00000120: 46c1 663e 7240 84bd 4c0f 4a3d 02ae 863d
00000130: 4ade b23d c010 bbbd 2f1b 063e e4ec 293e
00000140: b518 0a3e ee8b 063c 5cd7 38bd b9a1 90bc
00000150: 756c a1bc 5e3a 42bd dfe7 083d f06e 463e
00000160: 7bb6 483e 0ebd 373e 362b 703d 3039 dbbb
00000170: ed45 70bd 5a5f e53d 2e11 a63d 56f5 053e
00000180: cd91 583d 8a72 023e fa02 69bd 1d3f 113e
00000190: bc65 cb3b 53e8 083e 0737 c2bd 06de 40be
000001a0: c312 a3bd 21f3 503d f87c 7cbd e9d3 803e
000001b0: 60da aabd 2fbb 73bc 7606 57bd 3dce cfbc
000001c0: fe19 e43c 7b5e c23c adb6 2b3c 9f26 3f3e
000001d0: d7ff 0fbe ce39 6e3d 7c84 e03d fb5e 7d3d
000001e0: f5df 22be 7cd4 cc3c d95f 96bd 15ce d63c
000001f0: f8aa 2cbc 432b b7bc 4c14 70bd 2479 973d
00000200: 5158 ad3d 23e0 6ebd b7a3 373d 2480 16bd
00000210: 3770 173e a2f5 9a3c e484 e13d 8507 263e
00000220: 452f 7bbd 8841 8fbd 3094 2e3e 0b75 a53d
00000230: 9b1e 063d e785 323e 0967 583d 095f d5bc
00000240: de61 6ebe f77c 913d 8055 17be 0988 99bd
00000250: 6a17 733d 1add 853d 1f97 2f3d 35f2 a5bd
00000260: 62c4 e13d 0bc8 3d3e bc8f 02bd 14d3 1abd
00000270: e22b 8c3d bf73 41bd 292c 31be 6d87 493e
00000280: e608 0c3e e40d 70be f037 18be bcc8 b0bd
00000290: 0d82 233e beca 613e 7cd7 83bc 5fa5 613d
000002a0: 05f7 20bd 75ca b23d f486 be3c 431b 6d3e
000002b0: 35f4 bbbd d0cd 7dbc 0c60 5ebd f15e f03c
000002c0: ff08 00bc 0351 98bd 9e35 353e ffd7 22bd
000002d0: 2948 2f3d 1fb1 d53c 7933 403e a234 a23d
000002e0: ec6e cc3d 5aa9 90bd 85c9 8dbd f8f0 0ebc
000002f0: 0743 313e 1700 bf3c ad22 b1bc 0a5e 083e
00000300: 2839 713d 21a9 1cbc 6d4a 03be c962 cd3d
00000310: 5fd8 633e 0550 e03c 6700 213e 5f49 fc3d
00000320: a471 5e3d 317c bf3d 951a 163e a4b6 0b3e
00000330: 1a4a 2f3d c74e 7e3d d17b abbc 4111 863d
00000340: 7e80 56bb 3b5d f13d 8934 b8bc d098 5b3d
00000350: 688d 3d3d de8f 133b 8ca5 cc3d 6145 2a3c
00000360: b77d 90bb ff5f 3d3e e424 1e3e 85d7 443b
00000370: 8fab 0fbe 7473 0ebd c84c 353c e4c9 af3c
00000380: ff9f 07bd a9e4 873e 9f8c 65bc 59fa d73d
00000390: b4ae a5bd 64bb 57bd 45dd e63c 5262 e5bc
000003a0: a5ff 293d c297 543d b442 21be c14e 013d
000003b0: 148c e0b9 9366 e13d 5dac e4bd 6689 9cbd
000003c0: e023 b13d 661f 563c 652d 203d 07d2 7b3e
000003d0: 1a38 343c e18d ee3b b328 0a3e 5ea0 e5bc
000003e0: b5b7 edbc ba93 f53d 31c2 813d 37ad 4b3d
000003f0: 4bed 3fbc 6dca b3bb a19b 1a3e a200 2fbe

lstm.weight_hh_l0 f4 [256, 64]
-0.12116925 0.12391006 0.09045304 0.24012806 -0.024945507 0.044809148 0.052206382 0.016066007
-0.05290665 -0.081252426 0.0351506 0.18068749 -0.033190515 -0.06107735 0.107249916 -0.20569788
0.010994059 0.036692105 0.05654945 -0.09009182 0.05562884 -0.1700598 -0.13233827 -0.10824035
0.08889901 -0.10355321 0.1778672 0.10174963 -0.05418213 -0.17720088 0.008044985 -0.1635668
-0.010865755 -0.1875826 -0.08520183 -0.04360046 0.20182249 0.005977265 0.20711099 0.09029806
-0.18156569 0.1612823 0.0753334 -0.1317102 -0.005500333 0.065813735 0.06458786 -0.042957813
0.013534971 0.0013478451 0.040365588 0.020277277 -0.08076812 0.03800618 0.04027619 0.12043638
0.051346645 0.09605644 0.14067794 -0.029879248 -0.008786417 0.18733014 -0.027305748 0.037866
-0.016548488 -0.020039905 0.04480852 -0.09496128 -0.042324245 0.19970469 0.0046141557 -0.055729605
0.034542467 0.07188999 -0.09294038 0.20133916 0.22537605 0.12430401 -0.16331466 -0.021416973
0.1588847 -0.087492526 0.09376855 -0.18250512 0.0253042 0.10284606 -0.08666724 -0.008441711
-0.05796242 0.12787917 -0.007439894 -0.011438481 0.05400824 -0.08249856 -9.627972e-05 -0.06061729
0.0029571762 0.032213796 0.07104959 -0.022544341 -0.12563525 -0.009587024 -0.013026403 0.13087279
-0.010033107 -0.062532805 0.09163737 -0.008298799 -0.11941242 -0.079537965 0.011226617 0.07891085
-0.055363525 -0.04463374 0.06428248 -0.17326888 -0.18173641 0.16094235 0.005770953 0.069507904
-0.12914066 0.11199824 0.023557981 0.02094359 -0.12470064 0.00030853425 0.052367695 0.07549982
-0.016908268 0.05049242 -0.11336888 0.058867436 0.042958166 0.06975938 0.019107575 0.011973959
-0.005717855 -0.045184348 -0.03269765 0.043581236 0.101837054 0.12309286 -0.08027343 -0.052428726
-0.09271121 0.15962802 -0.013476646 -0.02378419 -0.13227536 -0.06910105 -0.02948397 -0.03506021
-0.15373252 0.13508084 -0.03470181 -0.07355447 0.17378378 0.109005675 -0.0073436536 0.023544298
-0.02872906 -0.08762815 -0.03474237 -0.047724858 0.0908126 0.028786164 -0.07507433 -0.18599838
-0.106195144 -0.026265467 -0.06182158 0.08842086 -0.07565728 -0.17895989 0.03888235 -0.007898429
-0.0017851479 -0.022890672 -0.058567237 -0.084233776 0.08522217 0.019110963 0.20216739 -0.08840192
-0.1417657 -0.073049374 0.015076913 -0.033183243 0.11368247 0.03518368 -0.07305383 -0.047367524
-0.061236944 -0.009529243 0.07336447 -0.04409761 0.10250062 0.001918929 0.12067069 -0.02852199
0.03600712 -0.14970411 -0.0035971731 -0.016572874 -0.039986834 -0.027667541 -0.15332673 -0.018105581
-0.04404014 0.13754526 -0.0037800977 -0.0184995 0.12310022 0.029259691 0.09143209 0.09349196
0.03516441 -0.007860053 0.16252495 -0.04228715 0.07396585 -0.01471893 -0.06811538 0.094785474
0.2041812 0.12764937 -0.10104973 -0.04230052 0.076696314 -0.08578353 0.058696084 -0.24714856
-0.07337122 -0.007927009 0.03777831 -0.044825755 -0.0061539127 -0.020418294 0.070286274 -0.014840306
0.00651762 0.008141628 0.043013692 0.113693655 0.034211356 0.0030704285 0.09269323 0.15699443
-0.12435416 0.03489474 -0.07217128 0.029356379 -0.1557941 -0.0015591932 0.044057135 0.017827291
00000000: 9527 f8bd 8fc4 fd3d 723f b93d 21e4 753e
00000010: 855a ccbc cc89 373d 5cd6 553d dc9c 833c
00000020: a5b4 58bd ac67 a6bd 13fa 0f3d 2406 393e
00000030: c7f2 07bd 3e2c 7abd d8a5 db3d 77a2 52be
00000040: 6d20 343c 764a 163d 65a0 673d 0f82 b8bd
00000050: 11db 633d 2824 2ebe af83 07be 1ead ddbd
00000060: af10 b63d b513 d4bd d222 363e 1c62 d03d
00000070: 15ee 5dbd 2674 35be 1dcf 033c 0e7e 27be
00000080: 4806 32bc a715 40be 4c7e aebd 6596 32bd
00000090: 8eaa 4e3e efdc c33b e714 543e 30ee b83d
000000a0: 5bec 39be 3027 253e 6648 9a3d 0adf 06be
000000b0: 233c b4bb 5ac9 863d a446 843d 88f4 2fbd
000000c0: c8c1 5d3c 2daa b03a 6356 253d 881c a63c
000000d0: c269 a5bd 5eac 1b3d a5f8 243d 59a7 f63d
000000e0: dc50 523d 3db9 c43d e10d 103e 53c5 f4bc
000000f0: e7f4 0fbc 79d3 3f3e 4eb0 dfbc 6119 1b3d
00000100: b290 87bc ba2a a4bc 2389 373d 0f7b c2bd
00000110: 305c 2dbd 637f 4c3e 5832 973b ba44 64bd
00000120: 677c 0d3d 0f3b 933d 8757 bebd da2b 4e3e
00000130: fbc8 663e 1a93 fe3d f53b 27be a672 afbc
00000140: acb2 223e 482f b3bd ba09 c03d 9fe2 3abe
00000150: c14a cf3c f5a0 d23d 987e b1bd 1a4f 0abc
00000160: 016a 6dbd c2f2 023e 5bca f3bb 7768 3bbc
00000170: bf37 5d3d 01f5 a8bd c8e9 c9b8 d649 78bd
00000180: 2fcd 413b 9df2 033d 7382 913d e9ae b8bc
00000190: 87a6 00be e512 1dbc b26c 55bc 8403 063e
000001a0: e761 24bc 3311 80bd 60ac bb3d b0f7 07bc
000001b0: 808e f4bd cde4 a2bd d8ef 373c 039c a13d
000001c0: ddc4 62bd ded1 36bd 88a6 833d 666d 31be
000001d0: 1c19 3abe 12ce 243e 431a bd3b 295a 8e3d
000001e0: 733d 04be 555f e53d abfc c03c e491 ab3c
000001f0: 0d63 ffbd c4c2 a139 827f 563d a69f 9a3d
00000200: 3583 8abc 24d1 4e3d f12d e8bd fb1e 713d
00000210: e7f4 2f3d 01de 8e3d 7d87 9c3c 6d2e 443c
00000220: d85c bbbb 3913 39bd f9ed 05bd 3d82 323d
00000230: f28f d03d 1c18 fc3d 6566 a4bd 81bf 56bd
00000240: 60df bdbd 8775 233e 26cd 5cbc 10d7 c2bc
00000250: 3173 07be da84 8dbd 5e88 f1bc 4b9b 0fbd
00000260: 0f6c 1dbe a252 0a3e 7c23 0ebd baa3 96bd
00000270: 60f4 313e 5e3e df3d 08a3 f0bb f9df c03c
00000280: 3559 ebbc 6376 b3bd 044e 0ebd 247b 43bd
00000290: f5fb b93d f6d0 eb3c 92c0 99bd 5c76 3ebe
000002a0: d77c d9bd ad2a d7bc a038 7dbd ff15 b53d
000002b0: 34f2 9abd 4341 37be 1943 1f3d 6a68 01bc
000002c0: a0fb e9ba 3885 bbbc 33e4 6fbd c282 acbd
000002d0: f688 ae3d 988e 9c3c f804 4f3e 110c b5bd
000002e0: 072b 11be e99a 95bd 2805 773c 27eb 07bd
000002f0: 5bd2 e83d c31c 103d 3f9d 95bd 7304 42bd
00000300: 97d3 7abd 8b20 1cbc 1c40 963d b29f 34bd
00000310: d8eb d13d 9384 fb3a 3222 f73d f3a6 e9bc
00000320: 347c 133d 094c 19be 8dbe 6bbb d6c3 87bc
00000330: 3cc9 23bd 0aa7 e2bc af01 1dbe 2852 94bc
00000340: 6f63 34bd aad8 0c3e 84bb 77bb 438c 97bc
00000350: f81b fc3d 05b2 ef3c bf40 bb3d b678 bf3d
00000360: 8e08 103d 74c7 00bc f16c 263e 4a35 2dbd
00000370: 687b 973d ab27 71bc 1480 8bbd e31e c23d
00000380: e014 513e 84b6 023e 29f3 cebd 4f43 2dbd
00000390: f512 9d3d 46af afbd 4e6b 703d 8314 7dbe
000003a0: a643 96bd 49e0 01bc 6ebd 1a3d 369b 37bd
000003b0: c3a6 c9bb 4444 a7bc 40f2 8f3d c124 73bc
000003c0: c291 d53b 7664 053c 202f 303d 38d8 e83d
000003d0: 3521 0c3d 3e39 493b f3d5 bd3d 26c3 203e
000003e0: 65ad febd c9ed 0e3d 89ce 93bd ca7c f03c
000003f0: 7d88 1fbe d85d ccba 4175 343d 8a0a 923c

lstm.bias_ih_l0 f4 [256]
-0.055575978 -0.07104998 -0.059452403 -0.022109136 -0.018303167 -0.09472985 -0.078420974 -0.098974645
-0.044916842 -0.021788748 -0.11358782 -0.10914643 -0.064849764 -0.066121385 -0.013289161 -0.07228905
-0.04330702 -0.0030504453 -0.096213646 -0.06130797 -0.056236275 -0.11685344 -0.0899233 -0.080291644
-0.075560495 -0.037749402 -0.1034896 -0.103316136 -0.09360328 -0.06198003 -0.020120434 -0.08094577
-0.07311361 -0.080391146 -0.04939179 -0.022471225 -0.15408489 -0.048908703 0.0021525247 -0.0876313
-0.0459819 -0.09489662 -0.065380536 -0.09407794 -0.08842764 -0.024527367 -0.08898668 -0.08295695
-0.107760124 -0.079244085 -0.0067049377 -0.05419858 -0.08757351 -0.032973047 -0.12321977 -0.0750636
-0.06706283 -0.08028849 -0.06603045 -0.12089455 -0.060366806 -0.0630142 -0.06275058 -0.045542385
0.9377897 0.91986555 0.9079667 0.9061461 0.9394865 0.89323646 0.8994603 0.87958956
0.9424667 0.9591309 0.866941 0.904176 0.92973113 0.9354465 0.9533817 0.9219907
0.94885314 0.9630761 0.8798495 0.91981894 0.92523485 0.87996894 0.91165096 0.8973256
0.9159689 0.9457375 0.8914836 0.9048427 0.9053715 0.9145562 0.90968543 0.9180509
0.93481076 0.93715966 0.95158386 0.9512505 0.8684765 0.9024016 0.88066506 0.925275
0.9410866 0.8695078 0.92663324 0.8698504 0.9179031 0.9288769 0.89106226 0.92265064
0.9342525 0.9274724 0.95670915 0.9412806 0.8760589 0.9687937 0.8572064 0.90524095
0.9299335 0.9080184 0.929704 0.8945713 0.93057257 0.9374994 0.9048458 0.94904727
0.048583657 0.021544402 -0.035412066 -0.005962649 -0.017127916 0.018681852 -0.03749736 0.00080487074
-0.018718999 -0.012237762 0.022308031 -0.011797906 0.016722316 -0.010305366 -0.007047198 0.0011901837
0.020843903 -0.07358728 -0.041342333 -0.01230757 0.0005279477 0.01122029 -0.01788676 -0.00085123774
0.0027228545 0.032567803 0.0057267724 0.007604116 0.015413515 -0.0047594425 -0.02352164 0.06375298
-0.01263848 0.045420196 0.002508755 -0.011085214 -0.027828364 0.027348066 -0.033390354 -0.0410923
-0.01497893 -0.009815284 0.011227978 0.04673289 0.025091307 -0.023945134 -0.011082302 0.000115600444
0.016485114 0.011262849 0.007923389 0.024742974 0.013820096 0.024478834 -0.007191966 0.020016212
-0.012756931 -0.022829372 -0.048482202 0.051649705 0.011905302 0.022485191 0.004072125 -0.005667767
-0.09426822 -0.04901754 -0.04179381 -0.01766402 -0.014216125 -0.072155625 -0.062286176 -0.112299964
-0.038988832 -0.008867265 -0.10529198 -0.10645611 -0.0386742 -0.06166813 0.0003975699 -0.06315761
-0.04013028 -0.08251458 -0.080671325 -0.052801516 -0.0417925 -0.09293819 -0.06181024 -0.07675078
-0.08180233 -0.04250118 -0.091477565 -0.10036677 -0.08793129 -0.039110124 -0.0076137315 -0.105958626
-0.06366267 -0.12610666 -0.039196618 -0.036760475 -0.12652746 -0.05213944 0.005630759 -0.103115834
-0.052751813 -0.07692511 -0.037396017 -0.09999263 -0.09243469 -0.028356805 -0.055614673 -0.07772765
-0.115355425 -0.08382082 0.006024146 -0.05028813 -0.08669807 -0.023746118 -0.12518398 -0.061757635
-0.06340862 -0.070734955 -0.09582681 -0.08997435 -0.05881985 -0.047297455 -0.06446357 -0.029806847
00000000: a3a3 63bd a782 91bd 5d84 73bd 381e b5bc
00000010: 86f0 95bc b901 c2bd 2d9b a0bd 38b3 cabd
00000020: b9fa 37bd 517e b2bc bba0 e8bd 2a88 dfbd
00000030: f4cf 84bd a66a 87bd c8ba 59bc 480c 94bd
00000040: b462 31bd fbe9 47bb a90b c5bd 111e 7bbd
00000050: 0258 66bd db50 efbd b529 b8bd f26f a4bd
00000060: 76bf 9abd 1e9f 1abd 5bf2 d3bd 6997 d3bd
00000070: 14b3 bfbd c6de 7dbd 9cd3 a4bc e5c6 a5bd
00000080: 97bc 95bd 1da4 a4bd 0c4f 4abd 9315 b8bc
00000090: 6ec8 1dbe 7e54 48bd 5f11 0d3b 0a78 b3bd
000000a0: 8457 3cbd 2959 c2bd 3be6 85bd efab c0bd
000000b0: 8d19 b5bd 9eed c8bc a63e b6bd 55e5 a9bd
000000c0: 57b1 dcbd b94a a2bd 18b5 dbbb 55ff 5dbd
000000d0: be59 b3bd bf0e 07bd a65a fcbd f2ba 99bd
000000e0: 3d58 89bd 4b6e a4bd f93a 87bd 9097 f7bd
000000f0: 2f43 77bd 970d 81bd 6083 80bd a78a 3abd
00000100: fc12 703f 4f7c 6b3f 8170 683f 31f9 673f
00000110: 3082 703f 25ab 643f 0843 663f c82c 613f
00000120: 7f45 713f 9a89 753f d8ef 5d3f 1478 673f
00000130: dc02 6e3f 6c79 6f3f d310 743f 9507 6c3f
00000140: 0ae8 723f 288c 763f d13d 613f 4179 6b3f
00000150: 31dc 6c3f a545 613f f561 693f 21b7 653f
00000160: f07c 6a3f da1b 723f 4538 643f c5a3 673f
00000170: 6dc6 673f 5b20 6a3f 25e1 683f 6205 6b3f
00000180: c24f 6f3f b2e9 6f3f 009b 733f 2785 733f
00000190: 7a54 5e3f cb03 673f 4473 613f d3de 6c3f
000001a0: 0deb 703f 1098 5e3f d637 6d3f 84ae 5e3f
000001b0: b3fb 6a3f e0ca 6d3f a81c 643f d532 6c3f
000001c0: 2c2b 6f3f d56e 6d3f e4ea 743f c4f7 703f
000001d0: 6545 603f dd02 783f e171 5b3f dfbd 673f
000001e0: 1f10 6e3f e573 683f 1501 6e3f a002 653f
000001f0: 013a 6e3f f6ff 6f3f f9a3 673f c3f4 723f
00000200: a8ff 463d e37d b03c 3e0c 11bd 5362 c3bb
00000210: d84f 8cbc af0a 993c d596 19bd f6fd 523a
00000220: 9658 99bc e580 48bc 55bf b63c 014c 41bc
00000230: 3dfd 883c d6d7 28bc 2eec e6bb f0ff 9b3a
00000240: d5c0 aa3c eeb4 96bd 9456 29bd b1a5 49bc
00000250: f865 0a3a 4fd5 373c 4187 92bc 9925 5fba
00000260: eb71 323b d165 053d a6a7 bb3b f32b f93b
00000270: f888 7c3c 19f5 9bbb 74b0 c0bc ec90 823d
00000280: a111 4fbc 870a 3a3d ed69 243b c29e 35bc
00000290: 4ff8 e3bc 0d09 e03c 53c4 08bd 6650 28bd
000002a0: 306a 75bc 49d0 20bc 8ef5 373c fd6a 3f3d
000002b0: 498c cd3c 9628 c4bc 8b92 35bc 846e f238
000002c0: ca0b 873c d087 383c 1ad1 013c c7b1 ca3c
000002d0: af6d 623c d687 c83c 95aa ebbb 0af9 a33c
000002e0: 7202 51bc aa04 bbbc 4695 46bd a48e 533d
000002f0: 750e 433c dd32 b83c 766f 853b adb8 b9bb
00000300: b20f c1bd 9ec6 48bd fc2f 2bbd 23b4 90bc
00000310: c0ea 68bc 54c6 93bd ca1f 7fbd 86fd e5bd
00000320: c1b2 1fbd 0148 11bc 52a3 d7bd a905 dabd
00000330: d768 1ebd b997 7cbd ee70 d039 c758 81bd
00000340: a65f 24bd 67fd a8bd 0237 a5bd 6746 58bd
00000350: 9d2e 2bbd 6156 bebd bc2c 7dbd 832f 9dbd
00000360: fb87 a7bd b815 2ebd 9758 bbbd 188d cdbd
00000370: 5215 b4bd f031 20bd 9c7c f9bb d600 d9bd
00000380: 9361 82bd 1b22 01be a28c 20bd 2792 16bd
00000390: 6a90 01be 2a90 55bd 3b82 b83b 652e d3bd
000003a0: 4912 58bd e98a 9dbd 912c 19bd f0c8 ccbd
000003b0: 664e bdbd 884c e8bc 36cc 63bd ad2f 9fbd
000003c0: 773f ecbd 40aa abbd 3366 c53b edfa 4dbd
000003d0: c28e b1bd 3887 c2bc 3b30 00be 93f5 7cbd
000003e0: 61dc 81bd 7ddd 90bd d940 c4bd 7944 b8bd
000003f0: 15ed 70bd faba 41bd 7a05 84bd 7d2d f4bc

lstm.bias_hh_l0 f4 [256]
-0.055575978 -0.07104998 -0.059452403 -0.022109136 -0.018303167 -0.09472985 -0.078420974 -0.098974645
-0.044916842 -0.021788748 -0.11358782 -0.10914643 -0.064849764 -0.066121385 -0.013289161 -0.07228905
-0.04330702 -0.0030504453 -0.096213646 -0.06130797 -0.056236275 -0.11685344 -0.0899233 -0.080291644
-0.075560495 -0.037749402 -0.1034896 -0.103316136 -0.09360328 -0.06198003 -0.020120434 -0.08094577
-0.07311361 -0.080391146 -0.04939179 -0.022471225 -0.15408489 -0.048908703 0.0021525247 -0.0876313
-0.0459819 -0.09489662 -0.065380536 -0.09407794 -0.08842764 -0.024527367 -0.08898668 -0.08295695
-0.107760124 -0.079244085 -0.0067049377 -0.05419858 -0.08757351 -0.032973047 -0.12321977 -0.0750636
-0.06706283 -0.08028849 -0.06603045 -0.12089455 -0.060366806 -0.0630142 -0.06275058 -0.045542385
0.9377897 0.91986555 0.9079667 0.9061461 0.9394865 0.89323646 0.8994603 0.87958956
0.9424667 0.9591309 0.866941 0.904176 0.92973113 0.9354465 0.9533817 0.9219907
0.94885314 0.9630761 0.8798495 0.91981894 0.92523485 0.87996894 0.91165096 0.8973256
0.9159689 0.9457375 0.8914836 0.9048427 0.9053715 0.9145562 0.90968543 0.9180509
0.93481076 0.93715966 0.95158386 0.9512505 0.8684765 0.9024016 0.88066506 0.925275
0.9410866 0.8695078 0.92663324 0.8698504 0.9179031 0.9288769 0.89106226 0.92265064
0.9342525 0.9274724 0.95670915 0.9412806 0.8760589 0.9687937 0.8572064 0.90524095
0.9299335 0.9080184 0.929704 0.8945713 0.93057257 0.9374994 0.9048458 0.94904727
0.048583657 0.021544402 -0.035412066 -0.005962649 -0.017127916 0.018681852 -0.03749736 0.00080487074
-0.018718999 -0.012237762 0.022308031 -0.011797906 0.016722316 -0.010305366 -0.007047198 0.0011901837
0.020843903 -0.07358728 -0.041342333 -0.01230757 0.0005279477 0.01122029 -0.01788676 -0.00085123774
0.0027228545 0.032567803 0.0057267724 0.007604116 0.015413515 -0.0047594425 -0.02352164 0.06375298
-0.01263848 0.045420196 0.002508755 -0.011085214 -0.027828364 0.027348066 -0.033390354 -0.0410923
-0.01497893 -0.009815284 0.011227978 0.04673289 0.025091307 -0.023945134 -0.011082302 0.000115600444
0.016485114 0.011262849 0.007923389 0.024742974 0.013820096 0.024478834 -0.007191966 0.020016212
-0.012756931 -0.022829372 -0.048482202 0.051649705 0.011905302 0.022485191 0.004072125 -0.005667767
-0.09426822 -0.04901754 -0.04179381 -0.01766402 -0.014216125 -0.072155625 -0.062286176 -0.112299964
-0.038988832 -0.008867265 -0.10529198 -0.10645611 -0.0386742 -0.06166813 0.0003975699 -0.06315761
-0.04013028 -0.08251458 -0.080671325 -0.052801516 -0.0417925 -0.09293819 -0.06181024 -0.07675078
-0.08180233 -0.04250118 -0.091477565 -0.10036677 -0.08793129 -0.039110124 -0.0076137315 -0.105958626
-0.06366267 -0.12610666 -0.039196618 -0.036760475 -0.12652746 -0.05213944 0.005630759 -0.103115834
-0.052751813 -0.07692511 -0.037396017 -0.09999263 -0.09243469 -0.028356805 -0.055614673 -0.07772765
-0.115355425 -0.08382082 0.006024146 -0.05028813 -0.08669807 -0.023746118 -0.12518398 -0.061757635
-0.06340862 -0.070734955 -0.09582681 -0.08997435 -0.05881985 -0.047297455 -0.06446357 -0.029806847
00000000: a3a3 63bd a782 91bd 5d84 73bd 381e b5bc
00000010: 86f0 95bc b901 c2bd 2d9b a0bd 38b3 cabd
00000020: b9fa 37bd 517e b2bc bba0 e8bd 2a88 dfbd
00000030: f4cf 84bd a66a 87bd c8ba 59bc 480c 94bd
00000040: b462 31bd fbe9 47bb a90b c5bd 111e 7bbd
00000050: 0258 66bd db50 efbd b529 b8bd f26f a4bd
00000060: 76bf 9abd 1e9f 1abd 5bf2 d3bd 6997 d3bd
00000070: 14b3 bfbd c6de 7dbd 9cd3 a4bc e5c6 a5bd
00000080: 97bc 95bd 1da4 a4bd 0c4f 4abd 9315 b8bc
00000090: 6ec8 1dbe 7e54 48bd 5f11 0d3b 0a78 b3bd
000000a0: 8457 3cbd 2959 c2bd 3be6 85bd efab c0bd
000000b0: 8d19 b5bd 9eed c8bc a63e b6bd 55e5 a9bd
000000c0: 57b1 dcbd b94a a2bd 18b5 dbbb 55ff 5dbd
000000d0: be59 b3bd bf0e 07bd a65a fcbd f2ba 99bd
000000e0: 3d58 89bd 4b6e a4bd f93a 87bd 9097 f7bd
000000f0: 2f43 77bd 970d 81bd 6083 80bd a78a 3abd
00000100: fc12 703f 4f7c 6b3f 8170 683f 31f9 673f
00000110: 3082 703f 25ab 643f 0843 663f c82c 613f
00000120: 7f45 713f 9a89 753f d8ef 5d3f 1478 673f
00000130: dc02 6e3f 6c79 6f3f d310 743f 9507 6c3f
00000140: 0ae8 723f 288c 763f d13d 613f 4179 6b3f
00000150: 31dc 6c3f a545 613f f561 693f 21b7 653f
00000160: f07c 6a3f da1b 723f 4538 643f c5a3 673f
00000170: 6dc6 673f 5b20 6a3f 25e1 683f 6205 6b3f
00000180: c24f 6f3f b2e9 6f3f 009b 733f 2785 733f
00000190: 7a54 5e3f cb03 673f 4473 613f d3de 6c3f
000001a0: 0deb 703f 1098 5e3f d637 6d3f 84ae 5e3f
000001b0: b3fb 6a3f e0ca 6d3f a81c 643f d532 6c3f
000001c0: 2c2b 6f3f d56e 6d3f e4ea 743f c4f7 703f
000001d0: 6545 603f dd02 783f e171 5b3f dfbd 673f
000001e0: 1f10 6e3f e573 683f 1501 6e3f a002 653f
000001f0: 013a 6e3f f6ff 6f3f f9a3 673f c3f4 723f
00000200: a8ff 463d e37d b03c 3e0c 11bd 5362 c3bb
00000210: d84f 8cbc af0a 993c d596 19bd f6fd 523a
00000220: 9658 99bc e580 48bc 55bf b63c 014c 41bc
00000230: 3dfd 883c d6d7 28bc 2eec e6bb f0ff 9b3a
00000240: d5c0 aa3c eeb4 96bd 9456 29bd b1a5 49bc
00000250: f865 0a3a 4fd5 373c 4187 92bc 9925 5fba
00000260: eb71 323b d165 053d a6a7 bb3b f32b f93b
00000270: f888 7c3c 19f5 9bbb 74b0 c0bc ec90 823d
00000280: a111 4fbc 870a 3a3d ed69 243b c29e 35bc
00000290: 4ff8 e3bc 0d09 e03c 53c4 08bd 6650 28bd
000002a0: 306a 75bc 49d0 20bc 8ef5 373c fd6a 3f3d
000002b0: 498c cd3c 9628 c4bc 8b92 35bc 846e f238
000002c0: ca0b 873c d087 383c 1ad1 013c c7b1 ca3c
000002d0: af6d 623c d687 c83c 95aa ebbb 0af9 a33c
000002e0: 7202 51bc aa04 bbbc 4695 46bd a48e 533d
000002f0: 750e 433c dd32 b83c 766f 853b adb8 b9bb
00000300: b20f c1bd 9ec6 48bd fc2f 2bbd 23b4 90bc
00000310: c0ea 68bc 54c6 93bd ca1f 7fbd 86fd e5bd
00000320: c1b2 1fbd 0148 11bc 52a3 d7bd a905 dabd
00000330: d768 1ebd b997 7cbd ee70 d039 c758 81bd
00000340: a65f 24bd 67fd a8bd 0237 a5bd 6746 58bd
00000350: 9d2e 2bbd 6156 bebd bc2c 7dbd 832f 9dbd
00000360: fb87 a7bd b815 2ebd 9758 bbbd 188d cdbd
00000370: 5215 b4bd f031 20bd 9c7c f9bb d600 d9bd
00000380: 9361 82bd 1b22 01be a28c 20bd 2792 16bd
00000390: 6a90 01be 2a90 55bd 3b82 b83b 652e d3bd
000003a0: 4912 58bd e98a 9dbd 912c 19bd f0c8 ccbd
000003b0: 664e bdbd 884c e8bc 36cc 63bd ad2f 9fbd
000003c0: 773f ecbd 40aa abbd 3366 c53b edfa 4dbd
000003d0: c28e b1bd 3887 c2bc 3b30 00be 93f5 7cbd
000003e0: 61dc 81bd 7ddd 90bd d940 c4bd 7944 b8bd
000003f0: 15ed 70bd faba 41bd 7a05 84bd 7d2d f4bc

lstm.weight_ih_l1 f4 [256, 64]
-0.04372479 -0.110418096 -0.18503241 -0.061501276 0.19759874 -0.09023012 0.03080935 -0.17825007
-0.1320247 -0.13026546 -0.2106491 0.17038213 -0.059527926 0.23887733 0.27293915 -0.050619893
0.06354655 0.15275162 0.11079971 0.09293271 -0.021649215 -0.061615244 -0.099697806 0.10521526
0.1325824 -0.07972615 -0.08950031 0.14862451 0.12098791 -0.07106242 -0.024046628 -0.115598656
-0.10586967 -0.09801865 -0.048416354 0.066831216 0.116092995 -0.022126662 0.017209807 -0.01824799
-0.01345019 0.055808995 0.053987462 -0.19885382 -0.05904855 -0.019335713 -0.0369008 0.030362338
0.06510588 0.04508069 -0.12734145 0.19429536 0.2186875 0.07395476 -0.014666918 0.21566935
0.17918512 -0.23395292 -0.24382398 -0.057829306 -0.15357368 0.17998278 -0.21217941 0.087617695
-0.029368838 0.09483413 -0.06404671 0.053868275 -0.04204934 -0.09381718 0.11496701 -0.20444545
-0.23811091 0.051537342 -0.15974292 0.08957111 -0.17432073 -0.18596189 0.14965233 -0.12687951
0.016302118 0.14048128 0.026754757 0.0871615 -0.15084267 -0.08782594 -0.06010381 -0.12878592
0.07743045 -0.09293675 -0.085296124 0.047461513 -0.0068800463 -0.32596737 0.036702666 -0.09016015
-0.1941157 -0.06525917 -0.061181743 0.10871395 0.07622368 0.103784524 -0.08784253 0.0011846727
-0.28704616 0.009644835 0.26866826 -0.0880927 -0.18119411 -0.09916887 -0.15246181 0.07306939
-0.088018276 0.19510077 -0.14476787 -0.058329273 0.072037324 0.15734813 -0.045481507 0.06540562
0.033229806 -0.025111856 0.11993578 -0.14512831 -0.07983525 0.1090085 -0.10357691 0.027507033
0.3182875 0.14223072 -0.0053456603 -0.011024522 -0.19861765 0.14104505 -0.2622937 0.1508192
-0.11529039 0.07072706 0.10126323 -0.11801165 0.1311371 -0.08877064 -0.24905998 0.06558799
0.14507812 -0.36741945 -0.15882285 -0.16569364 0.0008820893 0.19213742 0.028121257 -0.089363165
-0.13635741 0.19008963 0.10701018 0.019327851 0.07974018 0.023272462 -0.17557426 0.23345459
-0.19233583 0.26200885 0.093029395 -0.110042825 -0.13267198 0.083785765 -0.21451272 -0.18377748
-0.07361276 -0.09179007 -0.046041846 0.24920532 0.10460581 -0.24601126 0.05619765 -0.016335975
0.047849648 0.018340958 -0.07997462 -0.031383853 0.0746109 0.04829708 -0.10986982 0.073766485
-0.1368672 -0.004246086 -0.080488205 0.2540783 0.011859201 -0.025786314 0.11625596 -0.17656101
0.14169459 -0.060992803 -0.023862213 0.020035878 0.040512335 0.021673104 -0.0326877 0.08944114
0.052945778 -0.07025162 0.06804202 0.08917592 0.057495035 0.030767951 -0.023449525 0.009783408
0.017690873 -0.03121234 -0.11220351 0.0633454 -0.03133796 0.02438407 0.06570449 0.013584991
0.0006049603 0.17301439 -0.07480059 0.0899697 -0.056190956 0.18675473 -0.086566925 0.087993905
0.12180207 0.10019628 -0.010320244 0.037349056 -0.070949085 -0.13962153 -0.0028965382 -0.13442601
0.10826394 0.0035287328 0.030467447 0.032070287 0.039761733 -0.004124269 -0.014085435 0.0005658029
0.088247955 0.0810495 -0.057043437 -0.12254642 0.08974405 -0.07966569 0.024209075 0.06221537
0.07694872 -0.11427216 -0.02932216 -0.11998579 -0.08240998 0.039461263 0.063617714 0.06313768
00000000: c418 33bd e222 e2bd 2379 3dbe c3e8 7bbd
00000010: 5357 4a3e 92ca b8bd e463 fc3c 3087 36be
00000020: 7c31 07be 4f64 05be 66b4 57be a778 2e3e
00000030: 8ed3 73bd 429c 743e aebe 8b3e ce56 4fbd
00000040: b224 823d ec6a 1c3e f5ea e23d 8153 be3d
00000050: b259 b1bc 4460 7cbd 5d2e ccbd 197b d73d
00000060: aec3 073e 7747 a3bd f04b b7bd 0631 183e
00000070: 82c8 f73d 2d89 91bd 6ffd c4bc fdbe ecbd
00000080: 33d2 d8bd 01be c8bd 3a50 46bd cede 883d
00000090: 2ac2 ed3d f942 b5bc 95fb 8c3c cf7c 95bc
000000a0: 305e 5cbc f997 643d f521 5d3d 56a0 4bbe
000000b0: e4dc 71bd ee65 9ebc 4b25 17bd 70ba f83c
000000c0: 3b56 853d 88a6 383d cc65 02be 5df5 463e
000000d0: 9eef 5f3e 9875 973d 834d 70bc 6dd8 5c3e
000000e0: 4e7c 373e 5b91 6fbe feac 79be 6cde 6cbd
000000f0: 6b42 1dbe 684d 383e 8f45 59be e870 b33d
00000100: eb96 f0bc 6538 c23d ec2a 83bd fba4 5c3d
00000110: ee3b 2cbd 3923 c0bd d373 eb3d 265a 51be
00000120: 59d3 73be d218 533d a693 23be 0f71 b73d
00000130: 2281 32be cb6c 3ebe 763e 193e b4ec 01be
00000140: 058c 853c 53da 0f3e cb2c db3c ba81 b23d
00000150: 8076 1abe 16de b3bd 6a2f 76bd 75e0 03be
00000160: db93 9e3d 9f55 bebd bcaf aebd 0167 423d
00000170: 0372 e1bb 32e5 a6be 8955 163d e2a5 b8bd
00000180: 44c6 46be 9aa6 85bd b599 7abd 6ba5 de3d
00000190: 291b 9c3d fb8c d43d c9e6 b3bd 0547 9b3a
000001a0: b7f7 92be 5f05 1e3c e38e 893e f269 b4bd
000001b0: f38a 39be 0c19 cbbd f31e 1cbe 68a5 953d
000001c0: ed42 b4bd 7fc8 473e 073e 14be adea 6ebd
000001d0: 4e88 933d de1f 213e d14a 3abd 62f3 853d
000001e0: fa1b 083d 61b7 cdbc e4a0 f53d 849c 14be
000001f0: aa80 a3bd d93f df3d 2220 d4bd 6e56 e13c
00000200: 94f6 a23e eea4 113e a62a afbb 32a0 34bc
00000210: 6d62 4bbe 1d6e 103e 5c4b 86be 5970 1a3e
00000220: 5e1d ecbd 59d9 903d 1963 cf3d 18b0 f1bd
00000230: ce48 063e 62cd b5bd 9409 7fbe ff52 863d
00000240: 5c8f 143e 671e bcbe 75a2 22be 98ab 29be
00000250: 033c 673a acbf 443e 8d5e e63c 0904 b7bd
00000260: 47a1 0bbe dba6 423e 2728 db3d 7155 9e3c
00000270: d24e a33d e4a5 be3c bdc9 33be b80e 6f3e
00000280: aff3 44be 0626 863e 3286 be3d 225e e1bd
00000290: 2adb 07be df97 ab3d 39a9 5bbe 2a30 3cbe
000002a0: 49c2 96bd 6ffc bbbd 6096 3cbd ae2f 7f3e
000002b0: 923b d63d 60ea 7bbe 822f 663d 06d3 85bc
000002c0: fefd 433d c73f 963c bcc9 a3bd 5b8c 00bd
000002d0: 99cd 983d 29d3 453d 6e03 e1bd e212 973d
000002e0: ea26 0cbe c022 8bbb 00d7 a4bd 8d16 823e
000002f0: 184d 423c d23d d3bc 9b17 ee3d 69cc 34be
00000300: 6318 113e 97d3 79bd b07a c3bc 4822 a43c
00000310: 43f0 253d cb8b b13c 8ae3 05bd eb2c b73d
00000320: acdd 583d 15e0 8fbd 9d59 8b3d dda1 b63d
00000330: ea7f 6b3d 120d fc3c 3819 c0bc 964a 203c
00000340: 73ec 903c 05b1 ffbc f4ca e5bd 3cbb 813d
00000350: 3c5c 00bd 1ac1 c73c 1390 863d 9593 5e3c
00000360: 3396 1e3a af2a 313e 0d31 99bd 0942 b83d
00000370: 7d28 66bd a23c 3f3e 004a b1bd 2636 b43d
00000380: 5d73 f93d b533 cd3d 3e16 29bc 53fb 183d
00000390: c14d 91bd f2f8 0ebe d9d3 3dbb f9a6 09be
000003a0: 7cb9 dd3d 5042 673b de96 f93c 225c 033d
000003b0: 33dd 223d e024 87bb 99c6 66bc 6452 143a
000003c0: 58bb b43d 48fd a53d 61a6 69bd 9ef9 fabd
000003d0: bacb b73d c427 a3bd 1c52 c63c 8bd5 7e3d
000003e0: 4a97 9d3d 8607 eabd 0735 f0bc 1cbb f5bd
000003f0: 90c6 a8bd 22a2 213d 014a 823d 544e 813d

lstm.weight_hh_l1 f4 [256, 64]
-0.23171186 0.015599379 0.15615277 0.07482901 -0.08972169 -0.01903068 0.004507908 0.19494702
-0.11933421 0.04556648 0.10479558 0.14731556 0.22086245 -0.006041747 0.0987496 -0.12851045
-0.09048017 0.1651518 -0.022746159 0.13507707 -0.11461573 0.026856264 0.082190536 0.11175599
0.18452182 -0.069954164 0.029419474 -0.075912885 -0.16021952 -0.10559158 0.08279611 -0.048838682
0.01569966 0.097029954 0.013506804 -0.075881094 0.13087352 0.017578771 -0.03864818 0.1954633
0.05289641 0.14375998 0.044868253 -0.10437024 -0.021757912 -0.032703776 0.11934013 -0.07116152
0.0665179 0.0550643 0.023404978 -0.15979879 0.0112928385 -0.017933259 0.119485304 -0.027986368
0.010322796 -0.0174959 -0.2318326 -0.284543 0.19293104 0.15847215 0.10937458 -0.21761051
-0.008254857 -0.08571337 0.15404552 0.15964136 -0.20484424 -0.062196743 -0.23091458 -0.0403597
-0.1617155 0.14661339 0.071855605 0.13881615 -0.028129147 -0.05771723 0.07753321 -0.0063364687
-0.08978135 0.11954008 -0.16084768 0.18691553 0.12808214 0.09063161 0.11348371 0.035243
-0.03848307 0.10035172 0.14367107 -0.054490104 -0.2457498 -0.10084746 0.10919186 -0.050819214
0.017829623 -0.1124542 0.19830434 0.050099805 0.080188036 0.32106948 -0.14536661 0.1334707
0.069737405 0.16238467 -0.08017885 -0.089217424 -0.13345222 -0.11564124 0.08655833 -0.058650978
0.054333836 -0.014705237 0.029973578 -0.19710179 -0.09452207 -0.06426851 0.08376429 -0.0102374535
-0.026409525 0.030595649 0.014832712 -0.31634507 0.18940802 0.03503699 0.19525237 -0.01843413
-0.0072021703 0.06590138 -0.31493613 -0.16598533 0.09290952 0.22643843 0.20354131 -0.36591104
-0.018263642 -0.3222163 -0.23013547 -0.22958337 0.037231155 0.16853812 0.06425447 0.15260357
0.050533492 -0.3256453 0.41861805 -0.31095704 0.12949595 0.05640451 -0.1049282 -0.0015583218
-0.016732499 -0.3271415 -0.050711095 0.16414745 0.02897073 0.08547289 -0.13183565 0.100862026
0.09375949 -0.058455374 -0.14396368 -0.24908857 -0.4170138 -0.2631062 0.23731428 -0.41395238
-0.09274159 -0.062985 -0.03347542 0.31841257 0.26029393 -0.02506337 -0.1383909 0.049731586
-0.30439287 0.29652596 -0.13682728 0.16184384 0.2613963 0.16918418 -0.18990563 -0.2960776
0.06826458 -0.117002785 0.12532607 0.6003523 -0.0118565345 -0.028746732 -0.1181324 0.3325412
-0.030746056 0.10690296 0.09105866 -0.020879349 -0.043183982 -0.021447934 -0.040721737 -0.043591615
0.05426336 -0.085900374 -0.051674772 0.043450207 0.042677984 -0.033719055 -0.055012003 0.06014791
0.045191124 -0.0826175 -0.049654175 -0.087049454 -0.0024423648 0.01111178 0.08010368 0.033911332
0.023818197 -0.062344927 -0.049621284 0.12986413 -0.004676751 0.034481633 -0.013297591 0.07540393
-0.05111135 0.042073347 -0.045239985 0.02792501 0.07052188 0.07162523 0.06088995 -0.09199303
0.0715958 0.017372334 -0.017026365 0.024188 0.11338093 0.002335054 -0.049405433 0.115640335
-0.038336527 0.033744544 -0.046374183 0.084085815 0.06767855 -0.04791324 -0.10705012 -0.006937801
0.022802334 0.012063927 -0.008443304 0.026858853 -0.09063666 -0.1398926 -0.045908228 -0.08048419
00000000: e045 6dbe 8a94 7f3c 83e6 1f3e f43f 993d
00000010: 01c0 b7bd 3be6 9bbc 13b7 933b 31a0 473e
00000020: 7f65 f4bd eba3 3a3d 119f d63d e4d9 163e
00000030: c429 623e d9f9 c5bb 3b3d ca3d 3e98 03be
00000040: ab4d b9bd 8e1d 293e 2756 babc a551 0a3e
00000050: a7bb eabd ab01 dc3c 8353 a83d 53e0 e43d
00000060: 4af3 3c3e 2144 8fbd 1c01 f13c 3778 9bbd
00000070: 9610 24be 6640 d8bd 0291 a93d 120b 48bd
00000080: 939c 803c a4b7 c63d a44b 5d3c 8c67 9bbd
00000090: b503 063e 5b01 903c 8e4d 1ebd 8827 483e
000000a0: e8a9 583d d135 133e c6c7 373d 10c0 d5bd
000000b0: a63d b2bc 65f4 05bd 9968 f43d 22bd 91bd
000000c0: 893a 883d 1a8b 613d ccbb bf3c 4ba2 23be
000000d0: 9905 393c c5e8 92bc b6b4 f43d ab43 e5bc
000000e0: f220 293c 9053 8fbc 8665 6dbe 9faf 91be
000000f0: b78f 453e 8646 223e c8ff df3d 4ad5 5ebe
00000100: 613f 07bc 7e8a afbd 1cbe 1d3e 0679 233e
00000110: b0c2 51be 03c2 7ebd df74 6cbe 3650 25bd
00000120: bf98 25be d221 163e 0829 933d d225 0e3e
00000130: 196f e6bc e768 6cbd bbc9 9e3d 27a2 cfbb
00000140: 49df b7bd 6ed1 f43d 41b5 24be c966 3f3e
00000150: f727 033e 119d b93d 266a e83d f75a 103d
00000160: 6ca0 1dbd 3485 cd3d 821e 133e 0431 5fbd
00000170: d6a5 7bbe 1d89 cebd fb9f df3d cf27 50bd
00000180: 6e0f 923c 634e e6bd 4b10 4b3e 7435 4d3d
00000190: a039 a43d 3863 a43e fcda 14be 8bac 083e
000001a0: 7cd2 8e3d 2b48 263e cf34 a4bd a0b7 b6bd
000001b0: b3a7 08be 50d5 ecbd 7e45 b13d 023c 70bd
000001c0: 288d 5e3d 3cee 70bc 268b f53c 0dd5 49be
000001d0: c994 c1bd 359f 83bd 9d8c ab3d feba 27bc
000001e0: ca58 d8bc baa3 fa3c e704 733c fbf7 a1be
000001f0: 2df4 413e f282 0f3d 3df0 473e 2c03 97bc
00000200: 2f00 ecbb 4df7 863d 4f3f a1be 0ff8 29be
00000210: 5947 be3d 7adf 673e 226d 503e b158 bbbe
00000220: a29d 95bc 89f9 a4be a2a8 6bbe e717 6bbe
00000230: b27f 183d 4295 2c3e d997 833d 1c44 1c3e
00000240: 35fc 4e3d fbba a6be 1b55 d63e c335 9fbe
00000250: 969a 043e 6a08 673d 99e4 d6bd 9a40 ccba
00000260: 9812 89bc 177f a7be 70b6 4fbd 4516 283e
00000270: 0654 ed3c 690c af3d edff 06be c090 ce3d
00000280: fa04 c03d e76e 6fbd 376b 13be 1311 7fbe
00000290: d582 d5be dbb5 86be 8402 733e 91f1 d3be
000002a0: 4eef bdbd 48fe 80bd 861d 09bd f906 a33e
000002b0: 3f45 853e b251 cdbc 58b6 0dbe 59b3 4b3d
000002c0: 62d9 9bbe 40d2 973e 731c 0cbe 64ba 253e
000002d0: bcd5 853e 9e3e 2d3e 9f76 42be 7c97 97be
000002e0: 4dce 8b3d 289f efbd 7a55 003e b0b0 193f
000002f0: e941 42bc 447e ebbc 66ef f1bd d742 aa3e
00000300: 27df fbbc f0ef da3d f67c ba3d 2b0b abbc
00000310: b0e1 30bd 94b3 afbc d6cb 26bd 1f8d 32bd
00000320: 4243 5e3d 89ec afbd eda8 53bd d8f8 313d
00000330: 1ccf 2e3d fe1c 0abd 4454 61bd a85d 763d
00000340: 541a 393d 5d33 a9bd 2d62 4bbd fc46 b2bd
00000350: 1510 20bb 2f0e 363c 660d a43d 9ce6 0a3d
00000360: 611e c33c 655d 7fbd b03f 4bbd 1afb 043e
00000370: 6e3f 99bb 9d3c 0d3d 24de 59bc 606d 9a3d
00000380: 235a 51bd 1a55 2c3d 904d 39bd fec2 e43c
00000390: c76d 903d 40b0 923d bd67 793d d766 bcbd
000003a0: d2a0 923d 6d50 8e3c e07a 8bbc ea25 c63c
000003b0: 4334 e83d b507 193b 5a5d 4abd d7d4 ec3d
000003c0: c306 1dbd b837 0a3d dbf2 3dbd 2f35 ac3d
000003d0: 0d9b 8a3d ac40 44bd 183d dbbd 7e56 e3bb
000003e0: f6cb ba3c c7a7 453c c955 0abc 1907 dc3c
000003f0: b79f b9bd 0140 0fbe 440a 3cbd e5d4 a4bd

lstm.bias_ih_l1 f4 [256]
-0.09238121 -0.13569078 0.46724662 0.044179242 -0.09040265 -0.10586908 0.007830451 0.03735081
-0.16006939 0.02359921 0.028868867 0.010419119 0.01303292 -0.10117076 -0.06662558 -0.111339964
-0.11419471 0.021968585 0.12576191 0.18351261 -0.13833648 -0.10984318 0.08227045 -0.114377245
-0.106402904 -0.015634777 -0.08881424 -0.041453958 -0.12775491 -0.073489174 -0.12880887 -0.025835557
-0.13714415 -0.09762506 -0.11570163 -0.04738314 0.15087885 -0.056737684 -0.05073575 0.08068549
-0.1048659 -0.062002014 -0.07789053 0.102369234 -0.0468644 -0.076156005 -0.061744083 -0.100662045
-0.0549517 0.34035864 -0.082363 0.41782513 0.023999158 0.018744173 0.006002417 -0.07389581
-0.06419579 -0.01195278 -0.09280405 0.3850287 -0.028467584 0.046627752 -0.09578752 0.00789222
1.0250924 1.0624663 0.9982774 1.0403321 1.0248071 1.0421537 0.9865131 0.9879142
1.0871483 1.0050377 1.0044897 1.0593206 0.99311215 1.0094768 1.0382317 1.1124123
0.9933433 1.0162747 0.95009625 0.98097795 1.1140436 0.9496024 0.99602944 0.96571
1.0464205 1.0235267 1.1080055 0.97415423 1.0210727 0.9801048 1.0787588 0.9992718
1.0365719 0.952937 1.0694605 0.9658826 0.9021844 0.99391294 1.0032383 0.9426148
0.9784717 1.0465755 1.0241212 0.96857595 0.9912545 1.0235469 1.0576922 1.0574486
0.9744638 0.9559931 1.0806391 0.999299 1.0041829 0.9963781 1.0766635 0.8862608
0.94916683 1.0296161 1.0823 0.88755 1.019185 0.9877956 1.089801 1.0063566
-0.007393911 0.029458022 -0.11303917 -0.024894299 0.012888799 0.0645738 0.07803095 -0.1419331
0.021175902 -0.13747332 -0.15237439 -0.13308284 0.040629208 0.048283957 0.0902539 0.046563536
0.0057734754 -0.17241171 0.31007698 -0.26801723 0.013091409 0.05648429 -0.08111131 0.003682258
-0.00018425251 -0.11646072 -0.024443313 0.07570941 -0.0015263524 0.024417562 -0.03391447 0.039824303
0.031597827 -0.0287993 -0.051915847 -0.08489785 -0.24424069 -0.14507706 0.12784922 -0.21546875
-0.03675335 -0.044101883 -0.014238462 0.18656033 0.1416562 -0.032351337 -0.057295546 0.0038988013
-0.13520966 0.21040906 -0.058242843 0.08564036 0.16114232 0.054386247 -0.08486789 -0.14334974
0.04792312 -0.04894727 0.017145513 0.33036682 0.002395556 -0.060559608 -0.015712216 0.18531285
-0.029616259 -0.0122856265 0.028499903 0.027198628 -0.032490354 -0.08200837 -0.04168174 0.002911101
0.0087882355 0.020591356 0.011033779 0.02932546 -0.06293524 -0.03559897 0.022534996 0.017218227
-0.06988036 -0.009701522 0.022067647 0.017443547 0.022891378 -0.08978317 0.06148452 -0.09659305
-0.010568482 -0.010415496 0.058830783 -0.013429656 -0.017136484 -0.06904485 -0.03443832 -0.0057535134
-0.0989285 -0.09782056 -0.006854362 -0.045442168 -0.010342842 -0.039190657 -0.048081428 -0.03660646
-0.08614901 -0.0018668921 -0.04648444 -0.011427524 -0.05644892 -0.03509527 -0.016571399 -0.016274571
-0.058703974 0.033293996 0.040457085 -0.011937968 0.0054096435 -0.05251408 0.003323966 -0.08515346
-0.06270621 0.0018936893 0.017572539 0.032299925 -0.04302435 -0.048246324 0.019718211 -0.030410124
00000000: 5c32 bdbd 86f2 0abe f33a ef3e 4bf5 343d
00000010: 0625 b9bd e3d1 d8bd 4b4b 003c 2afd 183d
00000020: 3be9 23be 2153 c13c 677e ec3c f4b4 2a3c
00000030: 0788 553c 9e32 cfbd fe72 88bd 3506 e4bd
00000040: ebde e9bd 76f7 b33c bbc7 003e bbea 3b3e
00000050: 14a8 0dbe 76f5 e0bd 697d a83d 9e3e eabd
00000060: c4e9 d9bd 8114 80bc 3ee4 b5bd a0cb 29bd
00000070: 2fd2 02be 7e81 96bd 79e6 03be 17a5 d3bc
00000080: 846f 0cbe a6ef c7bd faf4 ecbd d314 42bd
00000090: fc7f 1a3e c665 68bd 4ad0 4fbd 6f3e a53d
000000a0: efc3 d6bd d3f5 7dbd 1285 9fbd f6a6 d13d
000000b0: e3f4 3fbd aef7 9bbd 5de7 7cbd e727 cebd
000000c0: 0915 61bd 7d43 ae3e efad a8bd 2ded d53e
000000d0: e299 c43c 618d 993c ecaf c43b b056 97bd
000000e0: 1579 83bd 98d5 43bc 0d10 bebd 7b22 c53e
000000f0: da34 e9bc befc 3e3d 3f2c c4bd 5f4e 013c
00000100: 3a36 833f e5fe 873f 1c8f 7f3f 9a29 853f
00000110: e12c 833f 4b65 853f 1f8c 7c3f f2e7 7c3f
00000120: ad27 8b3f 13a5 803f 1e93 803f d197 873f
00000130: 993c 7e3f 8936 813f c7e4 843f 8763 8e3f
00000140: bf4b 7e3f 4a15 823f 8239 733f 5f21 7b3f
00000150: fb98 8e3f 2519 733f c9fb 7e3f c538 773f
00000160: 1bf1 853f ec02 833f 20d3 8d3f 2c62 793f
00000170: 83b2 823f 26e8 7a3f c514 8a3f 47d0 7f3f
00000180: 63ae 843f aef3 733f 15e4 883f 1544 773f
00000190: 8ff5 663f 1471 7e3f 1d6a 803f 344f 713f
000001a0: 1f7d 7a3f 30f6 853f 6716 833f 98f4 773f
000001b0: dbc2 7d3f 9603 833f 7562 873f 7a5a 873f
000001c0: 7676 793f f7bb 743f 6252 8a3f 0fd2 7f3f
000001d0: 1189 803f a312 7f3f 1cd0 893f fde1 623f
000001e0: 99fc 723f 76ca 833f ce88 8a3f 7a36 633f
000001f0: a774 823f 2ce0 7c3f 997e 8b3f 4bd0 803f
00000200: 9f48 f2bb f351 f13c 1581 e7bd 21ef cbbc
00000210: 8b2b 533c 453f 843d b1ce 9f3d e956 11be
00000220: 1679 ad3c cec5 0cbe 0808 1cbe de46 08be
00000230: d06a 263d 66c5 453d 09d7 b83d 68b9 3e3d
00000240: 6c2f bd3b b28c 30be 69c2 9e3e 8e39 89be
00000250: 597d 563c 125c 673d b01d a6bd 0a52 713b
00000260: e833 41b9 f582 eebd 583d c8bc 890d 9b3d
00000270: e30f c8ba 5707 c83c e6e9 0abd cf1e 233d
00000280: b96c 013d 82ec ebbc b6a5 54bd edde adbd
00000290: 3b1a 7abe 158f 14be e8ea 023e d7a3 5cbe
000002a0: ae8a 16bd 2da4 34bd 7048 69bc ac09 3f3e
000002b0: 530e 113e d682 04bd bcae 6abd 0883 7f3b
000002c0: 6774 0abe 7975 573e 0c90 6ebd 3764 af3d
000002d0: 7e02 253e 1dc4 5e3d 37cf adbd 46ca 12be
000002e0: 094b 443d ef7c 48bd bf74 8c3c d725 a93e
000002f0: c3fe 1c3b 5a0d 78bd e8b6 80bc a7c2 3d3e
00000300: cc9d f2bc a749 49bc a178 e93c a8cf de3c
00000310: 9b14 05bd 01f4 a7bd 79ba 2abd 2cc8 3e3b
00000320: 88fc 0f3c 34af a83c 06c7 343c f23b f03c
00000330: 31e4 80bd 3ad0 11bd 509b b83c 3d0d 8d3c
00000340: 6f1d 8fbd 22f3 1ebc 36c7 b43c c5e5 8e3c
00000350: b386 bb3c 3de0 b7bd 31d7 7b3d 94d2 c5bd
00000360: 6d27 2dbc c2a5 2abc 8cf8 703d 0f08 5cbc
00000370: d061 8cbc 6367 8dbd 320f 0dbd f887 bcbb
00000380: 079b cabd 2556 c8bd 8e9a e0bb 9121 3abd
00000390: 0675 29bc 6286 20bd 08f1 44bd a8f0 15bd
000003a0: e46e b0bd 81b2 f4ba 7866 3ebd 823a 3bbc
000003b0: fc36 67bd 0fc0 0fbd bec0 87bc 4052 85bc
000003c0: 9473 70bd 495f 083d 54b6 253d 7897 43bc
000003d0: 6143 b13b 0119 57bd e5d6 593b f064 aebd
000003e0: 1d6c 80bd ab35 f83a 49f4 8f3c ed4c 043d
000003f0: 4d3a 30bd f09d 45bd 1688 a13c a71e f9bc

lstm.bias_hh_l1 f4 [256]
-0.09238121 -0.13569078 0.46724662 0.044179242 -0.09040265 -0.10586908 0.007830451 0.03735081
-0.16006939 0.02359921 0.028868867 0.010419119 0.01303292 -0.10117076 -0.06662558 -0.111339964
-0.11419471 0.021968585 0.12576191 0.18351261 -0.13833648 -0.10984318 0.08227045 -0.114377245
-0.106402904 -0.015634777 -0.08881424 -0.041453958 -0.12775491 -0.073489174 -0.12880887 -0.025835557
-0.13714415 -0.09762506 -0.11570163 -0.04738314 0.15087885 -0.056737684 -0.05073575 0.08068549
-0.1048659 -0.062002014 -0.07789053 0.102369234 -0.0468644 -0.076156005 -0.061744083 -0.100662045
-0.0549517 0.34035864 -0.082363 0.41782513 0.023999158 0.018744173 0.006002417 -0.07389581
-0.06419579 -0.01195278 -0.09280405 0.3850287 -0.028467584 0.046627752 -0.09578752 0.00789222
1.0250924 1.0624663 0.9982774 1.0403321 1.0248071 1.0421537 0.9865131 0.9879142
1.0871483 1.0050377 1.0044897 1.0593206 0.99311215 1.0094768 1.0382317 1.1124123
0.9933433 1.0162747 0.95009625 0.98097795 1.1140436 0.9496024 0.99602944 0.96571
1.0464205 1.0235267 1.1080055 0.97415423 1.0210727 0.9801048 1.0787588 0.9992718
1.0365719 0.952937 1.0694605 0.9658826 0.9021844 0.99391294 1.0032383 0.9426148
0.9784717 1.0465755 1.0241212 0.96857595 0.9912545 1.0235469 1.0576922 1.0574486
0.9744638 0.9559931 1.0806391 0.999299 1.0041829 0.9963781 1.0766635 0.8862608
0.94916683 1.0296161 1.0823 0.88755 1.019185 0.9877956 1.089801 1.0063566
-0.007393911 0.029458022 -0.11303917 -0.024894299 0.012888799 0.0645738 0.07803095 -0.1419331
0.021175902 -0.13747332 -0.15237439 -0.13308284 0.040629208 0.048283957 0.0902539 0.046563536
0.0057734754 -0.17241171 0.31007698 -0.26801723 0.013091409 0.05648429 -0.08111131 0.003682258
-0.00018425251 -0.11646072 -0.024443313 0.07570941 -0.0015263524 0.024417562 -0.03391447 0.039824303
0.031597827 -0.0287993 -0.051915847 -0.08489785 -0.24424069 -0.14507706 0.12784922 -0.21546875
-0.03675335 -0.044101883 -0.014238462 0.18656033 0.1416562 -0.032351337 -0.057295546 0.0038988013
-0.13520966 0.21040906 -0.058242843 0.08564036 0.16114232 0.054386247 -0.08486789 -0.14334974
0.04792312 -0.04894727 0.017145513 0.33036682 0.002395556 -0.060559608 -0.015712216 0.18531285
-0.029616259 -0.0122856265 0.028499903 0.027198628 -0.032490354 -0.08200837 -0.04168174 0.002911101
0.0087882355 0.020591356 0.011033779 0.02932546 -0.06293524 -0.03559897 0.022534996 0.017218227
-0.06988036 -0.009701522 0.022067647 0.017443547 0.022891378 -0.08978317 0.06148452 -0.09659305
-0.010568482 -0.010415496 0.058830783 -0.013429656 -0.017136484 -0.06904485 -0.03443832 -0.0057535134
-0.0989285 -0.09782056 -0.006854362 -0.045442168 -0.010342842 -0.039190657 -0.048081428 -0.03660646
-0.08614901 -0.0018668921 -0.04648444 -0.011427524 -0.05644892 -0.03509527 -0.016571399 -0.016274571
-0.058703974 0.033293996 0.040457085 -0.011937968 0.0054096435 -0.05251408 0.003323966 -0.08515346
-0.06270621 0.0018936893 0.017572539 0.032299925 -0.04302435 -0.048246324 0.019718211 -0.030410124
00000000: 5c32 bdbd 86f2 0abe f33a ef3e 4bf5 343d
00000010: 0625 b9bd e3d1 d8bd 4b4b 003c 2afd 183d
00000020: 3be9 23be 2153 c13c 677e ec3c f4b4 2a3c
00000030: 0788 553c 9e32 cfbd fe72 88bd 3506 e4bd
00000040: ebde e9bd 76f7 b33c bbc7 003e bbea 3b3e
00000050: 14a8 0dbe 76f5 e0bd 697d a83d 9e3e eabd
00000060: c4e9 d9bd 8114 80bc 3ee4 b5bd a0cb 29bd
00000070: 2fd2 02be 7e81 96bd 79e6 03be 17a5 d3bc
00000080: 846f 0cbe a6ef c7bd faf4 ecbd d314 42bd
00000090: fc7f 1a3e c665 68bd 4ad0 4fbd 6f3e a53d
000000a0: efc3 d6bd d3f5 7dbd 1285 9fbd f6a6 d13d
000000b0: e3f4 3fbd aef7 9bbd 5de7 7cbd e727 cebd
000000c0: 0915 61bd 7d43 ae3e efad a8bd 2ded d53e
000000d0: e299 c43c 618d 993c ecaf c43b b056 97bd
000000e0: 1579 83bd 98d5 43bc 0d10 bebd 7b22 c53e
000000f0: da34 e9bc befc 3e3d 3f2c c4bd 5f4e 013c
00000100: 3a36 833f e5fe 873f 1c8f 7f3f 9a29 853f
00000110: e12c 833f 4b65 853f 1f8c 7c3f f2e7 7c3f
00000120: ad27 8b3f 13a5 803f 1e93 803f d197 873f
00000130: 993c 7e3f 8936 813f c7e4 843f 8763 8e3f
00000140: bf4b 7e3f 4a15 823f 8239 733f 5f21 7b3f
00000150: fb98 8e3f 2519 733f c9fb 7e3f c538 773f
00000160: 1bf1 853f ec02 833f 20d3 8d3f 2c62 793f
00000170: 83b2 823f 26e8 7a3f c514 8a3f 47d0 7f3f
00000180: 63ae 843f aef3 733f 15e4 883f 1544 773f
00000190: 8ff5 663f 1471 7e3f 1d6a 803f 344f 713f
000001a0: 1f7d 7a3f 30f6 853f 6716 833f 98f4 773f
000001b0: dbc2 7d3f 9603 833f 7562 873f 7a5a 873f
000001c0: 7676 793f f7bb 743f 6252 8a3f 0fd2 7f3f
000001d0: 1189 803f a312 7f3f 1cd0 893f fde1 623f
000001e0: 99fc 723f 76ca 833f ce88 8a3f 7a36 633f
000001f0: a774 823f 2ce0 7c3f 997e 8b3f 4bd0 803f
00000200: 9f48 f2bb f351 f13c 1581 e7bd 21ef cbbc
00000210: 8b2b 533c 453f 843d b1ce 9f3d e956 11be
00000220: 1679 ad3c cec5 0cbe 0808 1cbe de46 08be
00000230: d06a 263d 66c5 453d 09d7 b83d 68b9 3e3d
00000240: 6c2f bd3b b28c 30be 69c2 9e3e 8e39 89be
00000250: 597d 563c 125c 673d b01d a6bd 0a52 713b
00000260: e833 41b9 f582 eebd 583d c8bc 890d 9b3d
00000270: e30f c8ba 5707 c83c e6e9 0abd cf1e 233d
00000280: b96c 013d 82ec ebbc b6a5 54bd edde adbd
00000290: 3b1a 7abe 158f 14be e8ea 023e d7a3 5cbe
000002a0: ae8a 16bd 2da4 34bd 7048 69bc ac09 3f3e
000002b0: 530e 113e d682 04bd bcae 6abd 0883 7f3b
000002c0: 6774 0abe 7975 573e 0c90 6ebd 3764 af3d
000002d0: 7e02 253e 1dc4 5e3d 37cf adbd 46ca 12be
000002e0: 094b 443d ef7c 48bd bf74 8c3c d725 a93e
000002f0: c3fe 1c3b 5a0d 78bd e8b6 80bc a7c2 3d3e
00000300: cc9d f2bc a749 49bc a178 e93c a8cf de3c
00000310: 9b14 05bd 01f4 a7bd 79ba 2abd 2cc8 3e3b
00000320: 88fc 0f3c 34af a83c 06c7 343c f23b f03c
00000330: 31e4 80bd 3ad0 11bd 509b b83c 3d0d 8d3c
00000340: 6f1d 8fbd 22f3 1ebc 36c7 b43c c5e5 8e3c
00000350: b386 bb3c 3de0 b7bd 31d7 7b3d 94d2 c5bd
00000360: 6d27 2dbc c2a5 2abc 8cf8 703d 0f08 5cbc
00000370: d061 8cbc 6367 8dbd 320f 0dbd f887 bcbb
00000380: 079b cabd 2556 c8bd 8e9a e0bb 9121 3abd
00000390: 0675 29bc 6286 20bd 08f1 44bd a8f0 15bd
000003a0: e46e b0bd 81b2 f4ba 7866 3ebd 823a 3bbc
000003b0: fc36 67bd 0fc0 0fbd bec0 87bc 4052 85bc
000003c0: 9473 70bd 495f 083d 54b6 253d 7897 43bc
000003d0: 6143 b13b 0119 57bd e5d6 593b f064 aebd
000003e0: 1d6c 80bd ab35 f83a 49f4 8f3c ed4c 043d
000003f0: 4d3a 30bd f09d 45bd 1688 a13c a71e f9bc
