Model/weights/model_test_56811_9_best.pt (torch, 853562 bytes, 15 tensors)

lstm.weight_ih_l0 f4 [512, 4]
-0.18237135 -0.043455634 0.20017403 -0.11072614 0.06686031 -0.077440515 -0.04381107 -0.10120124
0.084227264 0.001694425 -0.02536033 -0.27528867 0.063919574 -0.049459044 -0.04135442 -0.027463926
-0.037767287 -0.11695216 -0.049874697 0.09161141 0.07620468 0.0362266 -0.016965382 0.059491847
-0.0026093912 0.019613704 -0.060834218 -0.10938492 0.1903265 0.016682463 -0.0632696 0.08646524
-0.049959023 -0.12852703 -0.04311005 0.07361175 0.22298509 -0.106761664 -0.085566156 -0.0529544
-0.041002866 0.14298803 -0.0080272565 -0.015102558 -0.064653955 -0.11726683 -0.06862122 -0.15880702
0.11629721 -0.038144205 -0.050659686 0.17015204 -0.020197289 -0.07902836 -0.022072177 0.05077932
0.08196058 -0.14235553 0.045961466 -0.13217863 -0.06799037 0.016216652 -0.023223832 -0.11542065
-0.059774157 -0.024949048 -0.06326174 -0.16699694 0.018772382 -0.0125533985 -0.0073818685 -0.15734729
-0.1304768 0.028256623 0.05238796 -0.21761338 0.12110532 0.017736064 -0.07637366 0.016685719
0.062438905 -0.06318799 -0.008569611 -0.17068125 0.0013803394 0.038033735 0.011418524 -0.052357435
-0.07599931 0.039607037 -0.040821984 0.068926305 -0.1461286 0.13443226 0.13524418 0.04840793
0.07329541 0.09684127 -0.04904347 0.07190502 -0.05609724 0.012180407 -0.03715796 -0.0031391478
0.0789128 0.042478234 -0.15471373 0.11823497 -0.08888401 0.023914676 -0.0849016 0.17236945
-0.023235159 -0.047777455 -0.08248065 -0.047741763 0.0036756846 -0.043789286 0.018244999 0.18368846
-0.11276182 -0.05226602 -0.048093818 0.02715013 -0.0018571796 0.048376 0.033813525 -0.0816503
-0.24728175 0.00050232455 -0.008991111 0.021739453 -0.050527066 0.08568981 0.03941028 0.07053001
0.023922 0.052309047 0.12580447 -0.09329869 0.1308273 -0.10139605 0.06823442 0.099267185
-0.03168525 0.059986357 -0.040296562 0.05401374 -0.073056996 0.028347561 -0.10571014 0.09964518
-0.12716925 -0.028320203 -0.028633844 -0.1100731 0.058880605 0.06204537 -0.17357002 -0.0028591764
0.027443327 -0.031507324 -0.1460093 0.13406323 -0.05505349 -0.060440216 -0.18058869 0.01898434
-0.049468394 -0.0011676896 0.054451745 -0.017970866 0.03833485 0.06076486 -0.035696924 -0.033238184
-0.016979214 -0.13032167 -0.04262715 0.11591313 -0.02684617 0.00032780058 -0.01804949 0.07293419
-0.050806005 0.008290339 0.0074391207 0.12159827 -0.0016914513 0.009089649 -0.05316342 0.045444533
0.10181071 -0.054122034 -0.17336287 -0.008214617 0.15343176 -0.023071859 -0.08116652 -0.026003882
-0.05599241 -0.018161915 0.05387734 0.05759941 0.021953871 -0.007721008 0.038640097 -0.10662986
-0.10981034 -0.09554524 -0.12469794 0.1691681 -0.11602078 0.03637338 -0.16119066 -0.03769497
-0.04910434 0.048331797 0.05741164 -0.09028397 -0.17272319 -0.046972673 -0.17292559 -0.007225994
-0.008276496 0.021742411 -0.03586941 0.059125405 -0.07132973 0.017349618 0.056136996 -0.16953455
0.061253563 0.035178993 0.074571066 0.0062300125 -0.04760494 -0.041827552 -0.039383363 -0.17957559
-0.022520114 0.12668434 -0.16544902 0.30609956 0.016165618 0.05588953 0.095331 -0.115759104
0.022879792 0.027525637 -0.023627749 -0.08529688 -0.12236741 0.0021259752 -0.0043264297 0.024049804
00000000: 8ebf 3abe 89fe 31bd 6cfa 4c3e 63c4 e2bd
00000010: 0fee 883d 2299 9ebd 3d73 33bd 9942 cfbd
00000020: 587f ac3d 7817 de3a 77c0 cfbc a3f2 8cbe
00000030: 44e8 823d 9195 4abd 4163 29bd 07fc e0bc
00000040: dfb1 1abd 9d84 efbd 6949 4cbd c39e bb3d
00000050: 3311 9c3d 5862 143d fcfa 8abc b9ad 733d
00000060: 5202 2bbb ebac a03c 4d2d 79bd 3305 e0bd
00000070: f3e4 423e a9a9 883c 7e93 81bd b014 b13d
00000080: d5a1 4cbd 979c 03be 2a94 30bd c2c1 963d
00000090: 3456 643e dca5 dabd 4f3d afbd b7e6 58bd
000000a0: 9ff2 27bd 746b 123e c184 03bc b870 77bc
000000b0: 4b69 84bd 9729 f0bd 4889 8cbd 4f9e 22be
000000c0: 3b2d ee3d 193d 1cbd 8880 4fbd 563c 2e3e
000000d0: c974 a5bc 9fd9 a1bd b6d0 b4bc fafd 4f3d
000000e0: f3da a73d a6c5 11be 1742 3c3d d659 07be
000000f0: 893e 8bbd c9d8 843c e83f bebc a961 ecbd
00000100: bfd5 74bd f261 ccbc 5f8f 81bd 3f01 2bbe
00000110: 8ac8 993c c5ac 4dbc 9ae3 f1bb a61f 21be
00000120: b69b 05be 6f7a e73c c294 563d 0bd6 5ebe
00000130: 1106 f83d 394b 913c cb69 9cbd 7db0 883c
00000140: f0bf 7f3d b468 81bd 8e67 0cbc 11c7 2ebe
00000150: 81ec b43a 43c9 1b3d c314 3b3c c074 56bd
00000160: 87a5 9bbd fd3a 223d f434 27bd 3c29 8d3d
00000170: bca2 15be 9ca8 093e 737d 0a3e 6547 463d
00000180: e71b 963d b754 c63d cee1 48bd f042 933d
00000190: 38c6 65bd 5490 473c f232 18bd 29ba 4dbb
000001a0: 099d a13d a8fd 2d3d 476d 1ebe 2d25 f23d
000001b0: d208 b6bd b6e8 c33c e4e0 adbd 9e81 303e
000001c0: a957 bebc 4bb2 43bd 9deb a8bd de8c 43bd
000001d0: c1e3 703b 655c 33bd 8976 953c d418 3c3e
000001e0: abef e6bd e514 56bd 06fe 44bd f369 de3c
000001f0: 9b6c f3ba ea25 463d 0d80 0a3d 4638 a7bd
00000200: 6d37 7dbe 6eae 033a 744f 13bc f016 b23c
00000210: 78f5 4ebd 247e af3d ac6c 213d 0a72 903d
00000220: 12f8 c33c 0342 563d e3d2 003e 6213 bfbd
00000230: 97f7 053e bba8 cfbd 7dbe 8b3d 984c cb3d
00000240: 65c8 01bd 41b4 753d 020e 25bd 833d 5d3d
00000250: e89e 95bd 2539 e83c 8f7e d8bd c612 cc3d
00000260: a838 02be c5ff e7bc 8691 eabc 016e e1bd
00000270: ca2c 713d 4923 7e3d 57bc 31be 0561 3bbb
00000280: d4d0 e03c d30d 01bd 7683 15be df47 093e
00000290: c57f 61bd 2990 77bd 3eec 38be 0c85 9b3c
000002a0: 5f9f 4abd 290d 99ba cb08 5f3d a337 93bc
000002b0: 0105 1d3d 93e4 783d f036 12bd c324 08bd
000002c0: fe17 8bbc 0b73 05be ce99 2ebd dd63 ed3d
000002d0: 80ec dbbc a6dc ab39 86dc 93bc 855e 953d
000002e0: f519 50bd 34d4 073c dec3 f33b 8408 f93d
000002f0: b0b3 ddba c0ec 143c e3c1 59bd 0c24 3a3d
00000300: 2282 d03d 11af 5dbd 0986 31be 9a96 06bc
00000310: 371d 1d3e 3201 bdbc a23a a6bd 1806 d5bc
00000320: 4c58 65bd 4cc8 94bc 7cae 5c3d 5ced 6b3d
00000330: 9bd8 b33c 8200 fdbb 1445 1e3d c260 dabd
00000340: 3ee4 e0bd 39ad c3bd a261 ffbd 673a 2d3e
00000350: 4d9c edbd 41fc 143d 2a0f 25be 0a66 1abd
00000360: a221 49bd 90f7 453d 7828 6b3d cde6 b8bd
00000370: 59de 30be 6b66 40bd 6813 31be 08c8 ecbb
00000380: 249a 07bc 241d b23c cdeb 12bd 7b2d 723d
00000390: 5215 92bd c920 8e3c e8ef 653d 779a 2dbe
000003a0: 04e5 7a3d d917 103d b7b8 983d 2225 cc3b
000003b0: 66fd 42bd 5e53 2bbd 7350 21bd aae2 37be
000003c0: 1a7c b8bc 8ab9 013e 786b 29be 15b9 9c3e
000003d0: c26d 843c 6bec 643d e63c c33d 1c13 edbd
000003e0: 676e bb3c 727d e13c fb8e c1bc 21b0 aebd
000003f0: c49b fabd f253 0b3b b9c4 8dbb 1804 c53c

lstm.weight_hh_l0 f4 [512, 128]
-0.069044605 -0.05004786 0.11030996 0.11686548 0.08992462 0.078162774 0.006575155 -0.13020904
0.23325665 0.083596036 -0.053889655 0.04907623 0.052569367 0.061192505 -0.12825887 -0.13232908
0.10041142 -0.016467508 0.0422449 0.045891285 -0.12489065 -0.06098388 0.07264133 -0.015126638
0.091354795 -0.058257837 0.028562352 -0.025864098 0.014529257 0.021156399 0.048138186 -0.074870765
-0.022928707 0.07278 0.08468654 -0.0824067 0.047191717 0.09436364 -0.034956835 -0.06633492
-0.08405201 -0.039106477 0.100815065 -0.11104528 0.07551131 0.01009587 -0.040398058 -0.023656342
-0.00995431 -0.029538628 0.07764697 0.014259264 -0.098711334 -0.028413996 0.024849128 -0.04079723
0.07618231 0.041802607 0.09357887 -0.04343083 0.08854339 0.060176887 -0.12287775 0.050265882
0.0370927 -0.050355405 -0.046132226 0.14743347 0.0050035757 -0.13711555 0.12282714 -0.11507417
-0.051547535 -0.08424966 -0.079395145 0.019587798 -0.1484353 -0.013248979 0.065182164 0.10525387
0.07548321 0.095699154 0.062065348 -0.08456764 0.09770841 -0.039097875 -0.022619007 0.00078175764
-0.090164736 0.07223077 0.18712683 -0.12980722 -0.072921336 -0.10039756 -0.08617959 0.021480164
0.16875194 0.10066913 0.019633148 0.026440855 -0.048379745 -0.0518074 0.05437865 0.09792838
0.005066583 -0.0497803 -0.058259945 -0.08466076 0.12942994 -0.10964087 0.05824711 0.043621853
-0.062405515 -0.08545075 -0.15284865 -0.14633712 -0.05336702 0.09578007 0.0009803975 -0.04437172
-0.09751622 0.06487446 -0.011762755 0.07999375 0.14204171 0.055763427 -0.0047515924 -0.06420186
-0.059607305 0.024155721 -0.101349704 -0.09454283 -0.037638105 -0.06372527 -0.019108178 0.059925087
-0.092850305 -0.08451307 0.045515772 0.07066998 0.026504274 -0.010826776 0.08564431 0.07853423
0.060577817 0.013581619 -0.06093135 0.013477286 0.021502724 0.017950483 0.0074560167 -0.08912295
-0.046745114 0.06516235 -0.08998365 0.06636658 -0.12787493 -0.04196646 0.10770354 0.019829512
-0.027366925 -0.021075185 -0.057019275 0.07847288 -0.02025161 0.11031256 0.0971134 0.07224855
0.19026677 -0.0391034 -0.08599534 0.1395142 -0.13007572 -0.011846202 0.025206437 0.0040353686
0.030836424 0.03474317 -0.111753926 -0.079954475 -0.021141784 0.062456045 0.0011322174 0.047673095
-0.011788694 -0.024770334 -0.10485103 -0.0076809637 -0.057344988 0.0075204065 0.03235255 -0.013430738
-0.017947853 0.037069187 0.018812485 0.015984949 0.008643633 -0.018736117 -0.046401903 -0.013172601
0.075540595 0.14708783 0.04955706 -0.069023445 0.06264424 -0.1017278 -0.12746523 -0.078878425
-0.14829825 -0.08048509 -0.08003256 0.03356844 -0.01827269 -0.0008016694 0.052621935 0.033894103
-0.0388952 0.16184962 -0.071386695 0.057520002 0.110354014 -0.022338638 0.11427556 -0.06353746
-0.054391526 0.09707043 -0.034485046 0.08667534 -0.04468287 -0.13057709 -0.10368036 -0.15634598
-0.07037099 0.118803844 0.09754079 -0.04234688 -0.09794502 0.1397283 -0.05451002 0.03982014
0.10909429 -0.062434826 0.0333085 0.1623209 -0.17307463 -0.03733859 -0.027513975 -0.0064760447
0.04793137 0.05036576 -0.10710859 -0.1422952 -0.15068822 0.065038115 -0.031173294 0.048822086
00000000: 4267 8dbd fcfe 4cbd 30ea e13d 2b57 ef3d
00000010: 662a b83d ce13 a03d 6674 d73b 8555 05be
00000020: d5da 6e3e 6634 ab3d 66bb 5cbd 2804 493d
00000030: fa52 573d fea4 7a3d 4b56 03be 4681 07be
00000040: 81a4 cd3d dee6 86bc fd08 2d3d 80f8 3b3d
00000050: abc6 ffbd 3cca 79bd fac4 943d b8d5 77bc
00000060: 3918 bb3d c59f 6ebd 98fb e93c f2e0 d3bc
00000070: 1f0c 6e3c 2f50 ad3c 8c2c 453d d855 99bd
00000080: fcd4 bbbc ae0d 953d 2370 ad3d d8c4 a8bd
00000090: 1a4c 413d b941 c13d e62e 0fbd 9ada 87bd
000000a0: 7623 acbd 1d2e 20bd 2178 ce3d b56b e3bd
000000b0: aca5 9a3d 2669 253c 6f78 25bd f2ca c1bc
000000c0: 6717 23bc fefa f1bc 6005 9f3d b09f 693c
000000d0: 2b29 cabd 78c4 e8bc 6690 cb3c ff1a 27bd
000000e0: 7905 9c3d 3639 2b3d 47a6 bf3d 87e4 31bd
000000f0: 3d56 b53d 0a7c 763d 54a7 fbbd 99e3 4d3d
00000100: 84ee 173d 7841 4ebd 25f5 3cbd cdf8 163e
00000110: 09f5 a33b 0568 0cbe cc8c fb3d 02ac ebbd
00000120: 8223 53bd 168b acbd ec99 a2bd 9776 a03c
00000130: 6cff 17be 3f12 59bc 3a7e 853d 578f d73d
00000140: f196 9a3d ebfd c33d 3c38 7e3d cd31 adbd
00000150: 591b c83d 1825 20bd 7f4b b9bc deee 4c3a
00000160: 4aa8 b8bd baed 933d 2d9e 3f3e 2fec 04be
00000170: c857 95bd 3c9d cdbd ed7e b0bd 2bf7 af3c
00000180: 4fcd 2c3e 9e2b ce3d b2d5 a03c 7e9a d83c
00000190: d729 46bd ff33 54bd 26bc 5e3d ad8e c83d
000001a0: 9405 a63b 6ee6 4bbd fba1 6ebd 9f62 adbd
000001b0: 4889 043e 648b e0bd 8694 6e3d d4ac 323d
000001c0: ed9c 7fbd ce00 afbd 5b84 1cbe 66d9 15be
000001d0: 6097 5abd 5728 c43d ae80 803a 1fbf 35bd
000001e0: 95b6 c7bd e7dc 843d 92b8 40bc c3d3 a33d
000001f0: 6273 113e 3168 643d 3fb3 9bbb 447c 83bd
00000200: ca26 74bd 38e2 c53c 6f90 cfbd ac9f c1bd
00000210: 6a2a 1abd 6582 82bd c188 9cbc 0274 753d
00000220: 4d28 bebd 3015 adbd bf6e 3a3d 6cbb 903d
00000230: 7e1f d93c ca62 31bc 4966 af3d 8ed6 a03d
00000240: 7220 783d 7085 5e3c 2793 79bd d6cf 5c3c
00000250: 7b26 b03c e40c 933c 9a51 f43b 1886 b6bd
00000260: ce77 3fbd d773 853d 5949 b8bd 34eb 873d
00000270: a5f1 02be 06e5 2bbd ac93 dc3d 8071 a23c
00000280: 9a30 e0bc dea5 acbc 0b8d 69bd 64b6 a03d
00000290: b4e6 a5bc 8deb e13d 64e3 c63d 0cf7 933d
000002a0: 4bd5 423e e32a 20bd 531e b0bd cfdc 0e3e
000002b0: 9232 05be 9316 42bc bb7d ce3c 203b 843b
000002c0: ab9c fc3c db4e 0e3d 3edf e4bd 2cbf a3bd
000002d0: 8931 adbc e9d1 7f3d e966 943a dd44 433d
000002e0: 5e25 41bc 28eb cabc 23bc d6bd 98b0 fbbb
000002f0: 94e2 6abd be6d f63b 1c84 043d 990c 5cbc
00000300: 6007 93bc dcd5 173d a41c 9a3c def2 823c
00000310: 069e 0d3c 7c7c 99bc ec0f 3ebd e5d1 57bc
00000320: 07b5 9a3d 319e 163e 58fc 4a3d 2a5c 8dbd
00000330: a04b 803d aa56 d0bd 3f86 02be 038b a1bd
00000340: 7fdb 17be 5ed5 a4bd 1ce8 a3bd 0f7f 093d
00000350: 9cb0 95bc 1f27 52ba 198a 573d 8bd4 0a3d
00000360: 9350 1fbd e8bb 253e 3033 92bd 189a 6b3d
00000370: 4901 e23d 85ff b6bc 4e09 ea3d ee1f 82bd
00000380: a6c9 5ebd ddcc c63d 3140 0dbd d782 b13d
00000390: 6305 37bd 00b6 05be 5e56 d4bd 2919 20be
000003a0: aa1e 90bd 6e4f f33d 77c3 c73d ec73 2dbd
000003b0: 6697 c8bd ef14 0f3e e645 5fbd 711a 233d
000003c0: d46c df3d a9bb 7fbd 7e6e 083d 7337 263e
000003d0: 7a3a 31be 59f0 18bd fd64 e1bc 0035 d4bb
000003e0: af53 443d 544c 4e3d c05b dbbd d5b5 11be
000003f0: 034e 1abe b432 853d 235f ffbc abf9 473d

lstm.bias_ih_l0 f4 [512]
0.05630409 -0.048893694 0.0032443434 0.029754862 -0.023987494 0.06595894 -0.054851633 0.030431196
0.003933209 0.1512479 0.09505631 -0.052646182 -0.01665539 0.039103273 0.004734932 0.00017395566
-0.010280928 -0.032927554 -0.049416214 0.058647923 -0.00792628 0.04784757 -0.080458075 0.05952587
0.004284134 0.033321362 -0.0058313143 -0.04551741 -0.03334821 0.015942847 -0.07510468 -0.007947717
-0.018630188 -0.015853541 0.017140629 0.023089858 -0.02988356 -0.017596083 -0.053607713 0.07718295
0.028728746 -0.05889007 0.027690442 0.03594774 0.002779482 -0.029200997 0.007814772 -0.020574352
-0.075157605 0.07517265 0.04421776 0.060407147 -0.04526551 -0.073633 0.009263243 -0.0601246
-0.0663672 -0.0073018605 0.035571903 -0.055471823 -0.023887914 -0.041334383 0.0053971447 -0.0069026737
-0.03581977 -0.056559753 -0.048880078 -0.032178555 -0.028942712 0.022514326 0.07837536 0.00826705
0.04802 0.06799354 -0.06278485 0.07483452 -0.018914664 0.0034214957 0.028511705 0.033133328
0.0048353104 0.019909568 -0.027920263 0.018616898 0.112437986 -0.034731038 0.081594415 -0.011005951
0.15392812 -0.013701035 -0.0047022663 0.017671445 0.04252676 0.023295892 0.023619112 -0.0021029147
0.016732698 0.008025477 -0.02607237 -0.0063365614 -0.06084291 -0.034433376 -0.02352604 -0.008108828
0.0019354156 -0.042698715 0.038869064 -0.06617025 0.023739172 0.0045415857 0.0026956918 -0.032325853
0.059587855 -0.025383875 0.12513325 -0.024085762 0.018744921 -0.018327948 -0.024192894 0.003397196
0.020776745 0.027950747 0.056119256 -0.00374164 0.04833252 -0.0039419853 0.108281426 -0.018981202
0.92050445 0.94126356 0.9677737 0.98447305 0.947269 1.0172638 0.9246431 0.97811997
0.9665841 1.0017407 0.9126244 0.9313144 0.9739966 0.999413 0.9626196 0.98868716
0.94067925 0.94312596 0.9444653 1.0046979 0.9638401 1.014987 0.9166138 0.9610958
0.9636969 0.95873594 0.97364855 0.94221133 0.9514888 0.9792965 0.91808 0.96208745
0.9592358 0.98658085 1.0039419 0.9987245 0.94972485 0.93023694 0.93244404 1.0378997
0.96387196 0.9353509 0.9584023 1.0236132 0.99785537 0.93729573 0.9321308 0.9440487
0.9086611 0.9863671 0.9780862 0.9284941 0.9549908 0.9078943 0.9956692 0.9289598
0.91744137 0.9590002 1.0024508 0.92420447 0.9441959 0.93900836 0.9694407 0.95880234
0.9567564 0.9310736 0.93015325 0.932023 0.9122011 0.97803575 1.0040454 0.91792643
0.98568434 1.0003632 0.93737924 1.0238441 0.9423968 0.94641703 0.9704835 0.96940774
0.97646016 1.0057894 0.92630744 0.97504395 1.0239372 0.9329528 1.038078 0.9752122
1.0553341 0.9506564 0.9503404 0.9991062 1.0043291 0.99423057 0.96535903 0.9722683
0.92375815 0.99283844 0.9446359 0.97360015 0.91860354 0.91855466 0.9215972 0.94526994
0.9827054 0.945834 0.940288 0.9289639 1.0079442 0.9837452 0.9720871 0.956182
1.0276574 0.92513394 0.9401993 0.98127943 1.0072298 0.9704068 0.9725086 0.9324779
0.9367738 1.010575 0.985879 0.94563115 0.98908496 0.9631899 0.99085456 0.96330297
00000000: 1e9f 663d c144 48bd 0d9f 543b 78c0 f33c
00000010: 6c81 c4bc 7b15 873d 1bac 60bd d84a f93c
00000020: 26e2 803b bbe0 1a3e e2ac c23d 86a3 57bd
00000030: e270 88bc c12a 203d 7d27 9b3b de67 3639
00000040: 5671 28bc 0bdf 06bd a868 4abd ce38 703d
00000050: 3add 01bc d0fb 433d 34c7 a4bd 66d1 733d
00000060: ec61 8c3b fb7b 083d 9c14 bfbb 7770 3abd
00000070: 2298 08bd 939a 823c 7cd0 99bd 2437 02bc
00000080: 569e 98bc 49df 81bc 816a 8c3c f126 bd3c
00000090: 5ece f4bc a925 90bc c393 5bbd 1812 9e3d
000000a0: 8c58 eb3c b736 71bd 11d7 e23c f03d 133d
000000b0: f827 363b ee36 efbc 8809 003c 8b8b a8bc
000000c0: 3bec 99bd 1ef4 993d af1d 353d 7c6d 773d
000000d0: 5468 39bd e6cc 96bd dbc4 173c 3645 76bd
000000e0: 87eb 87bd 7244 efbb d8b3 113d 6c36 63bd
000000f0: 96b0 c3bc 3e4e 29bd 88da b03b d32f e2bb
00000100: c0b7 12bd 33ab 67bd 7a36 48bd a9cd 03bd
00000110: 4419 edbc f76f b83c 4383 a03d 8572 073c
00000120: 9fb0 443d 3240 8b3d 5895 80bd d742 993d
00000130: edf2 9abc 2c3b 603b 6191 e93c d0b6 073d
00000140: 8671 9e3b 6419 a33c 09b9 e4bc 7782 983c
00000150: e345 e63d 2242 0ebd f91a a73d 4e52 34bc
00000160: 559f 1d3e 4e7a 60bc 7815 9abb b5c3 903c
00000170: 8a30 2e3d 07d7 be3c de7c c13c 0ed1 09bb
00000180: 0313 893c 4a7d 033c b995 d5bc eea2 cfbb
00000190: 6a36 79bd 030a 0dbd afb9 c0bc e4da 04bc
000001a0: c5ad fd3a d9e4 2ebd 2b35 1f3d 4584 87bd
000001b0: a778 c23c 95d1 943b 34aa 303b 1d68 04bd
000001c0: 6512 743d d8f1 cfbc ee22 003e 814f c5bc
000001d0: f38e 993c 7e24 96bc 2d30 c6bc 7ea3 5e3b
000001e0: fe33 aa3c f7f8 e43c 4edd 653d 4d36 75bb
000001f0: 52f8 453d c52b 81bb a7c2 dd3d 777e 9bbc
00000200: 2ea6 6b3f a6f6 703f 04c0 773f 6d06 7c3f
00000210: 3980 723f b335 823f 69b5 6c3f 1266 7a3f
00000220: 0e72 773f 0a39 803f c1a1 693f 9f6a 6e3f
00000230: d757 793f 88d9 7f3f 3d6e 763f 9a1a 7d3f
00000240: 5bd0 703f b470 713f 7ac8 713f f199 803f
00000250: 3abe 763f 18eb 813f 34a7 6a3f 600a 763f
00000260: d7b4 763f b86f 753f 0841 793f c334 713f
00000270: c594 733f 2db3 7a3f 4a07 6b3f 5d4b 763f
00000280: 7a90 753f 9090 7c3f 2b81 803f 69ac 7f3f
00000290: 2b21 733f 0224 6e3f a7b4 6e3f e6d9 843f
000002a0: 50c0 763f 2873 6f3f da59 753f c205 833f
000002b0: 7373 7f3f 9df2 6f3f 20a0 6e3f 2dad 713f
000002c0: 049e 683f 8e82 7c3f db63 7a3f cab1 6d3f
000002d0: 477a 743f c36b 683f 2de4 7e3f 4fd0 6d3f
000002e0: 70dd 6a3f 0981 753f 4f50 803f aa98 6c3f
000002f0: d3b6 713f da62 703f 442d 783f 1274 753f
00000300: fded 743f d75a 6e3f 861e 6e3f 0f99 6e3f
00000310: 0386 693f 8d60 7a3f 8f84 803f 3afd 6a3f
00000320: cf55 7c3f e70b 803f 16f8 6f3f 530d 833f
00000330: eb40 713f 6348 723f 9b71 783f 1b2b 783f
00000340: 4bf9 793f b5bd 803f 7c22 6d3f 7b9c 793f
00000350: 6010 833f ffd5 6e3f bddf 843f 82a7 793f
00000360: 3015 873f 385e 733f 8249 733f 6dc5 7f3f
00000370: db8d 803f e585 7e3f c521 773f 93e6 783f
00000380: 6a7b 6c3f a92a 7e3f a9d3 713f dc3d 793f
00000390: 9a29 6b3f 6626 6b3f cbed 6b3f 36fd 713f
000003a0: 9592 7b3f 2d22 723f b7b6 703f 94d0 6d3f
000003b0: 5104 813f bad6 7b3f b3da 783f 58c8 743f
000003c0: 478a 833f 94d5 6c3f e7b0 703f 2135 7b3f
000003d0: e8ec 803f 946c 783f 53f6 783f dfb6 6e3f
000003e0: 68d0 6f3f 865a 813f 9162 7c3f e214 723f
000003f0: ac34 7d3f 9d93 763f a5a8 7d3f 069b 763f

lstm.bias_hh_l0 f4 [512]
0.05630409 -0.048893694 0.0032443434 0.029754862 -0.023987494 0.06595894 -0.054851633 0.030431196
0.003933209 0.1512479 0.09505631 -0.052646182 -0.01665539 0.039103273 0.004734932 0.00017395566
-0.010280928 -0.032927554 -0.049416214 0.058647923 -0.00792628 0.04784757 -0.080458075 0.05952587
0.004284134 0.033321362 -0.0058313143 -0.04551741 -0.03334821 0.015942847 -0.07510468 -0.007947717
-0.018630188 -0.015853541 0.017140629 0.023089858 -0.02988356 -0.017596083 -0.053607713 0.07718295
0.028728746 -0.05889007 0.027690442 0.03594774 0.002779482 -0.029200997 0.007814772 -0.020574352
-0.075157605 0.07517265 0.04421776 0.060407147 -0.04526551 -0.073633 0.009263243 -0.0601246
-0.0663672 -0.0073018605 0.035571903 -0.055471823 -0.023887914 -0.041334383 0.0053971447 -0.0069026737
-0.03581977 -0.056559753 -0.048880078 -0.032178555 -0.028942712 0.022514326 0.07837536 0.00826705
0.04802 0.06799354 -0.06278485 0.07483452 -0.018914664 0.0034214957 0.028511705 0.033133328
0.0048353104 0.019909568 -0.027920263 0.018616898 0.112437986 -0.034731038 0.081594415 -0.011005951
0.15392812 -0.013701035 -0.0047022663 0.017671445 0.04252676 0.023295892 0.023619112 -0.0021029147
0.016732698 0.008025477 -0.02607237 -0.0063365614 -0.06084291 -0.034433376 -0.02352604 -0.008108828
0.0019354156 -0.042698715 0.038869064 -0.06617025 0.023739172 0.0045415857 0.0026956918 -0.032325853
0.059587855 -0.025383875 0.12513325 -0.024085762 0.018744921 -0.018327948 -0.024192894 0.003397196
0.020776745 0.027950747 0.056119256 -0.00374164 0.04833252 -0.0039419853 0.108281426 -0.018981202
0.92050445 0.94126356 0.9677737 0.98447305 0.947269 1.0172638 0.9246431 0.97811997
0.9665841 1.0017407 0.9126244 0.9313144 0.9739966 0.999413 0.9626196 0.98868716
0.94067925 0.94312596 0.9444653 1.0046979 0.9638401 1.014987 0.9166138 0.9610958
0.9636969 0.95873594 0.97364855 0.94221133 0.9514888 0.9792965 0.91808 0.96208745
0.9592358 0.98658085 1.0039419 0.9987245 0.94972485 0.93023694 0.93244404 1.0378997
0.96387196 0.9353509 0.9584023 1.0236132 0.99785537 0.93729573 0.9321308 0.9440487
0.9086611 0.9863671 0.9780862 0.9284941 0.9549908 0.9078943 0.9956692 0.9289598
0.91744137 0.9590002 1.0024508 0.92420447 0.9441959 0.93900836 0.9694407 0.95880234
0.9567564 0.9310736 0.93015325 0.932023 0.9122011 0.97803575 1.0040454 0.91792643
0.98568434 1.0003632 0.93737924 1.0238441 0.9423968 0.94641703 0.9704835 0.96940774
0.97646016 1.0057894 0.92630744 0.97504395 1.0239372 0.9329528 1.038078 0.9752122
1.0553341 0.9506564 0.9503404 0.9991062 1.0043291 0.99423057 0.96535903 0.9722683
0.92375815 0.99283844 0.9446359 0.97360015 0.91860354 0.91855466 0.9215972 0.94526994
0.9827054 0.945834 0.940288 0.9289639 1.0079442 0.9837452 0.9720871 0.956182
1.0276574 0.92513394 0.9401993 0.98127943 1.0072298 0.9704068 0.9725086 0.9324779
0.9367738 1.010575 0.985879 0.94563115 0.98908496 0.9631899 0.99085456 0.96330297
00000000: 1e9f 663d c144 48bd 0d9f 543b 78c0 f33c
00000010: 6c81 c4bc 7b15 873d 1bac 60bd d84a f93c
00000020: 26e2 803b bbe0 1a3e e2ac c23d 86a3 57bd
00000030: e270 88bc c12a 203d 7d27 9b3b de67 3639
00000040: 5671 28bc 0bdf 06bd a868 4abd ce38 703d
00000050: 3add 01bc d0fb 433d 34c7 a4bd 66d1 733d
00000060: ec61 8c3b fb7b 083d 9c14 bfbb 7770 3abd
00000070: 2298 08bd 939a 823c 7cd0 99bd 2437 02bc
00000080: 569e 98bc 49df 81bc 816a 8c3c f126 bd3c
00000090: 5ece f4bc a925 90bc c393 5bbd 1812 9e3d
000000a0: 8c58 eb3c b736 71bd 11d7 e23c f03d 133d
000000b0: f827 363b ee36 efbc 8809 003c 8b8b a8bc
000000c0: 3bec 99bd 1ef4 993d af1d 353d 7c6d 773d
000000d0: 5468 39bd e6cc 96bd dbc4 173c 3645 76bd
000000e0: 87eb 87bd 7244 efbb d8b3 113d 6c36 63bd
000000f0: 96b0 c3bc 3e4e 29bd 88da b03b d32f e2bb
00000100: c0b7 12bd 33ab 67bd 7a36 48bd a9cd 03bd
00000110: 4419 edbc f76f b83c 4383 a03d 8572 073c
00000120: 9fb0 443d 3240 8b3d 5895 80bd d742 993d
00000130: edf2 9abc 2c3b 603b 6191 e93c d0b6 073d
00000140: 8671 9e3b 6419 a33c 09b9 e4bc 7782 983c
00000150: e345 e63d 2242 0ebd f91a a73d 4e52 34bc
00000160: 559f 1d3e 4e7a 60bc 7815 9abb b5c3 903c
00000170: 8a30 2e3d 07d7 be3c de7c c13c 0ed1 09bb
00000180: 0313 893c 4a7d 033c b995 d5bc eea2 cfbb
00000190: 6a36 79bd 030a 0dbd afb9 c0bc e4da 04bc
000001a0: c5ad fd3a d9e4 2ebd 2b35 1f3d 4584 87bd
000001b0: a778 c23c 95d1 943b 34aa 303b 1d68 04bd
000001c0: 6512 743d d8f1 cfbc ee22 003e 814f c5bc
000001d0: f38e 993c 7e24 96bc 2d30 c6bc 7ea3 5e3b
000001e0: fe33 aa3c f7f8 e43c 4edd 653d 4d36 75bb
000001f0: 52f8 453d c52b 81bb a7c2 dd3d 777e 9bbc
00000200: 2ea6 6b3f a6f6 703f 04c0 773f 6d06 7c3f
00000210: 3980 723f b335 823f 69b5 6c3f 1266 7a3f
00000220: 0e72 773f 0a39 803f c1a1 693f 9f6a 6e3f
00000230: d757 793f 88d9 7f3f 3d6e 763f 9a1a 7d3f
00000240: 5bd0 703f b470 713f 7ac8 713f f199 803f
00000250: 3abe 763f 18eb 813f 34a7 6a3f 600a 763f
00000260: d7b4 763f b86f 753f 0841 793f c334 713f
00000270: c594 733f 2db3 7a3f 4a07 6b3f 5d4b 763f
00000280: 7a90 753f 9090 7c3f 2b81 803f 69ac 7f3f
00000290: 2b21 733f 0224 6e3f a7b4 6e3f e6d9 843f
000002a0: 50c0 763f 2873 6f3f da59 753f c205 833f
000002b0: 7373 7f3f 9df2 6f3f 20a0 6e3f 2dad 713f
000002c0: 049e 683f 8e82 7c3f db63 7a3f cab1 6d3f
000002d0: 477a 743f c36b 683f 2de4 7e3f 4fd0 6d3f
000002e0: 70dd 6a3f 0981 753f 4f50 803f aa98 6c3f
000002f0: d3b6 713f da62 703f 442d 783f 1274 753f
00000300: fded 743f d75a 6e3f 861e 6e3f 0f99 6e3f
00000310: 0386 693f 8d60 7a3f 8f84 803f 3afd 6a3f
00000320: cf55 7c3f e70b 803f 16f8 6f3f 530d 833f
00000330: eb40 713f 6348 723f 9b71 783f 1b2b 783f
00000340: 4bf9 793f b5bd 803f 7c22 6d3f 7b9c 793f
00000350: 6010 833f ffd5 6e3f bddf 843f 82a7 793f
00000360: 3015 873f 385e 733f 8249 733f 6dc5 7f3f
00000370: db8d 803f e585 7e3f c521 773f 93e6 783f
00000380: 6a7b 6c3f a92a 7e3f a9d3 713f dc3d 793f
00000390: 9a29 6b3f 6626 6b3f cbed 6b3f 36fd 713f
000003a0: 9592 7b3f 2d22 723f b7b6 703f 94d0 6d3f
000003b0: 5104 813f bad6 7b3f b3da 783f 58c8 743f
000003c0: 478a 833f 94d5 6c3f e7b0 703f 2135 7b3f
000003d0: e8ec 803f 946c 783f 53f6 783f dfb6 6e3f
000003e0: 68d0 6f3f 865a 813f 9162 7c3f e214 723f
000003f0: ac34 7d3f 9d93 763f a5a8 7d3f 069b 763f

fc.weight f4 [1, 128]
-0.23085743 -0.023323199 -0.14126958 -0.028455975 0.037001893 -0.23411104 0.21075669 -0.08547677
0.009168839 0.006135997 -0.24236025 0.050190445 -0.18762848 0.15973991 -0.0072573335 0.22831158
-0.051435854 -0.0647349 -0.017787842 0.18718056 0.0040666885 -0.11820546 -0.033884674 -0.111636885
0.20724738 0.18649815 0.13665563 -0.037832685 -0.11508742 -0.06656224 0.05166617 0.06884135
0.13260278 -0.0887825 -0.1377119 -0.004278182 0.0077130115 -0.14277658 0.06419629 0.26863715
-0.039455954 0.027320854 0.18680015 0.037275054 -0.022142805 -0.07946524 -0.109274305 -0.010924989
-0.0077184374 0.036899075 0.006409779 -0.152564 -0.08326004 -0.007135026 -0.11097211 0.024031892
-0.03391568 -0.23554434 -0.01781281 -0.062267035 0.08973448 0.0066788862 -0.0055524404 -0.104504295
-0.06421204 -0.012366128 0.028284406 -0.04255304 -0.03910997 -0.16286719 0.07082705 -0.049461097
0.065347955 0.08773195 -0.01685227 -0.05695845 0.089284256 0.2519061 0.12008952 0.1199102
0.11072677 -0.18585809 0.04448608 -0.10200969 -0.08169536 0.097996674 -0.018909913 0.12034816
-0.108049914 0.11370849 0.04215395 0.009936835 -0.11643058 -0.14303578 0.20260997 0.3607616
-0.2147134 0.14216155 0.08977451 -0.058236897 0.051043186 -0.08674235 -0.01845307 -0.21927208
0.011556157 0.2024679 0.004147784 0.12375419 -0.0084651355 -0.26031947 -0.12330353 -0.11730194
0.06301014 -0.14313523 0.011729442 -0.0867316 -0.04160592 -0.022381317 -0.049718067 0.18929332
-0.080165565 -0.080910146 -0.1177112 -0.14418684 0.03501606 0.010964386 -0.23260644 -0.06999108
00000000: e465 6cbe 4b10 bfbc f9a8 10be 811c e9bc
00000010: 4c8f 173d ceba 6fbe 9ad0 573e 720e afbd
00000020: e638 163c 7910 c93b 492d 78be 7f94 4d3d
00000030: ae21 40be dc92 233e edce edbb 83ca 693e
00000040: 67ae 52bd bb93 84bd cfb7 91bc 43ac 3f3e
00000050: db41 853b b415 f2bd a8ca 0abd e1a1 e4bd
00000060: a838 543e 5ff9 3e3e 74ef 0b3e 72f6 1abd
00000070: f4b2 ebbd c951 88bd e89f 533d b2fc 8c3d
00000080: 06c9 073e 99d3 b5bd 5904 0dbe fe2f 8cbb
00000090: 6ebd fc3b 0634 12be 5879 833d cf8a 893e
000000a0: 919c 21bd fccf df3c 8a48 3f3e baad 183d
000000b0: d464 b5bc acbe a2bd 35cb dfbd bafe 32bc
000000c0: f2ea fcbb 7c23 173d 2009 d23b bd39 1cbe
000000d0: 3d84 aabd f0cc e9bb 5845 e3bd 88de c43c
000000e0: 2beb 0abd 8932 71be 2cec 91bc b80b 7fbd
000000f0: b6c6 b73d 8fda da3b 3ff1 b5bb 5906 d6bd
00000100: 9a81 83bd 4d9b 4abc b3b4 e73c 194c 2ebd
00000110: c731 20bd a8c6 26be c60d 913d b897 4abd
00000120: 26d5 853d cfac b33d c60d 8abc 434d 69bd
00000130: aada b63d d6f9 803e 7ff1 f53d 7b93 f53d
00000140: b7c4 e23d 9551 3ebe 0937 363d 75ea d0bd
00000150: e64f a7bd 7bb2 c83d f6e8 9abc 1979 f63d
00000160: 4649 ddbd ffdf e83d 9fa9 2c3d 1bce 223c
00000170: 2873 eebd f977 12be fd78 4f3e bfb5 b83e
00000180: d4dd 5bbe cc92 113e b3db b73d d089 6ebd
00000190: a912 513d f9a5 b1bd e52a 97bc dc88 60be
000001a0: 0956 3d3c bf53 4f3e 22ea 873b d672 fd3d
000001b0: 5ab1 0abc 9848 85be 9086 fcbd 003c f0bd
000001c0: 760b 813d 0b92 12be d82c 403c 56a0 b1bd
000001d0: f86a 2abd 0659 b7bc 2ca5 4bbd 1cd6 413e
000001e0: d82d a4bd 38b4 a5bd 9212 f1bd b7a5 13be
000001f0: 006d 0f3d f8a3 333c 6230 6ebe 7c57 8fbd

exp_avg f4 [512, 4]
0.000117316726 -7.424051e-05 -3.6643745e-05 -0.00012494711 -6.491331e-05 -3.1004245e-05 -6.8564856e-05 1.3672487e-05
-0.0013203947 -0.00031899026 -0.000675135 0.00019993313 -9.634024e-06 8.159084e-06 9.018557e-06 2.3740336e-06
-6.281451e-05 -1.9613599e-05 4.834117e-06 6.761341e-05 -5.123842e-05 5.2347503e-05 5.2003645e-05 1.1481489e-05
-0.00021808862 1.3479883e-05 6.004848e-08 3.6846668e-05 5.2685697e-05 -7.856252e-06 -5.9418803e-06 -1.6306944e-05
8.112443e-05 9.674931e-06 1.5976062e-05 -2.7145878e-05 -4.424472e-06 5.7732045e-06 5.821611e-06 3.5308523e-07
4.6501154e-05 -3.9188635e-05 -1.5001062e-05 -5.1660504e-07 4.715759e-06 -2.8471622e-06 -1.903814e-05 -1.2816217e-05
-0.00071119156 -0.00046159315 -0.0003712956 0.00040506374 2.0645586e-05 -2.1149917e-05 -2.064043e-05 -4.099871e-06
6.3390136e-05 8.855219e-06 2.2184682e-05 5.6043064e-06 -0.000262312 4.730394e-05 -9.413652e-07 5.9339334e-05
0.00011871394 3.3389697e-06 -7.316339e-07 2.8754563e-05 -3.4372893e-05 1.0004484e-05 8.306304e-06 1.2644961e-05
-9.403169e-05 1.5601265e-05 2.8199831e-05 5.310781e-05 3.3713222e-05 -3.00225e-05 -2.9981062e-05 -7.6834995e-06
-0.00024698282 3.0364026e-06 -3.2421012e-05 6.504915e-05 4.377866e-06 -3.9902156e-06 -4.2562024e-06 -1.4863055e-06
-2.9316892e-05 6.5840186e-07 -2.0356892e-06 6.8478425e-06 -0.00019942595 -1.0431596e-05 -0.00031977834 9.47123e-06
6.851382e-05 -3.6237387e-05 -3.7706937e-05 -1.6897186e-05 0.00016799668 -4.616566e-05 0.00023639717 2.4429568e-05
0.00015505994 -8.828325e-06 1.711405e-05 -5.1031988e-05 5.5068576e-05 -5.9617378e-06 2.5107882e-05 -8.89787e-06
3.5752128e-05 2.8395729e-05 2.4289771e-05 -3.5562694e-05 7.119221e-05 -0.00012560691 -0.00016771481 -3.4059074e-05
1.7133169e-05 1.738052e-05 1.4444462e-05 1.4656113e-05 -0.00033536725 4.986229e-05 -1.2485099e-05 0.00014196493
0.00016314146 -6.147256e-05 3.4893892e-05 -0.00014122803 -0.00022919604 -9.321626e-06 -0.00014558044 5.234163e-06
-0.00028593565 -1.8086292e-05 -9.338268e-05 1.1508506e-05 0.00035567896 2.0787269e-05 -5.873666e-06 -0.00012352606
1.3418381e-05 -2.626382e-05 -5.3935742e-05 -4.750732e-06 0.00013176966 -1.1770692e-05 6.587436e-05 1.2019895e-05
-9.095687e-05 -6.4147953e-06 -2.852699e-05 7.941876e-06 -8.925985e-05 9.048733e-05 8.813023e-05 1.9875204e-05
0.00027040666 6.683507e-05 0.00018544082 -5.4657412e-05 4.196862e-05 -8.815887e-06 -1.2713304e-05 -1.8910983e-05
0.0022577976 0.00012945046 0.0005492507 -0.00059052644 -1.1112928e-05 1.2127588e-05 1.1285169e-05 1.6823552e-06
-5.5765895e-07 -8.3039795e-06 -1.148897e-05 2.700272e-06 0.00011755235 -2.6294205e-05 -3.92626e-05 -5.487009e-05
-3.96005e-05 -3.3727383e-06 -4.321299e-06 2.0948275e-05 6.281307e-05 -1.5548248e-05 -4.57988e-05 -1.3330082e-05
-0.00025109356 2.7861552e-05 -2.0830848e-06 8.643629e-05 -9.133894e-05 3.2479224e-05 -2.076705e-05 2.5529227e-05
-2.4526733e-05 1.6536998e-05 1.4559691e-05 1.2771664e-05 -0.00034615543 -3.9851075e-05 -0.00017325097 4.7608923e-05
3.8827064e-05 1.242388e-05 4.3373202e-05 8.9879904e-07 -2.0578296e-05 2.1633998e-05 2.7436194e-05 2.090319e-06
-2.540973e-05 1.9157624e-05 1.9372565e-05 4.195568e-06 -0.00021969766 7.246451e-05 0.0001306795 8.726079e-05
7.2198905e-05 7.907563e-06 2.1053522e-05 -1.6605256e-05 -0.0017009007 -0.00021867582 -0.000665153 0.00032805037
2.002078e-06 8.113288e-07 7.548387e-07 -5.714394e-07 -0.00018180523 -1.9675226e-05 -4.8249625e-05 4.754609e-05
0.0010447449 9.45754e-05 0.00030302186 -0.00023677379 0.00023613138 -1.4958392e-05 3.2191474e-05 -1.6881493e-05
-3.573619e-05 -6.516454e-06 1.4436038e-05 3.387447e-05 -8.950723e-05 3.5881738e-05 -3.9624712e-05 9.769456e-05
00000000: f007 f638 92b1 9bb8 ecb1 19b8 3c04 03b9
00000010: 1122 88b8 8e0a 02b8 7aca 8fb8 e262 6537
00000020: 1811 adba 263e a7b9 8bfb 30ba 24a5 5139
00000030: d1a1 21b7 00e3 0837 684e 1737 9651 1f36
00000040: 49bb 83b8 e287 a4b7 c034 a236 accb 8d38
00000050: d6e8 56b8 b48f 5b38 7d1e 5a38 9fa0 4037
00000060: b8ae 64b9 a827 6237 00f4 8033 cf8b 1a38
00000070: d6fa 5c38 58ce 03b7 5d60 c7b6 e5ca 88b7
00000080: 5921 aa38 8351 2237 5504 8637 54b7 e3b7
00000090: ed75 94b6 73b7 c136 4257 c336 aa8f bd34
000000a0: 3c0a 4338 7a5e 24b8 12ad 7bb7 d4ac 0ab5
000000b0: 103c 9e36 e011 3fb6 18b4 9fb7 3c05 57b7
000000c0: 426f 3aba fc01 f2b9 74aa c2b9 bc5e d439
000000d0: 0f30 ad37 1a6b b1b7 fc24 adb7 a091 89b6
000000e0: 52f0 8438 e090 1437 3e19 ba37 a00c bc36
000000f0: ec86 89b9 3868 4638 20b2 7cb5 20e3 7838
00000100: 10f6 f838 1013 6036 8065 44b5 f435 f137
00000110: 9d2b 10b8 eed8 2737 4e5b 0b37 b225 5437
00000120: e132 c5b8 76df 8237 ad8e ec37 14c0 5e38
00000130: 4c67 0d38 d4d8 fbb7 d77f fbb7 61e8 00b7
00000140: 797d 81b9 00c5 4b36 ccfb 07b8 ff6a 8838
00000150: 95e5 9236 b1e3 85b6 80d0 8eb6 117d c7b5
00000160: 8ced f5b7 08bd 3035 e09c 08b6 85c6 e536
00000170: ff1c 51b9 5d03 2fb7 eca7 a7b9 a0e6 1e37
00000180: 14af 8f38 99fd 17b8 8427 1eb8 6ebe 8db7
00000190: 4428 3039 00a2 41b8 62e1 7739 19ee cc37
000001a0: 9697 2239 5e1d 14b7 2490 8f37 2e0b 56b8
000001b0: 6ff9 6638 f00a c8b6 c49e d237 1048 15b7
000001c0: 8ef4 1538 5d33 ee37 e3c1 cb37 2729 15b8
000001d0: 074d 9538 59b5 03b9 9adc 2fb9 a7da 0eb8
000001e0: 33b9 8f37 62cc 9137 7e56 7237 87e3 7537
000001f0: 3bd4 afb9 3a23 5138 1877 51b7 6cdc 1439
00000200: f410 2b39 d4ea 80b8 085b 1238 9c16 14b9
00000210: 5854 70b9 1464 1cb7 f4a6 18b9 1ea1 af36
00000220: a2e9 95b9 04b8 97b7 72d6 c3b8 a814 4137
00000230: 6c7a ba39 5260 ae37 6816 c5b6 c686 01b9
00000240: 821f 6137 2051 dcb7 1039 62b8 7a68 9fb6
00000250: a62b 0a39 bd7a 45b7 0726 8a38 0ea9 4937
00000260: 19c0 beb8 ac3e d7b6 3f4d efb7 193e 0537
00000270: 0431 bbb8 04c4 bd38 8fd2 b838 adb9 a637
00000280: 5ec5 8d39 ce29 8c38 e472 4239 f33f 65b8
00000290: 7607 3038 f2e7 13b7 3a4b 55b7 07a3 9eb7
000002a0: 8ff7 133b 18bd 0739 97fb 0f3a 8fcd 1aba
000002b0: aa71 3ab7 9877 4b37 6f55 3d37 49cd e135
000002c0: 08b2 15b5 5251 0bb7 c0c0 40b7 5236 3536
000002d0: 7086 f638 6092 dcb7 e5ad 24b8 4f24 66b8
000002e0: b718 26b8 3457 62b6 adff 90b6 14ba af37
000002f0: 83ba 8338 9c6d 82b7 1618 40b8 44a4 5fb7
00000300: 35a5 83b9 3ab8 e937 20cb 0bb6 2145 b538
00000310: 388d bfb8 4d3a 0838 e634 aeb7 9927 d637
00000320: c2be cdb7 efb8 8a37 6645 7437 e145 5637
00000330: 327c b5b9 c425 27b8 b4aa 35b9 b1af 4738
00000340: 3eda 2238 2970 5037 9feb 3538 0045 7135
00000350: 8e9f acb7 a87a b537 c726 e637 6847 0c36
00000360: fb26 d5b7 afb4 a037 4482 a237 a8c7 8c36
00000370: a45e 66b9 16f8 9738 0307 0939 c8ff b638
00000380: 7e69 9738 b9aa 0437 189c b037 844b 8bb7
00000390: c2f0 deba 584c 65b9 aa5d 2eba 2dfe ab39
000003a0: 705b 0636 17ca 5935 1fa0 4a35 0465 19b5
000003b0: f8a2 3eb9 3a0c a5b7 a45f 4ab8 3a6c 4738
000003c0: d2ef 883a c856 c638 e8de 9e39 7b46 78b9
000003d0: 099a 7739 cef5 7ab7 5505 0738 bb9c 8db7
000003e0: 71e3 15b8 eaa7 dab6 5032 7237 6f14 0e38
000003f0: d4b5 bbb8 b97f 1638 b632 26b8 5ee1 cc38

exp_avg_sq f4 [512, 4]
8.8478987e-07 1.9110396e-06 1.9313484e-06 5.959473e-07 1.6040718e-07 2.1782107e-08 5.8496262e-08 1.3478086e-08
2.1800743e-05 7.5187695e-06 1.531523e-05 2.2984389e-06 2.6074847e-08 1.3508949e-08 2.0029715e-08 3.0461922e-09
6.451542e-08 4.641766e-08 5.642043e-08 5.3989154e-08 1.2829101e-06 1.2756452e-06 1.2808808e-06 6.851911e-08
2.1253923e-06 7.664345e-07 1.189678e-06 4.2146996e-07 3.7003623e-08 7.4685914e-08 8.671857e-08 6.1507404e-09
1.7161975e-07 1.0996659e-07 1.7831276e-07 3.7300776e-08 1.8250843e-08 1.4013097e-08 1.704228e-08 1.6178473e-09
1.500136e-07 1.0276196e-07 1.4055527e-07 4.504675e-08 1.9966053e-07 1.3140884e-07 1.6582226e-07 9.969145e-08
1.2962986e-05 1.6568109e-05 2.0744721e-05 1.1996469e-05 2.0310031e-07 1.5990237e-07 1.619848e-07 1.7673052e-08
1.0805181e-07 1.211614e-07 8.378465e-08 1.283509e-07 1.3006704e-06 1.2563728e-06 1.8335897e-06 4.6086788e-07
8.501366e-07 9.755627e-07 1.1239132e-06 2.420111e-07 1.777369e-07 1.6947806e-07 2.2827919e-07 5.5668103e-08
5.830694e-07 2.8007133e-07 3.8988512e-07 1.4656554e-07 5.211136e-07 5.203244e-07 5.214341e-07 2.774605e-08
1.1778756e-06 5.436793e-07 9.165574e-07 1.5921229e-07 8.130495e-08 7.589221e-08 7.642978e-08 5.131518e-09
2.172936e-08 9.565467e-09 1.4773199e-08 5.210792e-09 4.9741004e-07 3.550177e-07 7.889103e-07 7.7154176e-08
1.0953573e-07 7.3481715e-08 8.3684114e-08 9.921277e-09 8.9081295e-06 2.9405794e-06 3.337993e-06 1.9464446e-06
2.3812048e-07 2.688813e-07 3.7550694e-07 5.6860777e-08 4.5898054e-07 2.4818388e-07 3.5754434e-07 1.4112183e-07
8.3008456e-07 2.0970992e-07 2.9375724e-07 1.3510245e-07 4.0087193e-07 1.16466495e-07 1.791511e-07 9.585074e-08
1.1080258e-07 4.364922e-08 7.4078834e-08 2.822915e-08 1.4041315e-06 1.042434e-06 1.6297504e-06 4.4433435e-07
1.0064032e-06 8.5655995e-07 1.0436514e-06 7.515799e-07 3.7723535e-07 6.969114e-08 1.5861211e-07 3.9813926e-08
8.439377e-07 4.146038e-07 6.747804e-07 1.8233858e-07 1.5377235e-06 7.904777e-07 8.149483e-07 4.894671e-07
8.553206e-08 4.7791755e-08 6.186863e-08 1.6756655e-08 2.0117934e-06 1.1404359e-06 1.667382e-06 3.1565108e-07
8.094879e-07 6.2637673e-07 1.0321363e-06 1.7595674e-07 1.0748086e-06 1.0226845e-06 1.0462006e-06 6.767376e-08
4.7283064e-07 2.910786e-07 5.490744e-07 4.948947e-08 5.1125454e-08 2.2296135e-08 3.493082e-08 1.816438e-08
9.33915e-05 3.1808126e-05 5.3210355e-05 1.2291882e-05 8.03684e-08 5.6718026e-08 6.870732e-08 9.753008e-09
1.5827236e-07 3.2703987e-08 7.368256e-08 6.920154e-08 7.586236e-07 3.8377019e-07 5.612985e-07 2.6562634e-07
1.0606582e-07 3.057808e-08 4.6746635e-08 3.44525e-08 2.385503e-07 1.6795059e-07 2.2261649e-07 4.7050996e-08
6.755096e-07 2.5857415e-07 3.6225194e-07 1.4204772e-07 4.8172506e-08 3.225117e-08 3.879635e-08 2.979891e-09
1.1277819e-08 1.1783875e-08 1.232117e-08 2.1426292e-09 9.776248e-07 7.262566e-07 1.1544519e-06 1.784076e-07
1.184456e-07 2.6750879e-08 6.372519e-08 2.8800365e-08 1.8218e-08 1.6282474e-08 1.6937502e-08 1.1247591e-08
2.0399635e-07 9.132976e-08 1.2253535e-07 4.7324214e-08 1.2928411e-06 8.6745644e-07 1.013187e-06 3.4652703e-07
3.0060548e-07 7.9274955e-08 1.3667679e-07 5.2876928e-08 4.2516203e-05 1.6016285e-05 2.9324814e-05 3.873701e-06
4.2065633e-08 1.1829102e-08 2.3416279e-08 1.3243187e-09 9.607954e-07 2.1249842e-07 3.533347e-07 1.499802e-07
2.0276082e-05 8.121016e-06 1.3794063e-05 2.2265542e-06 1.3141698e-06 4.7501607e-07 7.7874284e-07 1.6939408e-07
7.03535e-08 2.3000458e-08 4.8560263e-08 2.484391e-08 6.257313e-08 5.085362e-08 5.9112775e-08 3.4604266e-08
00000000: 4c82 6d35 693f 0036 509c 0136 30f9 1f35
00000010: 643c 2c34 5c1b bb32 523d 7b33 408d 6732
00000020: bde0 b637 bd49 fc36 3579 8037 e13e 1a36
00000030: 32fb df32 fc14 6832 cf0d ac32 2e55 5131
00000040: ba8b 8a33 c25c 4733 eb52 7233 b4e1 6733
00000050: 7530 ac35 d636 ab35 bbea ab35 c724 9333
00000060: f6a1 0e36 fabc 4d35 06ad 9f35 6446 e234
00000070: eaed 1e33 0463 a033 0a3a ba33 7c56 d331
00000080: 7a46 3834 c626 ec33 3d76 3f34 a334 2033
00000090: 07c6 9c32 41be 7032 5f64 9232 f15a de30
000000a0: 6d13 2134 fcad dc33 8aeb 1634 6d79 4133
000000b0: 4562 5634 6319 0d34 e00c 3234 f415 d633
000000c0: 9a7b 5937 befb 8a37 f304 ae37 7144 4937
000000d0: ca13 5a34 a1b1 2b34 0bee 2d34 74cf 9732
000000e0: 1c0a e833 9818 0234 19ed b333 d4d0 0934
000000f0: b292 ae35 a4a0 a835 aa19 f635 336d f734
00000100: f134 6435 14f0 8235 5dd9 9635 c1ed 8134
00000110: f2d7 3e34 c6f9 3534 e81c 7534 ba17 6f33
00000120: 3984 1c35 b65c 9634 6751 d134 a15f 1d34
00000130: a7e2 0b35 6cac 0b35 aef8 0b35 3656 ee32
00000140: 7f17 9e35 5bf1 1135 5809 7635 f1f3 2a34
00000150: de99 ae33 2ffa a233 b721 a433 4f51 b031
00000160: 5ea7 ba32 5e55 2432 37cd 7d32 9c0a b331
00000170: c285 0535 4399 be34 81c5 5335 f5af a533
00000180: e839 eb33 00cd 9d33 d4b5 b333 3d72 2a32
00000190: 2074 1537 c556 4536 4802 6036 aa9f 0236
000001a0: 0fae 7f34 c45a 9034 4899 c934 1637 7433
000001b0: ce69 f634 223e 8534 85f4 bf34 4687 1734
000001c0: fad2 5e35 a02c 6134 b0b5 9d34 ae10 1134
000001d0: 6b37 d734 221c fa33 ae5c 4034 80d6 cd33
000001e0: 5df2 ed33 d378 3b33 4515 9f33 8f7c f232
000001f0: 9775 bc35 c2e9 8b35 ccbd da35 d98c ee34
00000200: c013 8735 5aee 6535 9713 8c35 2dc0 4935
00000210: d586 ca34 1ca9 9533 f74e 2a34 e0ff 2a33
00000220: f58a 6235 b696 de34 8e22 3535 d9c8 4334
00000230: c763 ce35 3731 5435 d2c2 5a35 ec63 0335
00000240: bfad b733 9743 4d33 a4dc 8433 46f0 8f32
00000250: 5902 0736 1411 9935 cfca df35 c176 a934
00000260: 964b 5935 4824 2835 ef87 8a35 9fee 3c34
00000270: 2442 9035 2c43 8935 2e6b 8c35 0b54 9133
00000280: 59d9 fd34 8a45 9c34 1b64 1335 3f8e 5433
00000290: 0895 5b33 b885 bf32 d806 1633 e507 9c32
000002a0: 2edb c338 b769 0538 2f2e 5f38 3b39 4e37
000002b0: ff96 ac33 219a 7333 408c 9333 2f8e 2732
000002c0: 93f1 2934 6a76 0c33 6a3b 9e33 f39b 9433
000002d0: 38a4 4b35 f908 ce34 24ac 1635 689b 8e34
000002e0: 4dc6 e333 f454 0333 78c6 4833 edf8 1333
000002f0: 1b12 8034 e855 3434 5b08 6f34 1e15 4a33
00000300: ab54 3535 29d2 8a34 877b c234 c885 1834
00000310: 3be6 4e33 8984 0a33 0aa1 2633 ccc6 4c31
00000320: 5fc0 4132 0872 4a32 14ad 5332 883d 1331
00000330: ef36 8335 f9f3 4235 aaf2 9a35 4f90 3f34
00000340: 285c fe33 cec9 e532 4bd9 8833 ac64 f732
00000350: ce7d 9c32 8add 8b32 f67d 9132 6e3b 4132
00000360: 170a 5b34 1121 c433 4392 0334 8641 4b33
00000370: af85 ad35 27db 6835 d7fc 8735 500a ba34
00000380: e762 a134 de3d aa33 6ec1 1234 cc1a 6333
00000390: 6d53 3238 b65a 8637 8ffe f537 d7fa 8136
000003a0: a7ab 3433 f138 4b32 f124 c932 5203 b630
000003b0: aef4 8035 1f2b 6434 f4b1 bd34 3e0a 2134
000003c0: 8e16 aa37 803f 0837 0d6d 6737 e96b 1536
000003d0: 8862 b035 b605 ff34 cd0a 5135 b1e2 3534
000003e0: 3f15 9733 8b92 c532 9390 5033 5668 d532
000003f0: f15f 8633 266a 5a33 2fe3 7d33 cb9f 1433

exp_avg f4 [512, 128]
5.259177e-05 -5.3636336e-07 -4.730555e-06 -3.781387e-05 -3.5871835e-05 -9.214947e-05 2.6929024e-07 6.6508175e-05
-4.331335e-05 -6.961211e-05 5.4535136e-05 -2.0605612e-06 -4.498555e-05 -0.00010440308 4.0359955e-05 7.7212295e-05
-9.242432e-06 -1.73882e-05 -2.4496674e-05 -0.00011272766 2.545669e-05 9.003379e-05 1.8282719e-06 0.00025477895
-0.000100622616 1.142763e-05 -8.336277e-05 1.2626433e-05 -4.6359706e-05 1.2731201e-05 -1.2673644e-05 4.8880956e-05
-1.5446014e-05 -7.700349e-05 -5.930135e-05 6.6147244e-05 5.1837674e-07 3.3934805e-06 8.67567e-07 8.684356e-05
5.069122e-05 7.4626746e-06 -7.302353e-05 9.132465e-05 -8.111885e-05 1.5648475e-05 7.257923e-05 -1.746469e-05
1.8248542e-05 1.3269193e-05 -4.794001e-05 1.3681958e-05 -1.0619463e-06 1.7441853e-06 -5.9462986e-05 1.3095689e-05
7.026001e-06 -3.8859736e-05 -6.430042e-05 -4.555508e-06 -6.014684e-05 -1.096328e-05 -1.4238127e-05 2.4503142e-05
-9.699607e-06 8.497991e-06 6.3044313e-06 -7.3768933e-06 4.09932e-08 9.097474e-05 -8.4727e-05 1.8006634e-05
6.612225e-05 5.8935446e-05 1.1071402e-06 -7.187086e-05 2.7310698e-05 -1.969371e-05 -5.2572705e-05 -0.00010324354
-5.3032538e-05 -0.00010169036 -1.155971e-06 7.282284e-05 -0.00011254821 6.2568174e-06 6.219973e-05 2.3029392e-05
8.347751e-05 -7.704466e-06 -1.7705446e-05 8.336872e-05 0.00012596784 7.0542475e-05 8.936521e-05 -8.7063956e-05
3.6447003e-05 3.9747534e-05 2.4029073e-06 5.4404845e-05 4.268409e-06 -1.8440697e-06 -3.6291015e-06 -2.4673087e-05
9.134421e-05 2.3454802e-05 4.3332366e-05 -1.0742361e-05 -6.920274e-05 8.420246e-05 -3.2246968e-05 -3.7525802e-05
0.00013391665 2.3989363e-05 5.4290813e-05 6.181747e-05 -6.789288e-05 -3.0558153e-05 -2.269533e-06 -2.5631512e-05
3.9693296e-05 -0.000102159174 -7.088254e-05 1.316328e-06 -7.420124e-05 -3.4176855e-06 4.402928e-05 1.4759148e-05
5.87306e-07 1.6883531e-06 -2.0496602e-05 -1.1062092e-05 -1.9399956e-06 -2.3657145e-05 6.326458e-07 1.8532939e-05
-1.1329574e-05 -2.0243755e-05 -6.85039e-06 7.0818726e-07 -2.1363066e-06 -2.6420184e-05 1.6386044e-05 2.6903024e-05
9.5047284e-07 1.8868376e-06 -3.2254331e-06 -2.9684525e-05 5.0837125e-06 1.5985348e-05 3.202253e-07 -1.4709999e-05
-2.4041392e-05 -4.7207422e-07 -1.9105655e-05 6.0245284e-06 -1.6578213e-05 5.4541506e-06 -1.1953058e-06 1.4938034e-05
-1.386758e-06 -2.2881166e-05 -2.1486725e-05 2.099133e-05 2.2250038e-06 2.320865e-06 1.9402974e-06 2.888939e-05
1.003437e-05 -1.3396405e-07 -2.6943522e-05 2.4958004e-05 -1.7648916e-05 2.5884123e-07 5.68011e-06 -2.0154007e-06
3.5976402e-06 1.2465056e-05 -1.2314215e-05 -2.180388e-05 6.5740346e-07 3.188282e-07 -2.0389058e-05 8.3529767e-07
1.1191744e-06 -1.8262841e-05 -1.8950497e-05 -1.8355038e-06 -1.0244187e-05 -5.056988e-06 4.277243e-06 -4.0098053e-06
-2.4624087e-06 7.5993665e-07 -3.83906e-07 -1.4557729e-06 2.8054342e-06 2.1492979e-05 -2.5098341e-05 -1.5824319e-06
2.3646975e-05 2.1540582e-05 -5.8053746e-07 -2.0226616e-05 4.720738e-07 -1.3467995e-05 -1.5064961e-05 -1.8546021e-05
-1.4529665e-05 -3.1146967e-05 -6.7756732e-06 1.7421171e-05 -3.203119e-05 -1.2069324e-06 1.0950215e-05 7.042724e-06
2.372515e-05 8.5436056e-07 -1.8832145e-06 2.456323e-05 3.7879436e-05 1.8103612e-05 3.442648e-05 -2.0987376e-05
-4.961148e-06 1.8330185e-05 -4.7843323e-06 1.7997372e-05 5.297396e-07 -3.2663448e-07 -1.4783008e-06 2.3126483e-07
2.9085431e-05 9.5381765e-06 9.675001e-06 -2.4416963e-06 -1.7343546e-05 2.1930624e-05 -2.3201443e-05 -8.674621e-06
4.29763e-05 -5.5922794e-07 7.9884185e-06 2.0729034e-05 -2.063938e-05 -1.14392615e-05 -5.4101577e-07 7.345314e-06
9.195876e-06 -1.3944953e-05 -1.9814397e-05 -2.9458597e-06 -1.9922076e-05 4.0828904e-06 1.9258268e-05 4.301787e-06
00000000: fc95 5c38 9cfa 0fb5 28bb 9eb6 559a 1eb8
00000010: 1775 16b8 5f40 c1b8 f892 9034 4e7a 8b38
00000020: 5bab 35b8 b8fc 91b8 a8bc 6438 2c48 0ab6
00000030: deae 3cb8 faf2 dab8 2c48 2938 09ed a138
00000040: f10f 1bb7 e0dc 91b7 357e cdb7 3468 ecb8
00000050: d38b d537 86d0 bc38 f262 f535 da93 8539
00000060: 5b05 d3b8 4cb9 3f37 0cd3 aeb8 1ed6 5337
00000070: 5b72 42b8 1898 5537 e3a0 54b7 8705 4d38
00000080: 1092 81b7 ef7c a1b8 57ba 78b8 88b8 8a38
00000090: 9426 0b35 8dbb 6336 c0e2 6835 c81f b638
000000a0: 489d 5438 e367 fa36 3624 99b8 8c85 bf38
000000b0: 5a1e aab8 d844 8337 ad35 9838 2381 92b7
000000c0: 7214 9937 c09e 5e37 3213 49b8 908b 6537
000000d0: 3288 8eb5 c019 ea35 e567 79b8 8eb5 5b37
000000e0: e4c0 eb36 53fd 22b8 06d9 86b8 84db 98b6
000000f0: 2d46 7cb8 eeee 37b7 4ae0 6eb7 198c cd37
00000100: 7fbb 22b7 9892 0e37 a78a d336 0887 f7b6
00000110: 8010 3033 b1c9 be38 76af b1b8 f40c 9737
00000120: 1dab 8a38 7431 7738 0c99 9435 60b9 96b8
00000130: 4719 e537 ec33 a5b7 8381 5cb8 7484 d8b8
00000140: 416f 5eb8 9942 d5b8 dc26 9bb5 77b8 9838
00000150: dc07 ecb8 a7f1 d136 3a71 8238 3e2f c137
00000160: a610 af38 6e42 01b7 2886 94b7 3ed6 ae38
00000170: 3c16 0439 34f0 9338 9569 bb38 1b96 b6b8
00000180: acde 1838 97b6 2638 a241 2136 c230 6438
00000190: 5b39 8f36 c181 f7b5 7d8b 73b6 0df9 ceb7
000001a0: 0d90 bf38 cec0 c437 c6bf 3538 173a 34b7
000001b0: f020 91b8 da95 b038 eb40 07b8 0665 1db8
000001c0: fa6b 0c39 c43c c937 51b6 6338 00a4 8138
000001d0: b661 8eb8 912b 00b8 484e 18b6 4103 d7b7
000001e0: 5a7c 2638 4a3e d6b8 c6a6 94b8 b0ac b035
000001f0: 7d9c 9bb8 645b 65b6 14ac 3838 0f9e 7737
00000200: 5ca7 1d35 5f9b e235 1ef0 abb7 5397 39b7
00000210: df30 02b6 5573 c6b7 17d3 2935 2f77 9b37
00000220: 2614 3eb7 22d1 a9b7 67dc e5b6 421a 3e35
00000230: 785d 0fb6 eaa0 ddb7 c374 8937 cead e137
00000240: ff23 7f35 3f3f fd35 8574 58b6 0803 f9b7
00000250: c294 aa36 4618 8637 6eeb ab34 f7ca 76b7
00000260: 7fac c9b7 6371 fdb4 1545 a0b7 4e26 ca36
00000270: 7111 8bb7 cc02 b736 656e a0b5 5e9e 7a37
00000280: a420 bab5 eef0 bfb7 643e b4b7 8a16 b037
00000290: 4651 1536 28c0 1b36 0e36 0236 7e57 f237
000002a0: 4a59 2837 c2d7 0fb4 c604 e2b7 e85c d137
000002b0: c20c 94b7 def6 8a34 c697 be36 5240 07b6
000002c0: fd6e 7136 0221 5137 2799 4eb7 7ae7 b6b7
000002d0: 6c78 3035 6a2b ab34 2b09 abb7 3839 6035
000002e0: 8a36 9635 2733 99b7 e2f7 9eb7 6e5b f6b5
000002f0: 73de 2bb7 32af a9b6 3d85 8f36 f78b 86b6
00000300: dc3f 25b6 73fe 4b35 a41b ceb4 fa63 c3b5
00000310: fe44 3c36 d24b b437 478a d2b7 f263 d4b5
00000320: 7e5d c637 0cb2 b437 3bd6 1bb5 54ac a9b7
00000330: 5471 fd34 99f4 61b7 84bf 7cb7 4793 9bb7
00000340: 70c4 73b7 cda3 02b8 975a e3b6 ae23 9237
00000350: 3a59 06b8 e2fd a1b5 d1b6 3737 8a50 ec36
00000360: 5f05 c737 3657 6535 c2c2 fcb5 230d ce37
00000370: bce0 1e38 36dd 9737 2765 1038 0c0e b0b7
00000380: f077 a6b6 c6c3 9937 1a89 a0b6 10f9 9637
00000390: 6e33 0e35 4d5c afb4 076a c6b5 9851 7834
000003a0: 7dfc f337 2806 2037 d051 2237 06dc 23b6
000003b0: fb7c 91b7 a8f7 b737 b8a0 c2b7 3789 11b7
000003c0: 7341 3438 da1d 16b5 ff05 0637 43e3 ad37
000003d0: bb22 adb7 41eb 3fb7 523a 11b5 c477 f636
000003e0: fd47 1a37 1ef5 69b7 1837 a6b7 7cb1 45b6
000003f0: 551e a7b7 c3ff 8836 d18c a137 1258 9036
