Model/weights/model_test_6811_10_best.pt (torch, 853646 bytes, 15 tensors)

lstm.weight_ih_l0 f4 [512, 3]
0	0x3e3b4390	0.18287492
1	0x3c8b3d7d	0.016997093
2	0xbac1ca83	-0.0014785085
3	0x3e168b30	0.14701533
4	0xbdbcccc7	-0.09218746
5	0xbd1125a8	-0.035436302
6	0x3de7cd17	0.11318415
7	0x3d6d9ec4	0.05801274
8	0x3d39d29f	0.04536688
9	0xbd7a4a8d	-0.061106253
10	0x3b657836	0.0035014278
11	0xbd585739	-0.052817557
12	0x3c87bf3b	0.016570678
13	0xbceeab05	-0.029134283
14	0xbd9da97a	-0.07698341
15	0xbc820d35	-0.015875438
16	0x3d85b8dd	0.065294005
17	0xba46d585	-0.00075849175
18	0x3d7787c8	0.060432225
19	0x3dd30704	0.103040725
20	0xba28c169	-0.0006437512
21	0x3cf51e27	0.029921604
22	0xbcdff65b	-0.027339151
23	0x3c28e300	0.010308027
24	0x3d996de2	0.074916616
25	0x3d00c0a5	0.03143372
26	0x3d5de952	0.05417759
27	0x3d98e381	0.07465268
28	0xbd7509a5	-0.05982365
29	0xbb90205c	-0.004398389
30	0xbd8b33da	-0.06796999
31	0x3dcb649f	0.09931301
32	0x3c8d3d99	0.017241286
33	0x3d058dba	0.032605864
34	0xbdd942e6	-0.10608463
35	0x3d9b4445	0.07581381
36	0x3d924961	0.07142902
37	0x3dcf675a	0.101271346
38	0x3bb71e9f	0.005588367
39	0xbd3007ab	-0.042976063
40	0xbd0f3a6c	-0.034967825
41	0xbcbd2361	-0.023088159
42	0x3d9522ea	0.0728205
43	0x3c8c0f23	0.017097061
44	0xbd8c17e6	-0.06840496
45	0xbdce46c8	-0.10072094
46	0x3dcef141	0.10104609
47	0xbccf3df9	-0.025298106
48	0xbe377da0	-0.17919016
49	0x3d3e1f54	0.046416596
50	0xbd5c9f34	-0.053862765
51	0x3de6b1d7	0.11264389
52	0x3daacbbf	0.08339643
53	0x3dbde9d8	0.09273118
54	0xbda58de1	-0.08083702
55	0xbc987f6a	-0.018615443
56	0xbc3be0ce	-0.011467172
57	0xbdbb8960	-0.091570616
58	0x3d9efc33	0.07762947
59	0xbbc51aee	-0.006015173
60	0xbd4e6d79	-0.05039737
61	0xbca6dcfb	-0.020369044
62	0xbe2bd718	-0.1678127
63	0xbdfee916	-0.12446801
64	0xbe7d2499	-0.24720992
65	0xbcd5ca5d	-0.02609747
66	0x3e041510	0.1289866
67	0x3b35e13e	0.0027752663
68	0xb9c2a5c5	-0.0003712607
69	0x3c012c5e	0.007884113
70	0xbe7297bd	-0.23690696
71	0x3d1f678c	0.03891711
72	0x3e53322d	0.2062461
73	0xbe225125	-0.15851267
74	0xbd19674e	-0.037452035
75	0xbc3dc438	-0.011582427
76	0x3dcdfe1f	0.100582354
77	0x3d2b48cd	0.041817475
78	0x3d791db1	0.06081933
79	0xbe047323	-0.12934546
80	0x3c6c1d9b	0.014411355
81	0xbc4a2ca7	-0.0123397475
82	0x3ddc409c	0.10754511
83	0x3d9a8945	0.07545713
84	0x3d21d377	0.03950831
85	0xbd93d8a7	-0.072190575
86	0x3d719145	0.05897643
87	0x3e0c8b1b	0.1372494
88	0xbd328570	-0.043584287
89	0x3dd1d285	0.102452315
90	0xbd3e33b7	-0.046436038
91	0x3dca8b44	0.09889844
92	0x3d592e2b	0.053022545
93	0x3d8d7968	0.06907922
94	0x3d4858be	0.048912756
95	0x3c488ad6	0.012240132
96	0x3d56f679	0.05248115
97	0xbd149f5b	-0.036284786
98	0x3cc9fd87	0.024657024
99	0xbd873c13	-0.06603255
100	0x3cb5f6c3	0.022212392
101	0xbd1fa1a7	-0.038972523
102	0xbdb3bb82	-0.08775999
103	0x3e0751c9	0.13214792
104	0xbe06f941	-0.1318102
105	0x3c3d6064	0.011558626
106	0x3e0f84ba	0.14015475
107	0x3db4e3bd	0.088325
108	0xbdb1e300	-0.08685875
109	0xbdea90b4	-0.11453381
110	0x3d0528dd	0.032509673
111	0x3ca70a5e	0.020390686
112	0xbcda86f7	-0.026675684
113	0xbd4f243f	-0.050571676
114	0xbd3dd83e	-0.046348803
115	0xbdb85877	-0.09001248
116	0x3d8d3073	0.068940066
117	0xbdd56c1e	-0.10421012
118	0xbce4ae2e	-0.027915087
119	0xbd3902ce	-0.04516869
120	0xbe0683e1	-0.13136245
121	0xbdbc86b5	-0.09205381
122	0x3d4787ee	0.048713617
123	0x3e080dbf	0.13286494
124	0x3cc2137a	0.023690928
125	0x3ddcb874	0.10777369
126	0xbe5654b9	-0.20930757
127	0x3dd616ef	0.10453593
128	0x3d21b285	0.03947689
129	0xbe722732	-0.23647764
130	0x3c7746a8	0.015092529
131	0x3d48123e	0.048845522
132	0x3b81565f	0.003947064
133	0xbdd0d351	-0.101965554
134	0xbdb6a036	-0.089172766
135	0xbe777b34	-0.24168092
136	0xbc753868	-0.014967062
137	0xbd92b6a9	-0.07163746
138	0xbb601b18	-0.0034195837
139	0x3e50b140	0.20380116
140	0xbe0ac19f	-0.13550423
141	0x3e2a83a4	0.1665178
142	0x3cb3457c	0.021883719
143	0x3d6a99a2	0.057275422
144	0xbdc0f2ea	-0.09421332
145	0xbc4e7f0e	-0.012603534
146	0xbdbf31d5	-0.093356766
147	0xbd1b33c7	-0.037891176
148	0xbd0cac24	-0.034343854
149	0x3c04c9ec	0.008104783
150	0xbd7ffd24	-0.062497273
151	0xbd5778b6	-0.052605353
152	0xbc5aabb5	-0.013346602
153	0x3e0c74d1	0.13716437
154	0x3dea2e96	0.11434667
155	0xbcfad7b8	-0.03062044
156	0x3db121f1	0.08649052
157	0xbe2d1d6e	-0.16905758
158	0xbd62b83d	-0.055351485
159	0xbe65ba66	-0.22434387
160	0xbe4245e1	-0.18971969
161	0xbd33c3f8	-0.043888062
162	0x3e0b6023	0.13610892
163	0xbe3edf0b	-0.18639772
164	0x3d0fab93	0.035075735
165	0xbcf84a99	-0.030309008
166	0xbc3ca35c	-0.011513557
167	0x3ca6ffdc	0.020385675
168	0xbe145ca6	-0.14488468
169	0xbe180b0a	-0.14847961
170	0xba988475	-0.0011636155
171	0xbe307e47	-0.17235671
172	0x3d0cc111	0.03436381
173	0x3d390be4	0.045177355
174	0xbde5e0b4	-0.11224499
175	0xbcb6e0f9	-0.022324072
176	0x3abd853c	0.0014459263
177	0xbe1b38bf	-0.15158366
178	0xbd364995	-0.044503767
179	0x3d833b6c	0.06407818
180	0xbd9e7abe	-0.07738255
181	0xbd99e093	-0.07513537
182	0x3d85ed7e	0.06539439
183	0xbe1bf5d3	-0.15230493
184	0xbe0dfe87	-0.13866626
185	0x3e05bb64	0.13059765
186	0x3cfddae7	0.03098817
187	0xbd2482b2	-0.040163703
188	0xbdc5bbb0	-0.09654939
189	0x3dd03540	0.10166407
190	0x3d1e3032	0.03862018
191	0x3ca9096a	0.020634372
192	0xbe3b138b	-0.18269174
193	0x3cdef5e0	0.027216852
194	0x3d9e164d	0.07719097
195	0x3d60af16	0.054854475
196	0x3e2912d8	0.16511095
197	0xbd944fd5	-0.07241789
198	0xbe48b3f3	-0.19599895
199	0xbc1531d6	-0.00910612
200	0x3cc1e2ec	0.023667775
201	0xbd7961b0	-0.060884178
202	0x3d635b12	0.055506773
203	0xbd25d4c3	-0.04048611
204	0xbe082c14	-0.13298064
205	0x3cf2c415	0.029634515
206	0x3b96d132	0.0046025747
207	0x3d390aa1	0.045176152
208	0xbbf6c034	-0.0075302366
209	0x3d8bb5b8	0.068217695
210	0xbd46661f	-0.048437234
211	0x3cdbb162	0.026817981
212	0xbd976db0	-0.07393968
213	0xbc805968	-0.015667632
214	0x3cc362d3	0.023850834
215	0xbd314a7a	-0.043283917
216	0xbc8572d5	-0.016290108
217	0x3d73da12	0.05953414
218	0xbd80b141	-0.062838085
219	0xbda3b8c4	-0.079942256
220	0xbe1e342e	-0.15449592
221	0xbd16e506	-0.036839508
222	0x3e034181	0.12817957
223	0xbe118a18	-0.14212835
224	0xbd4ceb1e	-0.050028913
225	0x3dad7b35	0.084707655
226	0xbd93bb41	-0.0721345
227	0xbd348bca	-0.044078626
228	0x3e0e6941	0.13907339
229	0xbc556822	-0.0130253155
230	0x3dc42a85	0.095784225
231	0xbd535054	-0.05159028
232	0xbe604f39	-0.21905221
233	0x3d36e4d1	0.04465181
234	0xbddcfdf4	-0.10790625
235	0x3dfe0b78	0.12404531
236	0xbd82eed6	-0.063932106
237	0xbc5f8e23	-0.013644728
238	0xbdad4fd5	-0.084624924
239	0x3d9b006b	0.07568439
240	0x3cf1122d	0.029427612
241	0xbd1c372c	-0.038138554
242	0x3b2dce15	0.002652054
243	0x3d535191	0.05159146
244	0xbe0e7151	-0.13910414
245	0xbc95678e	-0.018237855
246	0xbe66fbed	-0.2255704
247	0x3daa1654	0.0830504
248	0x3c5e224f	0.0135579845
249	0x3cd9bdef	0.026579825
250	0x3c6a2c57	0.014292798
251	0x3df9b181	0.12192059
252	0x3d9e7fbc	0.07739207
253	0x3d75ba40	0.059992075
254	0xbd67d858	-0.056602806
255	0x3d4e18ea	0.05031673

lstm.weight_hh_l0 f4 [512, 128]
0	0xbd8759bb	-0.066089116
1	0x3d808e08	0.0627709
2	0x3c220d35	0.009890844
3	0xbe163717	-0.14669453
4	0x3c36d204	0.01115847
5	0x3d04b866	0.03240242
6	0x3cc78e2e	0.024359789
7	0xbd8a702e	-0.06759678
8	0x3da04481	0.07825566
9	0xbd2745cb	-0.040838044
10	0xbc2c762c	-0.010526221
11	0xbd202470	-0.03909725
12	0xbd9fb599	-0.07798309
13	0xbb9331f6	-0.00449204
14	0x3e097f9b	0.13427584
15	0x3cac3134	0.021019556
16	0x3cb6b883	0.022304779
17	0x3bbf546e	0.005838922
18	0x3cb743a6	0.022371124
19	0x3d3f48d2	0.046700306
20	0x3ce73cee	0.028227296
21	0x3d38a532	0.045079418
22	0xbd956acb	-0.0729576
23	0x3de473e3	0.11154916
24	0x3d02269b	0.0317751
25	0x3c9e7637	0.019343479
26	0xbc8c15c0	-0.017100215
27	0x3e3e4538	0.18581092
28	0x3c383e72	0.011245357
29	0x3dc89f9c	0.09796068
30	0xbd439d5b	-0.047757488
31	0x3d3bf0e2	0.04588402
32	0xbc6a2e34	-0.014293242
33	0x3dd1eb17	0.10249918
34	0xbc3652dd	-0.011128155
35	0x3d745d55	0.05965932
36	0xbab64e8b	-0.0013908906
37	0x3cb87e27	0.022521092
38	0x3da724fe	0.081613526
39	0xbd44f5a8	-0.04808584
40	0xbe0f558d	-0.13997479
41	0x3d966a51	0.07344497
42	0xbc92ce19	-0.01792054
43	0x3cd1bed2	0.025603686
44	0x3cbdf9c6	0.02319039
45	0x3d60eb30	0.054911792
46	0xbc45c399	-0.01207056
47	0x3daa80f3	0.08325376
48	0xbd1efb6d	-0.038813997
49	0xbc03ccbc	-0.008044418
50	0xbdb2694e	-0.087114915
51	0xbdcb46e8	-0.09925634
52	0xbd3d70f5	-0.046250302
53	0xbdff69eb	-0.12471374
54	0xbe2b22fc	-0.16712564
55	0x3d1e3c8d	0.038631964
56	0xbd12e759	-0.03586516
57	0xbdcd22f7	-0.10016435
58	0xbd841f1d	-0.06451247
59	0xbdd71d9e	-0.10503696
60	0xbd4f0a1a	-0.050546743
61	0x3d311922	0.04323686
62	0xbd3d870e	-0.046271376
63	0xbdae450b	-0.08509263
64	0xbd91381d	-0.07090781
65	0xbd859d69	-0.06524164
66	0x3d6a6c5a	0.05723224
67	0xbd114733	-0.03546829
68	0x3d439746	0.047751687
69	0xbd66e629	-0.05637184
70	0x3c472f11	0.012157218
71	0x3c76d21c	0.015064742
72	0xbe0e5eb0	-0.13903308
73	0x3da5720c	0.08078393
74	0xbd269dd7	-0.04067787
75	0x3c3c494d	0.011492086
76	0xbdd05280	-0.101719856
77	0xbcac238c	-0.021013044
78	0xbd94a2c0	-0.072576046
79	0xbd941df9	-0.07232279
80	0x3de91bf5	0.113822855
81	0x3baacdcd	0.0052125216
82	0x3c2e21c2	0.010628166
83	0xbd101358	-0.035174698
84	0xbc65d87a	-0.014028663
85	0xbdb2777d	-0.08714197
86	0x3d7d2063	0.061798465
87	0x3c3f09b2	0.011660026
88	0x3c83bbd7	0.01608078
89	0x3da4774d	0.08030567
90	0x3bf9aeda	0.007619721
91	0x3d808d28	0.062769234
92	0x3c467279	0.012112253
93	0xbc9d1215	-0.019173661
94	0x3c70e16d	0.014702183
95	0xbcef7fe3	-0.029235786
96	0xbd47a1d7	-0.048738327
97	0x3d160793	0.036628317
98	0xbd5a7329	-0.05333248
99	0x3d6674b5	0.056263644
100	0x3dd1dcdb	0.10247203
101	0x3c5d60f4	0.013511885
102	0xbd6cd738	-0.057822436
103	0xbd1b27ba	-0.037879683
104	0x3b8b5ae8	0.00425278
105	0x3d4abfe0	0.049499393
106	0x3c8ffa8c	0.017575525
107	0xbdefd5c1	-0.11710692
108	0xbbb32427	-0.005466956
109	0x3bcce8e7	0.00625335
110	0xbd8f40be	-0.069947705
111	0xbd065fd9	-0.03280625
112	0x3d2b5a79	0.04183433
113	0x3d8aa786	0.06770234
114	0xbc2db43a	-0.010602051
115	0x3b7494d3	0.0037320151
116	0xbcdcdcf0	-0.02696082
117	0x3d303586	0.043019794
118	0xbd866734	-0.06562653
119	0xbd9123ac	-0.07086882
120	0xbd10ca0c	-0.035348937
121	0x3db5b5f6	0.08872597
122	0x3d8b4076	0.06799404
123	0xbb6c4fb0	-0.003605824
124	0xbc9e78ff	-0.019344805
125	0xbda44537	-0.08021014
126	0xbafc5676	-0.0019251842
127	0x3dbd3e1f	0.09240364
128	0x3e18cfe8	0.1492306
129	0xbe3c5f3c	-0.18395704
130	0xbd6c3f25	-0.057677407
131	0x3d0786d8	0.03308758
132	0x3df3d920	0.11906648
133	0xbb366467	-0.002783084
134	0x3daa67b5	0.08320562
135	0xbd7660c7	-0.060150888
136	0xbcce2e8a	-0.025168676
137	0xbd473182	-0.0486312
138	0xbb434330	-0.0029794686
139	0x3adc26ea	0.0016796265
140	0xbd6f1559	-0.058369968
141	0xbde859e1	-0.11345268
142	0xbd990e37	-0.074734144
143	0xbd473c27	-0.04864135
144	0xbcde1d4e	-0.027113583
145	0xbc138f20	-0.009006292
146	0x3d2e2a59	0.042520855
147	0x3cb0ae06	0.021567356
148	0xbd2cbc72	-0.042171903
149	0x3d7dfd3b	0.062009078
150	0x3da3f2b4	0.08005276
151	0xbc797279	-0.015225046
152	0x3dc760aa	0.09735234
153	0x3d276bd8	0.040874332
154	0x3cc85eca	0.024459261
155	0xbc90443b	-0.01761066
156	0x3e04a05c	0.12951797
157	0xbddd5663	-0.108074926
158	0x3d895f3b	0.06707617
159	0x3cbc282e	0.022968378
160	0xba2cc3b0	-0.0006590439
161	0x3d80160c	0.06254205
162	0xbd568532	-0.05237312
163	0xbc895144	-0.016762383
164	0xbdd665a2	-0.10468604
165	0xbd6f0c26	-0.058361195
166	0x3dba0c16	0.090843365
167	0x3bb2dfd2	0.0054588104
168	0x3e079ed2	0.13244179
169	0x3d08ec99	0.033428762
170	0xbd951697	-0.07279699
171	0xbdba1108	-0.0908528
172	0x3cdd1e26	0.026991915
173	0x3d24bf7c	0.040221676
174	0x3d19b208	0.0375233
175	0x3d1e3c07	0.038631465
176	0x3b3d5e2c	0.0028895242
177	0x3e28258b	0.16420572
178	0x3d4c58c4	0.04988934
179	0x3ce8af84	0.028404005
180	0xbd1e6798	-0.038673013
181	0x3dca3331	0.09873045
182	0x3d3ec4aa	0.046574272
183	0x3d4f6452	0.050632782
184	0x3dc2d9cd	0.095141985
185	0x3c7f9ff5	0.015602102
186	0x3d534dc1	0.051587824
187	0x3d9d8de3	0.07693078
188	0x3d9a5f38	0.07537693
189	0x3c723ce8	0.014785029
190	0x3bab19c8	0.005221579
191	0xbbc56e81	-0.006025136
192	0x3e031303	0.12800221
193	0xbcdced2c	-0.026968561
194	0xbafa6e5c	-0.0019106376
195	0x3d1cf349	0.038317952
196	0xbd8f55e9	-0.06998808
197	0xbd345fac	-0.044036552
198	0x3db7b871	0.08970726
199	0xbd384ced	-0.044995237
200	0x3bda1d16	0.0066562993
201	0xbca543c8	-0.020173922
202	0x3b39bbcc	0.0028340695
203	0x3c91b246	0.017785203
204	0x3bb9fb50	0.0056757107
205	0xbdd80e0b	-0.105495535
206	0x3cf5f10e	0.03002217
207	0x3db651b6	0.08902304
208	0xbcc2a9b2	-0.023762558
209	0xbc364587	-0.011124975
210	0xbdd199ee	-0.10234438
211	0xbd2622b8	-0.040560454
212	0xbddd6eba	-0.10812135
213	0x3d6997a6	0.05702939
214	0x3dacd9e2	0.08439995
215	0x3dc3021a	0.09521885
216	0x3d90b365	0.07065467
217	0xbcbae622	-0.022814814
218	0xbcab0478	-0.020876154
219	0xbc7b048a	-0.015320906
220	0xbbb08648	-0.0053871013
221	0x3dae04be	0.08496998
222	0xbd91ae5e	-0.07113336
223	0xbda286c1	-0.079358585
224	0xbc4d413e	-0.012527762
225	0xbd1aabce	-0.037761502
226	0x3de1b811	0.11021436
227	0xbdca9708	-0.09892088
228	0x3d9db191	0.07699884
229	0xbda990cb	-0.0827957
230	0xbc030e1a	-0.007998968
231	0x3c91bd50	0.017790467
232	0x3b887258	0.0041640215
233	0x3d255e54	0.04037316
234	0xbdd7bbab	-0.10533842
235	0xbb984564	-0.004646944
236	0xbb949ab7	-0.004535045
237	0xbab1ca4c	-0.0013564317
238	0x3de47ac1	0.11156226
239	0x3d9d6035	0.07684366
240	0xbd270133	-0.040772628
241	0x3b349d96	0.002755975
242	0xbdba6386	-0.09101014
243	0xbd95e5a3	-0.0731919
244	0x3c451559	0.012029015
245	0xbe2ae683	-0.16689496
246	0xbd2577c3	-0.040397417
247	0x3c6fb643	0.014630857
248	0x3dcdf02a	0.10055573
249	0x3d7da7f1	0.06192774
250	0x3caa4147	0.02078308
251	0x3d988da4	0.07448891
252	0x3c77257d	0.0150846215
253	0xbd90207c	-0.07037446
254	0xbab8772f	-0.0014073605
255	0xbd1dcdc4	-0.03852631

lstm.bias_ih_l0 f4 [512]
0	0xbd55638a	-0.05209688
1	0xbcbf0e62	-0.023322288
2	0xbca96e4b	-0.020682475
3	0x3c644121	0.013931544
4	0xbcc263cb	-0.023729226
5	0xbd43a6b8	-0.047766417
6	0xbc067ecd	-0.008208943
7	0xbc9a9909	-0.018871801
8	0x3d15241f	0.0364114
9	0xbd705fda	-0.05868516
10	0xbd03161b	-0.032003503
11	0xbdab459f	-0.083628885
12	0xbd746dfd	-0.059675205
13	0xbcadc4c1	-0.021211984
14	0x3c02507d	0.00795376
15	0xbd43f890	-0.04784447
16	0x3ad412aa	0.0016179879
17	0xbd7621ae	-0.060090713
18	0x3d0ffff0	0.03515619
19	0xbd593caa	-0.05303637
20	0xbd27fb1d	-0.041010965
21	0xbd4ac7b1	-0.049506847
22	0xbc390591	-0.011292831
23	0x3bfe6916	0.007763992
24	0xbcc0905f	-0.023506342
25	0xbd0884da	-0.033329822
26	0xbd321559	-0.04347739
27	0xbd83e5f2	-0.06440343
28	0xbce87d03	-0.028379923
29	0xbd88b9a6	-0.06676035
30	0xbdc2ea89	-0.0951739
31	0x3a7959d2	0.00095119805
32	0xbcd7161f	-0.026255665
33	0xbd885b4f	-0.06658041
34	0x3d9a6cb6	0.07540266
35	0x3c1d5227	0.009602106
36	0xbdd85fc7	-0.10565143
37	0x3c70662d	0.014672798
38	0xbcf9a82c	-0.030475698
39	0xbd8ecfaa	-0.069732025
40	0xbd3750d9	-0.044754837
41	0xbda3de93	-0.08001437
42	0xbd853081	-0.06503392
43	0xbd7fcac3	-0.062449228
44	0xbd115f7a	-0.035491444
45	0x3be236f6	0.0069035245
46	0xbc5be557	-0.013421378
47	0xbd5b1505	-0.053486843
48	0x3c3fd34c	0.011708092
49	0xbd957127	-0.07296973
50	0xbc939b43	-0.01801837
51	0xbd3dd9f9	-0.046350453
52	0xbda3600d	-0.079773046
53	0x3ca6a7dd	0.020343715
54	0x38a5ef10	7.912342e-05
55	0x3ce1376c	0.027492248
56	0xbcab6f08	-0.020926967
57	0xbc643439	-0.0139284665
58	0xbd452dcd	-0.048139382
59	0xbca5beac	-0.020232521
60	0xbd3f2405	-0.04666521
61	0xbda9873f	-0.08277749
62	0xbcedeb60	-0.0290429
63	0xbbe969bd	-0.0071232007
64	0xbd807b07	-0.062734656
65	0xbbff9375	-0.0077995607
66	0x3cd0175c	0.025401764
67	0x3b6d45f7	0.0036205032
68	0xbd83a14e	-0.06427251
69	0x3c1bf71b	0.009519364
70	0xbca4f1ee	-0.020134892
71	0xbd0741e7	-0.033021834
72	0xbc9e7578	-0.019343123
73	0xbd41998a	-0.047265567
74	0xbd874231	-0.06604422
75	0xbcfde828	-0.03099449
76	0xbd6676d5	-0.05626567
77	0xbcb2ad13	-0.021811044
78	0xbd8ae0b3	-0.06781139
79	0xbcc1596e	-0.023602214
80	0xbd0e1786	-0.034690402
81	0xbbdcb28d	-0.006735152
82	0xbd0a4ee6	-0.03376665
83	0xbd1f1839	-0.03884146
84	0x3c270057	0.010192952
85	0xbbc7cad2	-0.006097176
86	0xbd3b4ebf	-0.045729395
87	0x3cc4d5cf	0.024027733
88	0xbcd1e314	-0.025620975
89	0xbd015829	-0.031578217
90	0xbc524882	-0.01283467
91	0xbcc9e184	-0.024643667
92	0xbcfd0b7e	-0.030889269
93	0xbc4d7548	-0.012540169
94	0xbd55fd63	-0.0522436
95	0x3bf40f24	0.007448094
96	0xbdd78bb3	-0.105246924
97	0xbd41cb23	-0.047312867
98	0xbcd2e20b	-0.025742551
99	0xbd4507ee	-0.048103265
100	0xbd523d62	-0.05132807
101	0xbd1ce8ec	-0.03830807
102	0x3b2ce657	0.002638241
103	0xbd007ae2	-0.03136719
104	0xbd0004ac	-0.031254455
105	0xbd869b6a	-0.06572612
106	0xbcce7b74	-0.025205351
107	0xbdc7b542	-0.09751369
108	0xbda1b992	-0.07896723
109	0xbcc6e47f	-0.024278877
110	0x3aa8b4b1	0.0012871233
111	0xbb2490ee	-0.00251108
112	0x3c1930b4	0.009349991
113	0xbd8f86f7	-0.070081644
114	0xbd1093da	-0.035297252
115	0xbd28ed39	-0.04124186
116	0xbd1acc3e	-0.037792437
117	0xbdd708b8	-0.1049971
118	0x3c9991f0	0.018746346
119	0xbb5ebf76	-0.0033988631
120	0xbd65e2f0	-0.056124628
121	0xbd1877c2	-0.037223585
122	0xbdbbe0b6	-0.091737196
123	0xbd714af5	-0.058909375
124	0xbd5bde2d	-0.05367868
125	0xbc7f298a	-0.0155738685
126	0xbdb1713d	-0.086641766
127	0xbd710298	-0.058840364
128	0x3f712f46	0.9421276
129	0x3f8098b5	1.0046602
130	0x3f776fc3	0.9665491
131	0x3f8648a3	1.0490917
132	0x3f7457b7	0.9544634
133	0x3f6fec3b	0.93719834
134	0x3f7bbec5	0.98337966
135	0x3f784c91	0.9699183
136	0x3f8017d5	1.0007273
137	0x3f6e177a	0.9300457
138	0x3f778449	0.96686226
139	0x3f68ad3c	0.90889335
140	0x3f6f016e	0.93361557
141	0x3f744653	0.95419806
142	0x3f7ed772	0.99547493
143	0x3f74e3f3	0.9566032
144	0x3f7d530e	0.98954856
145	0x3f6a903e	0.91626346
146	0x3f8009d5	1.0003
147	0x3f6f366e	0.9344243
148	0x3f711b73	0.9418251
149	0x3f62a7e5	0.88537437
150	0x3f81a0da	1.0127213
151	0x3f795ee3	0.9741041
152	0x3f7d1b32	0.9886962
153	0x3f7f4af5	0.9972375
154	0x3f7460f8	0.9546046
155	0x3f707a7b	0.9393689
156	0x3f71a809	0.94397026
157	0x3f69de46	0.9135479
158	0x3f6d14dd	0.9260996
159	0x3f80cc15	1.0062281
160	0x3f76727d	0.96268445
161	0x3f68b669	0.90903336
162	0x3f87611b	1.0576509
163	0x3f7f1b48	0.99651
164	0x3f649482	0.89289105
165	0x3f819d97	1.0126218
166	0x3f742920	0.9537525
167	0x3f629431	0.8850737
168	0x3f69d459	0.9133964
169	0x3f705298	0.9387603
170	0x3f6c2e21	0.9225789
171	0x3f69b50d	0.91291887
172	0x3f752710	0.9576273
173	0x3f7f9f7e	0.9985274
174	0x3f786339	0.970264
175	0x3f6d1193	0.9260494
176	0x3f7bf975	0.98427516
177	0x3f66d07a	0.9016186
178	0x3f781ece	0.96922004
179	0x3f752f2d	0.9577511
180	0x3f6c2f50	0.92259693
181	0x3f6e8602	0.9317323
182	0x3f805072	1.002455
183	0x3f7d38bf	0.9891471
184	0x3f6f74bf	0.93537515
185	0x3f6e9ae0	0.9320507
186	0x3f70070e	0.93760765
187	0x3f7ec16c	0.9951389
188	0x3f7556a2	0.95835316
189	0x3f697910	0.9120035
190	0x3f75d52c	0.960284
191	0x3f7bc722	0.9835073
192	0x3f6be2f4	0.9214318
193	0x3f800822	1.0002482
194	0x3f821961	1.0163995
195	0x3f7d4b02	0.9894258
196	0x3f6da5fb	0.9283139
197	0x3f7dce16	0.9914259
198	0x3f792370	0.973197
199	0x3f765c71	0.96234804
200	0x3f7b98e0	0.98280144
201	0x3f74685a	0.9547173
202	0x3f685efc	0.90769935
203	0x3f76163e	0.9612769
204	0x3f712fca	0.94213545
205	0x3f6cdffa	0.9252926
206	0x3f6f38b3	0.9344589
207	0x3f75d288	0.9602437
208	0x3f718d06	0.9435581
209	0x3f7f3c70	0.99701595
210	0x3f74e8fe	0.9566802
211	0x3f73adc4	0.9518702
212	0x3f821d5f	1.0165213
213	0x3f7a39ee	0.97744644
214	0x3f6fb565	0.9363616
215	0x3f80d697	1.0065488
216	0x3f725148	0.94655275
217	0x3f6be2e6	0.92143095
218	0x3f7a7156	0.97829187
219	0x3f79e0f6	0.9760889
220	0x3f7400a6	0.9531349
221	0x3f77fd8b	0.9687125
222	0x3f732f20	0.9499378
223	0x3f7c7e08	0.9862981
224	0x3f69254a	0.91072524
225	0x3f751236	0.9573091
226	0x3f789973	0.97109145
227	0x3f721a88	0.94571733
228	0x3f734ec8	0.95042086
229	0x3f722c79	0.9459911
230	0x3f86077d	1.0471035
231	0x3f78cb22	0.97184956
232	0x3f75c68b	0.9600608
233	0x3f71fb64	0.94524217
234	0x3f794819	0.9737564
235	0x3f6634cf	0.8992433
236	0x3f6750ed	0.9035786
237	0x3f7a7f80	0.978508
238	0x3f808569	1.0040714
239	0x3f7d7a2c	0.99014544
240	0x3f7e725f	0.99393266
241	0x3f69baf6	0.91300905
242	0x3f7604e6	0.96101224
243	0x3f7236fc	0.9461515
244	0x3f77ec10	0.9684458
245	0x3f63cd26	0.88984907
246	0x3f81c024	1.0136762
247	0x3f7ec962	0.99526036
248	0x3f71f31a	0.9451157
249	0x3f731a96	0.9496244
250	0x3f67a402	0.9048463
251	0x3f6e3b52	0.93059266
252	0x3f6f8b56	0.93571985
253	0x3f75a5c2	0.9595605
254	0x3f64b4a4	0.89338136
255	0x3f6d2373	0.92632216

lstm.bias_hh_l0 f4 [512]
0	0xbd55638a	-0.05209688
1	0xbcbf0e62	-0.023322288
2	0xbca96e4b	-0.020682475
3	0x3c644121	0.013931544
4	0xbcc263cb	-0.023729226
5	0xbd43a6b8	-0.047766417
6	0xbc067ecd	-0.008208943
7	0xbc9a9909	-0.018871801
8	0x3d15241f	0.0364114
9	0xbd705fda	-0.05868516
10	0xbd03161b	-0.032003503
11	0xbdab459f	-0.083628885
12	0xbd746dfd	-0.059675205
13	0xbcadc4c1	-0.021211984
14	0x3c02507d	0.00795376
15	0xbd43f890	-0.04784447
16	0x3ad412aa	0.0016179879
17	0xbd7621ae	-0.060090713
18	0x3d0ffff0	0.03515619
19	0xbd593caa	-0.05303637
20	0xbd27fb1d	-0.041010965
21	0xbd4ac7b1	-0.049506847
22	0xbc390591	-0.011292831
23	0x3bfe6916	0.007763992
24	0xbcc0905f	-0.023506342
25	0xbd0884da	-0.033329822
26	0xbd321559	-0.04347739
27	0xbd83e5f2	-0.06440343
28	0xbce87d03	-0.028379923
29	0xbd88b9a6	-0.06676035
30	0xbdc2ea89	-0.0951739
31	0x3a7959d2	0.00095119805
32	0xbcd7161f	-0.026255665
33	0xbd885b4f	-0.06658041
34	0x3d9a6cb6	0.07540266
35	0x3c1d5227	0.009602106
36	0xbdd85fc7	-0.10565143
37	0x3c70662d	0.014672798
38	0xbcf9a82c	-0.030475698
39	0xbd8ecfaa	-0.069732025
40	0xbd3750d9	-0.044754837
41	0xbda3de93	-0.08001437
42	0xbd853081	-0.06503392
43	0xbd7fcac3	-0.062449228
44	0xbd115f7a	-0.035491444
45	0x3be236f6	0.0069035245
46	0xbc5be557	-0.013421378
47	0xbd5b1505	-0.053486843
48	0x3c3fd34c	0.011708092
49	0xbd957127	-0.07296973
50	0xbc939b43	-0.01801837
51	0xbd3dd9f9	-0.046350453
52	0xbda3600d	-0.079773046
53	0x3ca6a7dd	0.020343715
54	0x38a5ef10	7.912342e-05
55	0x3ce1376c	0.027492248
56	0xbcab6f08	-0.020926967
57	0xbc643439	-0.0139284665
58	0xbd452dcd	-0.048139382
59	0xbca5beac	-0.020232521
60	0xbd3f2405	-0.04666521
61	0xbda9873f	-0.08277749
62	0xbcedeb60	-0.0290429
63	0xbbe969bd	-0.0071232007
64	0xbd807b07	-0.062734656
65	0xbbff9375	-0.0077995607
66	0x3cd0175c	0.025401764
67	0x3b6d45f7	0.0036205032
68	0xbd83a14e	-0.06427251
69	0x3c1bf71b	0.009519364
70	0xbca4f1ee	-0.020134892
71	0xbd0741e7	-0.033021834
72	0xbc9e7578	-0.019343123
73	0xbd41998a	-0.047265567
74	0xbd874231	-0.06604422
75	0xbcfde828	-0.03099449
76	0xbd6676d5	-0.05626567
77	0xbcb2ad13	-0.021811044
78	0xbd8ae0b3	-0.06781139
79	0xbcc1596e	-0.023602214
80	0xbd0e1786	-0.034690402
81	0xbbdcb28d	-0.006735152
82	0xbd0a4ee6	-0.03376665
83	0xbd1f1839	-0.03884146
84	0x3c270057	0.010192952
85	0xbbc7cad2	-0.006097176
86	0xbd3b4ebf	-0.045729395
87	0x3cc4d5cf	0.024027733
88	0xbcd1e314	-0.025620975
89	0xbd015829	-0.031578217
90	0xbc524882	-0.01283467
91	0xbcc9e184	-0.024643667
92	0xbcfd0b7e	-0.030889269
93	0xbc4d7548	-0.012540169
94	0xbd55fd63	-0.0522436
95	0x3bf40f24	0.007448094
96	0xbdd78bb3	-0.105246924
97	0xbd41cb23	-0.047312867
98	0xbcd2e20b	-0.025742551
99	0xbd4507ee	-0.048103265
100	0xbd523d62	-0.05132807
101	0xbd1ce8ec	-0.03830807
102	0x3b2ce657	0.002638241
103	0xbd007ae2	-0.03136719
104	0xbd0004ac	-0.031254455
105	0xbd869b6a	-0.06572612
106	0xbcce7b74	-0.025205351
107	0xbdc7b542	-0.09751369
108	0xbda1b992	-0.07896723
109	0xbcc6e47f	-0.024278877
110	0x3aa8b4b1	0.0012871233
111	0xbb2490ee	-0.00251108
112	0x3c1930b4	0.009349991
113	0xbd8f86f7	-0.070081644
114	0xbd1093da	-0.035297252
115	0xbd28ed39	-0.04124186
116	0xbd1acc3e	-0.037792437
117	0xbdd708b8	-0.1049971
118	0x3c9991f0	0.018746346
119	0xbb5ebf76	-0.0033988631
120	0xbd65e2f0	-0.056124628
121	0xbd1877c2	-0.037223585
122	0xbdbbe0b6	-0.091737196
123	0xbd714af5	-0.058909375
124	0xbd5bde2d	-0.05367868
125	0xbc7f298a	-0.0155738685
126	0xbdb1713d	-0.086641766
127	0xbd710298	-0.058840364
128	0x3f712f46	0.9421276
129	0x3f8098b5	1.0046602
130	0x3f776fc3	0.9665491
131	0x3f8648a3	1.0490917
132	0x3f7457b7	0.9544634
133	0x3f6fec3b	0.93719834
134	0x3f7bbec5	0.98337966
135	0x3f784c91	0.9699183
136	0x3f8017d5	1.0007273
137	0x3f6e177a	0.9300457
138	0x3f778449	0.96686226
139	0x3f68ad3c	0.90889335
140	0x3f6f016e	0.93361557
141	0x3f744653	0.95419806
142	0x3f7ed772	0.99547493
143	0x3f74e3f3	0.9566032
144	0x3f7d530e	0.98954856
145	0x3f6a903e	0.91626346
146	0x3f8009d5	1.0003
147	0x3f6f366e	0.9344243
148	0x3f711b73	0.9418251
149	0x3f62a7e5	0.88537437
150	0x3f81a0da	1.0127213
151	0x3f795ee3	0.9741041
152	0x3f7d1b32	0.9886962
153	0x3f7f4af5	0.9972375
154	0x3f7460f8	0.9546046
155	0x3f707a7b	0.9393689
156	0x3f71a809	0.94397026
157	0x3f69de46	0.9135479
158	0x3f6d14dd	0.9260996
159	0x3f80cc15	1.0062281
160	0x3f76727d	0.96268445
161	0x3f68b669	0.90903336
162	0x3f87611b	1.0576509
163	0x3f7f1b48	0.99651
164	0x3f649482	0.89289105
165	0x3f819d97	1.0126218
166	0x3f742920	0.9537525
167	0x3f629431	0.8850737
168	0x3f69d459	0.9133964
169	0x3f705298	0.9387603
170	0x3f6c2e21	0.9225789
171	0x3f69b50d	0.91291887
172	0x3f752710	0.9576273
173	0x3f7f9f7e	0.9985274
174	0x3f786339	0.970264
175	0x3f6d1193	0.9260494
176	0x3f7bf975	0.98427516
177	0x3f66d07a	0.9016186
178	0x3f781ece	0.96922004
179	0x3f752f2d	0.9577511
180	0x3f6c2f50	0.92259693
181	0x3f6e8602	0.9317323
182	0x3f805072	1.002455
183	0x3f7d38bf	0.9891471
184	0x3f6f74bf	0.93537515
185	0x3f6e9ae0	0.9320507
186	0x3f70070e	0.93760765
187	0x3f7ec16c	0.9951389
188	0x3f7556a2	0.95835316
189	0x3f697910	0.9120035
190	0x3f75d52c	0.960284
191	0x3f7bc722	0.9835073
192	0x3f6be2f4	0.9214318
193	0x3f800822	1.0002482
194	0x3f821961	1.0163995
195	0x3f7d4b02	0.9894258
196	0x3f6da5fb	0.9283139
197	0x3f7dce16	0.9914259
198	0x3f792370	0.973197
199	0x3f765c71	0.96234804
200	0x3f7b98e0	0.98280144
201	0x3f74685a	0.9547173
202	0x3f685efc	0.90769935
203	0x3f76163e	0.9612769
204	0x3f712fca	0.94213545
205	0x3f6cdffa	0.9252926
206	0x3f6f38b3	0.9344589
207	0x3f75d288	0.9602437
208	0x3f718d06	0.9435581
209	0x3f7f3c70	0.99701595
210	0x3f74e8fe	0.9566802
211	0x3f73adc4	0.9518702
212	0x3f821d5f	1.0165213
213	0x3f7a39ee	0.97744644
214	0x3f6fb565	0.9363616
215	0x3f80d697	1.0065488
216	0x3f725148	0.94655275
217	0x3f6be2e6	0.92143095
218	0x3f7a7156	0.97829187
219	0x3f79e0f6	0.9760889
220	0x3f7400a6	0.9531349
221	0x3f77fd8b	0.9687125
222	0x3f732f20	0.9499378
223	0x3f7c7e08	0.9862981
224	0x3f69254a	0.91072524
225	0x3f751236	0.9573091
226	0x3f789973	0.97109145
227	0x3f721a88	0.94571733
228	0x3f734ec8	0.95042086
229	0x3f722c79	0.9459911
230	0x3f86077d	1.0471035
231	0x3f78cb22	0.97184956
232	0x3f75c68b	0.9600608
233	0x3f71fb64	0.94524217
234	0x3f794819	0.9737564
235	0x3f6634cf	0.8992433
236	0x3f6750ed	0.9035786
237	0x3f7a7f80	0.978508
238	0x3f808569	1.0040714
239	0x3f7d7a2c	0.99014544
240	0x3f7e725f	0.99393266
241	0x3f69baf6	0.91300905
242	0x3f7604e6	0.96101224
243	0x3f7236fc	0.9461515
244	0x3f77ec10	0.9684458
245	0x3f63cd26	0.88984907
246	0x3f81c024	1.0136762
247	0x3f7ec962	0.99526036
248	0x3f71f31a	0.9451157
249	0x3f731a96	0.9496244
250	0x3f67a402	0.9048463
251	0x3f6e3b52	0.93059266
252	0x3f6f8b56	0.93571985
253	0x3f75a5c2	0.9595605
254	0x3f64b4a4	0.89338136
255	0x3f6d2373	0.92632216

fc.weight f4 [1, 128]
0	0xbd82d5ea	-0.06388457
1	0x3e043158	0.12909448
2	0xbcc63f16	-0.024200004
3	0x3d93891d	0.07203887
4	0xbd9bb8c8	-0.076036036
5	0x3d7ed0fe	0.06221103
6	0xbcb4a201	-0.022049906
7	0xbd6ab20d	-0.05729871
8	0x3e24bd9e	0.16087958
9	0xbe04270a	-0.12905517
10	0xbdfee4d4	-0.12445989
11	0x3cb71342	0.02234805
12	0x3e41ee0a	0.18938461
13	0x3dc6dd55	0.097101845
14	0x3c62c7d1	0.013841585
15	0x3dbb1b77	0.09136098
16	0x3e9448d3	0.2896181
17	0xbd9f49c5	-0.07777742
18	0x3dd85492	0.105630055
19	0x3d902f25	0.07040242
20	0x3d985c2c	0.074394554
21	0xbc83ba88	-0.016080156
22	0xbdbe6c54	-0.09298006
23	0x3e12b9ff	0.14328764
24	0x3d081636	0.033224307
25	0x3c2d013e	0.010559378
26	0x3d2af284	0.041735187
27	0xbd25fcba	-0.040524222
28	0xbe10f839	-0.1415719
29	0x3e66fb76	0.22556862
30	0x3c77b022	0.015117677
31	0xbda4b2ca	-0.08041914
32	0x3c3d16ca	0.011541078
33	0xbe27ad04	-0.16374594
34	0x3d10bf04	0.035338417
35	0xbe4d8910	-0.20071816
36	0xbcb390f5	-0.021919707
37	0xbd035fe6	-0.032073878
38	0xbd8979ab	-0.067126594
39	0xbd0a7dc8	-0.03381136
40	0x3cc342a7	0.023835493
41	0xbddd21d9	-0.107974716
42	0xbdce93ab	-0.10086759
43	0x3e15b4e0	0.1461978
44	0xbdbb068f	-0.0913211
45	0x3dd5c992	0.10438837
46	0x3d949e68	0.07256776
47	0x3d40fb96	0.04711493
48	0x3cddd9d3	0.027081406
49	0x3e775791	0.24154498
50	0xbe15fe52	-0.14647797
51	0x3d844e05	0.064601935
52	0xbe72bab6	-0.23704037
53	0xbd819b92	-0.06328501
54	0xbe78bfc0	-0.24291897
55	0x3dcd4315	0.100225605
56	0x3db235de	0.087016806
57	0x3d858a43	0.06520512
58	0xbc999d77	-0.018751843
59	0x3de5c2fb	0.1121883
60	0x3cd21670	0.025645465
61	0x3d1e0658	0.03858027
62	0x3d092db4	0.03349085
63	0xbd86ca97	-0.0658161
64	0x3daac69e	0.083386645
65	0x3dacbafc	0.08434102
66	0xbe473bcc	-0.19456404
67	0xbc9848fe	-0.018589493
68	0xbd4742b6	-0.048647605
69	0x3e922996	0.28547353
70	0x3be3c736	0.006951238
71	0xbdc013b7	-0.0937876
72	0xbd253f73	-0.040343713
73	0x3dcf1050	0.10110533
74	0xbdeacdab	-0.11465009
75	0xbe522d09	-0.20524992
76	0xbc14ff05	-0.0090940045
77	0x3da5e123	0.08099582
78	0x3e39be5f	0.18139027
79	0xbdfa2dd4	-0.12215772
80	0xbcc499c2	-0.023999099
81	0x3d45ef12	0.0483237
82	0x3df782cd	0.12085495
83	0xbd0d5bf2	-0.034511514
84	0x3d94e9ea	0.07271178
85	0xbd64ec39	-0.055889342
86	0x3da0a610	0.07844174
87	0xbe3e1760	-0.18563604
88	0xbe4c78ec	-0.19968003
89	0xbdec86a8	-0.11549121
90	0xbe1a76fc	-0.15084451
91	0x3e345775	0.17611487
92	0xbaf6f259	-0.0018840536
93	0xbd2bf64c	-0.041982934
94	0xbcdcde2e	-0.026961412
95	0x3d843c5b	0.064568244
96	0x3e095543	0.13411431
97	0x3c438aec	0.011934977
98	0x3d2033ff	0.039112087
99	0x3d61b06e	0.055099897
100	0xbd37846c	-0.04480402
101	0x3d94047d	0.072274186
102	0x3d338dab	0.043836277
103	0x3cfc358a	0.030787248
104	0x3d881d9b	0.06646272
105	0x3df86c0f	0.121299855
106	0xbd520b51	-0.051280323
107	0x3d92059f	0.071299784
108	0x3d48578d	0.04891162
109	0xbdc4f3a0	-0.0961678
110	0xbd414572	-0.04718537
111	0x3ce1a211	0.0275431
112	0x3dc31303	0.095251106
113	0xbd9e5bae	-0.0773233
114	0xbe28d0c2	-0.16485885
115	0x3de90a41	0.11378909
116	0xbdf22164	-0.11822775
117	0xbcaad860	-0.020855129
118	0x3d911e38	0.07085842
119	0xbdb4191b	-0.08793851
120	0x3dbbccf0	0.09169948
121	0xbe7a19fa	-0.24423972
122	0xbc1e38d1	-0.009657101
123	0x3e5d3ca1	0.2160516
124	0x3dc2c5f2	0.09510411
125	0xbdbb65d3	-0.09150281
126	0x3dfa1d0a	0.1221257
127	0x3d52f324	0.05150141

exp_avg f4 [512, 3]
0	0x39930014	0.00028038083
1	0x393f8bfa	0.00018267325
2	0xb7e9b544	-2.7860173e-05
3	0x3a59b26e	0.0008304481
4	0x3a01b6ac	0.00049481797
5	0xb8a34098	-7.784477e-05
6	0x3901ee25	0.00012391114
7	0x38ae09af	8.29877e-05
8	0x38782a10	5.916698e-05
9	0x37c86dca	2.3892982e-05
10	0x3800a87e	3.06745e-05
11	0xb6035f70	-1.9576073e-06
12	0x39871569	0.00025765158
13	0x395a6f05	0.00020831458
14	0xb62835d8	-2.5065292e-06
15	0xb8a4d825	-7.8603895e-05
16	0xb83f33b3	-4.5586097e-05
17	0x37b21645	2.1229624e-05
18	0x38382be8	4.390991e-05
19	0x382b0a37	4.077909e-05
20	0x36bac594	5.566233e-06
21	0xb83600b5	-4.339284e-05
22	0xb859b416	-5.190455e-05
23	0xb72bbfd6	-1.02370595e-05
24	0xb88b7861	-6.650459e-05
25	0xb893650b	-7.028327e-05
26	0xb77f4d5a	-1.5217194e-05
27	0x39d61ff5	0.0004084107
28	0x390d1f23	0.00013458407
29	0xb89d41a0	-7.498567e-05
30	0x386c367a	5.631752e-05
31	0x384d4a2b	4.8944883e-05
32	0x3618371a	2.2681838e-06
33	0x39376a8a	0.00017491929
34	0x390956f6	0.00013097734
35	0x368803ae	4.053544e-06
36	0x39c2c336	0.00037148007
37	0x3996e54e	0.00028781075
38	0xb80c3d84	-3.3435892e-05
39	0xb8b3c709	-8.572458e-05
40	0xb8abdc24	-8.19492e-05
41	0xb64d5716	-3.059807e-06
42	0x376d7f30	1.4155914e-05
43	0x3756e967	1.2809737e-05
44	0x36174329	2.2539846e-06
45	0xb970e831	-0.00022974682
46	0xb918aedd	-0.00014560991
47	0x34495f50	1.8754258e-07
48	0x3a3280ea	0.0006809371
49	0x39a0f37c	0.00030698988
50	0xb9d0196c	-0.00039691792
51	0xb6ea3370	-6.9797316e-06
52	0xb827981e	-3.9957573e-05
53	0x37af907f	2.0928912e-05
54	0x390d2838	0.0001346179
55	0x3917f1ac	0.00014490512
56	0x38347a9d	4.3029537e-05
57	0xb9365b50	-0.00017390889
58	0xb8e7dd5f	-0.00011056172
59	0x3889ac09	6.564713e-05
60	0x389131f6	6.923445e-05
61	0x3876769b	5.876143e-05
62	0xb8482b84	-4.7724243e-05
63	0x388b77ac	6.650327e-05
64	0x3885e514	6.384603e-05
65	0x372f87de	1.0462447e-05
66	0x38824386	6.21146e-05
67	0x386f473e	5.704839e-05
68	0x370c3d23	8.358885e-06
69	0x3a96939e	0.0011488085
70	0x3a2cf97d	0.0006598456
71	0xb8655c98	-5.468409e-05
72	0x3a05b492	0.00051004544
73	0x3995ac02	0.0002854765
74	0xb84301a7	-4.649316e-05
75	0x388ffd24	6.8659225e-05
76	0x384b7baa	4.8514143e-05
77	0x375dcf92	1.3220955e-05
78	0x38f92b7c	0.00011881345
79	0x389570b6	7.125868e-05
80	0xb49cd140	-2.9209514e-07
81	0xb7ed9d2d	-2.8325792e-05
82	0xb73bb2e0	-1.1187716e-05
83	0xb7a8c8b2	-2.0120617e-05
84	0x371de720	9.411742e-06
85	0xb80c913c	-3.351386e-05
86	0x37398b48	1.1059288e-05
87	0x39b9de65	0.00035451647
88	0x3935894a	0.0001731265
89	0xb866cb3b	-5.5025546e-05
90	0xb7c89bfc	-2.3914494e-05
91	0x376f7648	1.427305e-05
92	0xb7878bba	-1.615832e-05
93	0x3a03c525	0.000502663
94	0x399b746e	0.0002965065
95	0xb95f123d	-0.00021273732
96	0x3958a02a	0.00020659031
97	0x3925fb56	0.00015829256
98	0x375cb98f	1.3156226e-05
99	0xb9fff97c	-0.0004882327
100	0xb9924339	-0.00027897375
101	0x380ad5de	3.3100943e-05
102	0xb7b73c59	-2.1843402e-05
103	0xb7a9f935	-2.0262416e-05
104	0xb692bfec	-4.3734817e-06
105	0xb9a69c63	-0.00031778504
106	0xb999a426	-0.00029304734
107	0xb7e2c331	-2.7032193e-05
108	0xb7c2d451	-2.322547e-05
109	0xb7970640	-1.8003513e-05
110	0x36a102d2	4.7985022e-06
111	0x38544629	5.061008e-05
112	0x38452e86	4.701179e-05
113	0x37158e7f	8.9142695e-06
114	0x39aeb8bc	0.00033325504
115	0x399feff2	0.00030505616
116	0x3816bca5	3.5938476e-05
117	0x38c6f25b	9.486518e-05
118	0x389f75ec	7.6036755e-05
119	0xb530e6e0	-6.5901077e-07
120	0x39529d01	0.00020085649
121	0x3936332e	0.00017375938
122	0xb7606bc4	-1.3376532e-05
123	0x39886a79	0.0002601927
124	0x394d8642	0.00019600338
125	0xb6665a60	-3.4325276e-06
126	0xb6e2f8e0	-6.7642977e-06
127	0x3901fa7c	0.00012395711
128	0x38d1ae15	9.998322e-05
129	0x391b65ce	0.00014819877
130	0x39192916	0.00014606523
131	0x3814e020	3.5494682e-05
132	0x39bad316	0.00035633956
133	0x39231808	0.00015553844
134	0xb7e37502	-2.7114995e-05
135	0xba362658	-0.00069484627
136	0xb9bdd320	-0.0003620619
137	0x389846c5	7.261107e-05
138	0x388e5bb6	6.78817e-05
139	0x38844336	6.3067695e-05
140	0x36e06e8c	6.6885896e-06
141	0x38b4df9f	8.6247215e-05
142	0x38584a38	5.1567535e-05
143	0xb7f39f09	-2.9041914e-05
144	0x38048a08	3.1599804e-05
145	0x3806e2d0	3.2159325e-05
146	0x36c6061d	5.9015715e-06
147	0xb9bfd6ea	-0.00036590482
148	0xb9fc298a	-0.00048096135
149	0xb8f56938	-0.00011702109
150	0x394e7cbc	0.00019692158
151	0x3894481c	7.070621e-05
152	0xb86ac988	-5.5977638e-05
153	0xb8aaa345	-8.136643e-05
154	0xb81489c8	-3.541427e-05
155	0xb701f524	-7.746075e-06
156	0x3a802d7e	0.0009779183
157	0x39feeeac	0.0004862448
158	0xb8e7fb59	-0.000110617555
159	0x384f756d	4.9462007e-05
160	0x3885598f	6.358616e-05
161	0x384240ac	4.6313435e-05
162	0x3a26df7e	0.00063657004
163	0x39d75f4a	0.00041078991
164	0xb937b7ec	-0.00017520756
165	0x38aebfb7	8.332676e-05
166	0x36c2b5f9	5.802835e-06
167	0xb80d546c	-3.3695644e-05
168	0x391bc0e0	0.00014853803
169	0x391dd167	0.00015050695
170	0x37e5e81c	2.7407012e-05
171	0x389dbc1e	7.521383e-05
172	0x389c7f6f	7.462396e-05
173	0x3787d3df	1.6191914e-05
174	0xb9c3ad2b	-0.00037322319
175	0xb96e676e	-0.0002273598
176	0x380c0994	3.338752e-05
177	0x391b8081	0.00014829823
178	0x3905cd6b	0.00012760393
179	0x37a31f50	1.9445695e-05
180	0x3805dd04	3.1915508e-05
181	0x36eb8c50	7.0198803e-06
182	0xb7b0318a	-2.1003903e-05
183	0x3916177c	0.00014313863
184	0x39038172	0.00012541356
185	0xb84e8c5b	-4.9244944e-05
186	0x399c663b	0.00029830806
187	0x39582397	0.00020612623
188	0xb8af579a	-8.360967e-05
189	0x3897ebad	7.244139e-05
190	0x3892bb8c	6.996756e-05
191	0x3743998e	1.1658658e-05
192	0x390fc49b	0.00013710784
193	0x38d360d2	0.00010079298
194	0x3816328b	3.580986e-05
195	0x378a4d64	1.648692e-05
196	0x37a55010	1.9706815e-05
197	0x36519e32	3.1235509e-06
198	0x397603e0	0.00023461832
199	0x39b6f934	0.00034899416
200	0xb9881757	-0.0002595733
201	0x37d3b356	2.523667e-05
202	0x37e64e0d	2.7454482e-05
203	0x36cdbec4	6.131684e-06
204	0xb8bea29d	-9.090195e-05
205	0x37cdccb0	2.453322e-05
206	0x3898e862	7.2912095e-05
207	0x3aab4878	0.0013067862
208	0x3a477270	0.00076083
209	0xb9f4f892	-0.00046724506
210	0x3a9464c8	0.0011321539
211	0x3a52dae4	0.00080434815
212	0xb8cf71bf	-9.891716e-05
213	0x382dad2f	4.1407704e-05
214	0x387886e4	5.9253434e-05
215	0x3769d4ac	1.3937399e-05
216	0xb861696e	-5.374237e-05
217	0xb84453c8	-4.680807e-05
218	0xb7b4860d	-2.1520094e-05
219	0x38609aa2	5.3549775e-05
220	0x389365fa	7.028501e-05
221	0x36c027ec	5.7266934e-06
222	0x3984a87a	0.00025302527
223	0x385212a0	5.0085247e-05
224	0xb85af638	-5.220456e-05
225	0x3a92a5c4	0.0011188318
226	0x3a328fc1	0.0006811582
227	0x388daafa	6.755251e-05
228	0x37cbfdd0	2.4317676e-05
229	0x38023f9e	3.1053663e-05
230	0x371613d6	8.945315e-06
231	0x38e5866b	0.00010944608
232	0x38aa6f22	8.126932e-05
233	0x371fbad0	9.520634e-06
234	0x3a1b2970	0.00059189554
235	0x39fec699	0.00048594622
236	0xb8a002c5	-7.6299104e-05
237	0xb7ae8868	-2.0805935e-05
238	0xb8b12b03	-8.448029e-05
239	0xb809c862	-3.2849966e-05
240	0x3993287c	0.00028068188
241	0x38493488	4.7971058e-05
242	0xb8e579ec	-0.00010942281
243	0x3a028389	0.0004978707
244	0x39b1e324	0.00033929304
245	0x38698606	5.5676348e-05
246	0xb9b95659	-0.00035350284
247	0xb7da64c5	-2.603455e-05
248	0x38f56ae9	0.00011702424
249	0xb6fe2b2e	-7.5748167e-06
250	0xb7478a09	-1.1893463e-05
251	0xb69f050b	-4.7391563e-06
252	0xb8525f2c	-5.0156537e-05
253	0xb85403ee	-5.05484e-05
254	0xb733f8c4	-1.0727152e-05
255	0x391cfef9	0.00014972304

exp_avg_sq f4 [512, 3]
0	0x34fc54af	4.7000273e-07
1	0x34d09b1c	3.8855876e-07
2	0x33716e30	5.62124e-08
3	0x365316d0	3.1454729e-06
4	0x3572dab0	9.047026e-07
5	0x34d8075f	4.0238498e-07
6	0x3426c12f	1.5530235e-07
7	0x3480247d	2.3868407e-07
8	0x3302e8b4	3.0479626e-08
9	0x32ac6a73	2.0071843e-08
10	0x33c87d6f	9.336042e-08
11	0x3287c8f8	1.5807458e-08
12	0x35441314	7.304345e-07
13	0x358868d9	1.0163304e-06
14	0x3348f0df	4.67852e-08
15	0x33bea819	8.878141e-08
16	0x3481fda3	2.4212667e-07
17	0x32fa77a5	2.9158238e-08
18	0x32b4e378	2.1058199e-08
19	0x32f3f22e	2.8399054e-08
20	0x30e64cfe	1.6756585e-09
21	0x33cf7ab7	9.66151e-08
22	0x3423b67f	1.524695e-07
23	0x32caf495	2.3627118e-08
24	0x35145dd7	5.527085e-07
25	0x351790cd	5.6462596e-07
26	0x32f599bc	2.8591664e-08
27	0x359c7faf	1.1660067e-06
28	0x354c2ce6	7.606126e-07
29	0x34433517	1.8180104e-07
30	0x33c1e763	9.029352e-08
31	0x33d5f988	9.963975e-08
32	0x31b40677	5.2394244e-09
33	0x34726d27	2.2577716e-07
34	0x34e45f65	4.2537718e-07
35	0x33e72cfa	1.0764957e-07
36	0x35a3bda8	1.2199644e-06
37	0x35912b4e	1.0815945e-06
38	0x34076996	1.2611267e-07
39	0x3469f7cf	2.1789968e-07
40	0x34b31fc7	3.336447e-07
41	0x326cdac0	1.3786746e-08
42	0x319ec684	4.620974e-09
43	0x31cf8164	6.039203e-09
44	0x3069e31b	8.508764e-10
45	0x34d3b06e	3.9430182e-07
46	0x356528b8	8.53684e-07
47	0x3452d879	1.9636526e-07
48	0x380be332	3.3351775e-05
49	0x38717ce8	5.7575206e-05
50	0x3657e021	3.2167957e-06
51	0x3436f6d1	1.7039862e-07
52	0x34b2913d	3.3260758e-07
53	0x329bfe42	1.8159998e-08
54	0x348bc447	2.6033578e-07
55	0x347fb9d5	2.3816331e-07
56	0x32be65e8	2.2165253e-08
57	0x34c37d17	3.6412595e-07
58	0x353934b6	6.8994575e-07
59	0x34115faa	1.353898e-07
60	0x342eb03c	1.6269126e-07
61	0x34e2e49b	4.2262113e-07
62	0x338539d8	6.203817e-08
63	0x32dde6c2	2.5832723e-08
64	0x3357360b	5.010774e-08
65	0x31b76b3c	5.338192e-09
66	0x33d976db	1.01264696e-07
67	0x33c8145d	9.31693e-08
68	0x318f85c3	4.1770547e-09
69	0x36b71f71	5.4574853e-06
70	0x37029cd1	7.7851155e-06
71	0x361346fc	2.1946025e-06
72	0x3596609d	1.1203989e-06
73	0x34b17125	3.3051143e-07
74	0x33f9b40e	1.1627718e-07
75	0x32ed96bd	2.7658979e-08
76	0x32958c69	1.7409734e-08
77	0x313a32f8	2.7095535e-09
78	0x33b8860c	8.592551e-08
79	0x3432585c	1.6609687e-07
80	0x32a5fc19	1.9323169e-08
81	0x333105ce	4.1216303e-08
82	0x34095881	1.2791317e-07
83	0x3218626f	8.869946e-09
84	0x34954a70	2.7807573e-07
85	0x35fdf1de	1.8920362e-06
86	0x34a3fe24	3.0546028e-07
87	0x3562f649	8.454995e-07
88	0x3601d8f3	1.934878e-06
89	0x344fe593	1.9361896e-07
90	0x339a3f0c	7.182652e-08
91	0x34b36b2e	3.3419332e-07
92	0x3312494f	3.4059948e-08
93	0x36155c91	2.225661e-06
94	0x36333ea6	2.6709545e-06
95	0x348c79dc	2.6165696e-07
96	0x34c5fa69	3.6876307e-07
97	0x35324519	6.641072e-07
98	0x33517eef	4.877705e-08
99	0x35e8d454	1.7347143e-06
100	0x3657fc06	3.2184194e-06
101	0x34c6a293	3.6998662e-07
102	0x3395749a	6.959563e-08
103	0x33a736f7	7.7865415e-08
104	0x31aed96e	5.0887854e-09
105	0x362a472a	2.5373397e-06
106	0x363a7a2c	2.7787273e-06
107	0x33f5216a	1.14147795e-07
108	0x333b10bb	4.3554547e-08
109	0x3338af01	4.3000004e-08
110	0x31a4824d	4.7878417e-09
111	0x337d5c16	5.8989905e-08
112	0x33863d08	6.250963e-08
113	0x31af9fb4	5.1113265e-09
114	0x3514d292	5.5440717e-07
115	0x35942bf1	1.1039648e-06
116	0x33d96775	1.0123669e-07
117	0x3301029f	3.0037537e-08
118	0x3314ca11	3.4642714e-08
119	0x322229ae	9.439118e-09
120	0x34872aa5	2.5176737e-07
121	0x3484a5c3	2.4707523e-07
122	0x329d3cc8	1.8304846e-08
123	0x3492825e	2.7289474e-07
124	0x34808204	2.3936457e-07
125	0x32b83ccf	2.1448072e-08
126	0x352fe1bd	6.552107e-07
127	0x35db57d9	1.6342339e-06
128	0x34acb675	3.2170252e-07
129	0x34fcb067	4.7067007e-07
130	0x350a85ea	5.1603877e-07
131	0x32db7330	2.5547337e-08
132	0x358148be	9.63242e-07
133	0x3628c2dc	2.5147374e-06
134	0x3489ffa2	2.5704236e-07
135	0x364cf73c	3.0542278e-06
136	0x36044c37	1.9713896e-06
137	0x34d890d6	4.0338517e-07
138	0x349874cc	2.8397187e-07
139	0x3495df44	2.791586e-07
140	0x328d5f1b	1.645781e-08
141	0x335fe662	5.2130765e-08
142	0x330fef60	3.3512492e-08
143	0x3220ac3e	9.352389e-09
144	0x32b62365	2.1203684e-08
145	0x32acd0b7	2.0118348e-08
146	0x318baa87	4.064819e-09
147	0x3745cc1a	1.1789636e-05
148	0x3753a3e0	1.2614735e-05
149	0x34c1286b	3.597846e-07
150	0x36767117	3.6722683e-06
151	0x36bd0aec	5.6339104e-06
152	0x34e12c2b	4.1941652e-07
153	0x3449f3f9	1.880834e-07
154	0x34cfd096	3.870852e-07
155	0x3271e82e	1.4080838e-08
156	0x36ac1b6c	5.129192e-06
157	0x36c33662	5.817784e-06
158	0x3589e07a	1.0272627e-06
159	0x335e024b	5.169049e-08
160	0x33c70ce5	9.269005e-08
161	0x32890679	1.5951843e-08
162	0x35df80fa	1.6652332e-06
163	0x35848c32	9.875569e-07
164	0x34e1f400	4.208705e-07
165	0x346beb88	2.1971766e-07
166	0x348f91f6	2.6742026e-07
167	0x33943c75	6.902784e-08
168	0x33da5ffb	1.0168875e-07
169	0x33dfd6bc	1.0423307e-07
170	0x3205d9a9	7.791109e-09
171	0x33bbdc3e	8.747928e-08
172	0x344ee277	1.9267632e-07
173	0x32b720d1	2.1318927e-08
174	0x3677f3c7	3.6947765e-06
175	0x375509ba	1.2698054e-05
176	0x359dd96e	1.1760692e-06
177	0x342d594b	1.6144365e-07
178	0x34c6fc8d	3.706413e-07
179	0x32b81297	2.1428873e-08
180	0x32ea950c	2.7308964e-08
181	0x33b6ac6b	8.506398e-08
182	0x320d382d	8.220053e-09
183	0x3429d0cb	1.581531e-07
184	0x34667709	2.1463724e-07
185	0x3358ea2f	5.0504408e-08
186	0x350a2873	5.146787e-07
187	0x34f0cab0	4.4850958e-07
188	0x3421feb9	1.5086961e-07
189	0x33fa637a	1.1659627e-07
190	0x33f08490	1.1199984e-07
191	0x31a93ebb	4.925679e-09
192	0x347b46de	2.3401978e-07
193	0x348b60b1	2.596112e-07
194	0x32941f96	1.7243831e-08
195	0x3437ba20	1.7110915e-07
196	0x34199736	1.4304246e-07
197	0x32138e07	8.588819e-09
198	0x36dfc5d8	6.66895e-06
199	0x3801c85d	3.09426e-05
200	0x3685c7bc	3.986961e-06
201	0x32b72878	2.1322407e-08
202	0x32c2d0aa	2.2679462e-08
203	0x30dfa353	1.6271805e-09
204	0x358615b1	9.990091e-07
205	0x368db9f8	4.223777e-06
206	0x34f359cf	4.5327621e-07
207	0x37711b20	1.4371035e-05
208	0x37396b4b	1.105184e-05
209	0x35cbe709	1.5191919e-06
210	0x36c8a011	5.9790987e-06
211	0x365e05cc	3.3083952e-06
212	0x35969a50	1.1220782e-06
213	0x33280a36	3.9124835e-08
214	0x337b9d71	5.8583684e-08
215	0x32235fd4	9.5096375e-09
216	0x348f3939	2.667746e-07
217	0x35461291	7.3787766e-07
218	0x33964bc5	6.998702e-08
219	0x34958720	2.785173e-07
220	0x3588d452	1.0194583e-06
221	0x3430230f	1.6404032e-07
222	0x3513be0e	5.5038333e-07
223	0x3423cb5f	1.5254544e-07
224	0x33a400bc	7.636979e-08
225	0x36d93623	6.4734063e-06
226	0x370050d0	7.64821e-06
227	0x35dc5f0d	1.6418941e-06
228	0x345394db	1.970506e-07
229	0x34ff7de2	4.7589043e-07
230	0x33130b5a	3.423643e-08
231	0x32f619d6	2.8649918e-08
232	0x33338a37	4.180239e-08
233	0x31a633ab	4.83711e-09
234	0x35c64fc2	1.4775362e-06
235	0x359bc1bd	1.1604785e-06
236	0x345251bb	1.9587507e-07
237	0x35717e45	8.996324e-07
238	0x353fa755	7.1396545e-07
239	0x338cf93c	6.5645935e-08
240	0x36515ee4	3.119866e-06
241	0x3622e4ea	2.4273127e-06
242	0x3481cb77	2.4176163e-07
243	0x35a8550f	1.2541731e-06
244	0x363b1a92	2.7880637e-06
245	0x34cfdf6f	3.8719324e-07
246	0x36062223	1.9987426e-06
247	0x3639bfa7	2.7678705e-06
248	0x354d11aa	7.6394156e-07
249	0x32640d2c	1.3274342e-08
250	0x32cba485	2.3707125e-08
251	0x318b9ff8	4.0636188e-09
252	0x33db0059	1.01980454e-07
253	0x33d773ac	1.0032758e-07
254	0x31b4abe5	5.2582316e-09
255	0x35372570	6.822729e-07
