Model/weights/model_test_1011_1_best.pt (torch, 648434 bytes, 27 tensors)

lstm.weight_ih_l0 f4 [256, 2]
000000 56 5f 89 bd 63 b9 62 bd 17 a9 c3 3c be 2d 80 bd
       -0.06707637 -0.05535258 0.02388434 -0.06258725
000010 1d ff 21 3d 30 b9 9f bd 10 da 84 bc 46 fe 51 3d
       0.039549936 -0.077989936 -0.016217262 0.051267885
000020 cf 4f 22 3e b7 ce db 3d c2 fe 5f 3d 77 9a 5b 3e
       0.15850757 0.10732787 0.054686315 0.21445642
000030 61 41 18 3d c6 99 b9 bd 36 7a 55 be 4f bf eb bc
       0.037171725 -0.09062533 -0.20847401 -0.028777746
000040 b1 ec 0a be fb 4a 8c 3e fc dd 66 be 5a 6d 4a be
       -0.13566853 0.27400956 -0.22545618 -0.19768277
000050 df 3a 3c 3d ce 2b 01 3d b3 77 ce 3d d9 37 2c 3e
       0.04595458 0.031535916 0.100814246 0.16818179
000060 54 16 3b 3d d5 d8 8a 3c 42 0b 89 3d 64 f7 b6 bd
       0.04567559 0.016949097 0.066916004 -0.08933905
000070 b3 fe fc bc e7 f8 a1 3d 66 d4 fb bd 75 41 da bd
       -0.030883169 0.079088025 -0.12296371 -0.10657016
000080 eb 29 0a be 30 3c a8 bc 00 74 6d 3c 37 76 47 3c
       -0.13492553 -0.020536512 0.014492989 0.012174181
000090 eb 41 09 3e 01 ab 2e 3d 1b db 17 3e a9 1d 5a 3d
       0.13404052 0.04264355 0.14829676 0.053250942
0000a0 63 a9 90 3d a5 9d 69 3c 4a bd 69 3d 32 b5 04 3e
       0.07063558 0.014258777 0.057065286 0.12959746
0000b0 c4 30 63 bd 6d 5c 2e bc 64 5d 0d 3e 17 84 96 3d
       -0.05546643 -0.010642153 0.13805157 0.07349413
0000c0 78 a5 1e be 9d 6e ef bd 57 a1 46 3c bf 82 28 3d
       -0.15492809 -0.1169102 0.012123427 0.041140314
0000d0 cc dd e9 bd 2d 33 e8 3d b9 df fb bd 05 25 90 bd
       -0.114192575 0.11337886 -0.12298531 -0.07038311
0000e0 89 da 93 bd ca 3f 0c 3e 86 38 26 3c 66 dc bd 3d
       -0.07219417 0.13696209 0.010145312 0.09270553
0000f0 81 ea 96 bd 11 4f 20 3b e4 78 1f be c8 87 fd 3c
       -0.07368947 0.002446119 -0.1557346 0.030948535
000100 13 5b 17 3d a0 61 a0 3d 5a d4 b5 3d ee 15 c6 3d
       0.03695209 0.078311205 0.088783935 0.096721515
000110 23 ef 19 bd 9b 7b cb bd 82 9f a5 3d b4 fa ce bd
       -0.037581574 -0.09935685 0.08087064 -0.101064116
000120 b1 be 66 3e fe 57 84 bd 63 76 49 3d cc 21 86 3d
       0.2253368 -0.06462096 0.049185168 0.06549415
000130 9f cf b2 3d 3b 66 bb bd 38 12 06 3e e5 b9 29 3e
       0.08731007 -0.09150358 0.13092887 0.1657482
000140 99 38 0a 3e ce 09 0c 3c 23 b5 38 bd 99 ed 90 bc
       0.13498153 0.0085472595 -0.04509462 -0.01769142
000150 9a 0a a1 bc 4d db 41 bd 16 ee 08 3d ab 6d 46 3e
       -0.019658376 -0.047328282 0.03343018 0.19377773
000160 6e b9 48 3e dc 9f 37 3e 06 46 70 3d 61 b0 da bb
       0.19601986 0.17932075 0.05866053 -0.006673858
000170 c6 42 70 bd 54 86 e5 3d d8 28 a6 3d cb fd 05 3e
       -0.05865743 0.11207262 0.08113259 0.13085096
000180 03 3e 58 3d 08 5e 02 3e 47 d1 68 bd 6e 21 11 3e
       0.052793514 0.12731183 -0.056840207 0.14172909
000190 ef 06 c9 3b 84 12 09 3e a5 40 c2 bd 39 d9 40 be
       0.0061348598 0.1338597 -0.09484986 -0.18832864
0001a0 3a 15 a3 bd e5 8e 51 3d 17 54 7c bd 74 cc 80 3e
       -0.07963033 0.051161665 -0.06160363 0.25155985
0001b0 9a b6 aa bd 42 f3 77 bc 6d f5 56 bd 02 97 cd bc
       -0.0833561 -0.015133681 -0.05248015 -0.02509642
0001c0 fa 38 e4 3c c6 e4 c2 3c 9e 4f 2b 3c e3 0f 3f 3e
       0.0278592 0.023790728 0.010455994 0.18658404
0001d0 71 05 10 be c6 f5 6d 3d 01 63 e0 3d 4b 86 7d 3d
       -0.14064576 0.058095716 0.109563835 0.06189565
0001e0 a4 75 22 be e7 7c cb 3c 39 47 96 bd 28 c8 d6 3c
       -0.15865189 0.024839832 -0.073378034 0.026218489
0001f0 43 87 2c bc a8 26 b6 bc 2c 15 70 bd 15 f3 97 3d
       -0.010530296 -0.02223523 -0.05861394 0.07419411
000200 1a 5d ad 3d 21 25 6e bd 8a 91 37 3d 02 58 15 bd
       0.08465023 -0.058140878 0.04481653 -0.036460884
000210 d5 72 17 3e 1a b4 9a 3c 45 99 e1 3d b4 9c 25 3e
       0.14789899 0.018884707 0.11015562 0.16173059
000220 fb 21 7b bd e5 15 8f bd 68 95 2e 3e 90 6f a5 3d
       -0.061311703 -0.06986598 0.17049181 0.080779195
000230 7c fc 05 3d 7e 89 32 3e 9f 77 58 3d 9d 5d d4 bc
       0.03271149 0.17435262 0.052848455 -0.025923545
000240 f1 61 6e be 88 a1 91 3d a2 58 17 be 24 5a 99 bd
       -0.23279549 0.07110888 -0.14779904 -0.07487896
000250 79 25 73 3d 5b 5d 86 3d 20 65 2f 3d bb 8f a5 bd
       0.05936191 0.06560775 0.04282105 -0.08084055
000260 51 d1 e1 3d 25 c9 3d 3e a0 cb 02 bd 03 c3 1b bd
       0.11026252 0.18533762 -0.031932473 -0.038027775
000270 53 32 8c 3d 89 a2 41 bd e8 30 31 be 03 71 49 3e
       0.06845536 -0.047274146 -0.17303813 0.19672017
000280 c1 07 0c 3e 65 df 6f be c9 23 18 be 16 96 b0 bd
       0.13674833 -0.23425062 -0.14857401 -0.086223766
000290 60 85 23 3e 2f ca 61 3e 67 06 84 bc f9 0a 62 3d
       0.15968847 0.22049783 -0.016116334 0.055186246
0002a0 f9 e2 20 bd a2 1a b3 3d f4 3d be 3c 8f 31 6d 3e
       -0.039278958 0.08745314 0.0232229 0.23163436
0002b0 00 e8 bb bd a2 49 7e bc df 86 5e bd f8 87 f0 3c
       -0.0917511 -0.015520485 -0.05432784 0.02936171
0002c0 01 7a ff bb f5 25 98 bd 18 32 35 3e 94 52 23 bd
       -0.0077965264 -0.07429115 0.1769489 -0.039873675
0002d0 67 71 2f 3d bb 67 d5 3c bd 25 40 3e 7d 2e a2 3d
       0.04283276 0.02605044 0.18764396 0.07919023
0002e0 58 8a cc 3d b9 33 90 bd cf a9 8d bd c6 dd 0d bc
       0.099873245 -0.07041115 -0.06917154 -0.008658832
0002f0 55 3b 31 3e 53 42 bf 3c 4f 9b af bc a4 44 08 3e
       0.1730779 0.023347056 -0.021436362 0.13307434
000300 46 35 71 3d 56 8b 1b bc 14 53 03 be 10 5c cd 3d
       0.058888696 -0.0094936695 -0.1282466 0.10027325
000310 62 d3 63 3e d2 6e e0 3c bc 19 21 3e a2 43 fc 3d
       0.22248605 0.027396593 0.15732473 0.123175874
000320 5b 68 5e 3d f3 6c bf 3d 3f f5 15 3e ac 63 0b 3e
       0.05429874 0.09346952 0.14644335 0.1361224
000330 d3 2c 2f 3d 85 84 7d 3d 1d b1 ab bc ec 93 85 3d
       0.042767357 0.06189396 -0.020958478 0.065223545
000340 62 6e 4e bb 82 0d f2 3d 4b fe b7 bc ac 77 5b 3d
       -0.0031498899 0.11818983 -0.022460124 0.053580925
000350 e3 b6 3d 3d 8b 1a 18 3b 99 ab cc 3d 94 e1 28 3c
       0.046316992 0.002320918 0.09993667 0.010307688
000360 9f 4f 90 bb 9a 45 3d 3e 68 29 1e 3e dd 3c 45 3b
       -0.004404023 0.18483582 0.15445483 0.0030096092
000370 28 a9 0f be 6e ff 0d bd e7 1d 36 3c 5b 8c af 3c
       -0.14029372 -0.034667425 0.011115528 0.021429231
000380 6b d9 07 bd 80 e0 87 3e 8f f1 64 bc cf cd d7 3d
       -0.03316633 0.26538467 -0.013973608 0.10537302
000390 2d d2 a5 bd 55 17 57 bd ec a7 e6 3c da 26 e5 bc
       -0.080967285 -0.052512486 0.028156243 -0.027972627
0003a0 aa 0f 2a 3d a5 29 55 3d 6d 3d 21 be bb 2a 01 3d
       0.041518845 0.05204167 -0.15746088 0.03153489
0003b0 38 f7 c3 b9 fd ed e0 3d 0f ab e4 bd 7b 10 9c bd
       -0.0003737749 0.10982893 -0.11165439 -0.07620331
0003c0 07 28 b1 3d 3b 10 57 3c a9 0d 20 3d 85 bd 7b 3e
       0.08650213 0.013126428 0.039075527 0.24584015
0003d0 f6 ed 33 3c 04 bf ed 3b 44 1e 0a 3e 5b 79 e5 bc
       0.010982027 0.007255437 0.13488108 -0.028011968
0003e0 4a 9f ea bc 69 45 f5 3d a3 de 81 3d 3f b7 4b 3d
       -0.028640408 0.119761296 0.06341293 0.049735304
0003f0 c5 e0 3f bc f5 87 b0 bb de 9a 1a 3e f5 c3 2e be
       -0.011711304 -0.005387301 0.1509814 -0.17066939

lstm.weight_hh_l0 f4 [256, 64]
000000 c7 33 f8 bd af 94 fd 3d 64 4b b9 3d 77 d4 75 3e
       -0.12119251 0.12381875 0.09047583 0.2400683
000010 74 e1 cc bc 4b ca 37 3d 10 b2 55 3d 8b 26 84 3c
       -0.025009848 0.044870656 0.052171767 0.01613166
000020 5a b1 58 bd d6 58 a6 bd 7c d6 0f 3d 77 f8 38 3e
       -0.05290351 -0.08122413 0.035116658 0.18063532
000030 48 e3 07 bd 0b e0 79 bd 9f 9a db 3d a2 a5 52 be
       -0.033175737 -0.06100468 0.10722851 -0.20570996
000040 14 2b 35 3c 7b 65 16 3d 61 cf 67 3d db 9c b8 bd
       0.011057634 0.036717873 0.056594256 -0.09014293
000050 8e 3e 64 3d cc 1c 2e be 82 9d 07 be a6 c8 dd bd
       0.05572372 -0.17003173 -0.13243678 -0.10829286
000060 cb 00 b6 3d 3f 14 d4 bd 7b 21 36 3e 8b 67 d0 3d
       0.0888687 -0.10355424 0.1778621 0.10175999
000070 40 e7 5d bd 00 67 35 be ab cc 02 3c 73 7a 27 be
       -0.054175615 -0.17715073 0.007983367 -0.16355304
000080 71 a9 33 bc b2 1a 40 be 97 85 ae bd 40 ac 32 bd
       -0.010965691 -0.18760183 -0.08521574 -0.0436213
000090 88 aa 4e 3e 50 b0 c6 3b f7 2c 54 3e 53 f1 b8 3d
       0.2018224 0.0060634986 0.20720278 0.09030404
0000a0 6b ec 39 be 9f 32 25 3e ac 3f 9a 3d 78 e3 06 be
       -0.18156593 0.16132592 0.07531676 -0.1317271
0000b0 b6 4f b2 bb f3 b3 86 3d 5d 62 84 3d 6c 66 2f bd
       -0.005441631 0.06577291 0.06464074 -0.042822286
0000c0 85 ca 5e 3c 7c 8c a5 3a 20 4a 25 3d fd 1d a6 3c
       0.013598089 0.0012630369 0.040353894 0.020277971
0000d0 9a 3c a5 bd 3a a0 1b 3d 0b 50 25 3d c2 b9 f6 3d
       -0.080681995 0.0379946 0.040359538 0.12047149
0000e0 f7 56 52 3d a7 ce c4 3d 41 0e 10 3e 64 f9 f4 bc
       0.051352467 0.09609728 0.14067937 -0.029904075
0000f0 cd 72 0f bc 37 cd 3f 3e e3 d8 df bc e5 dc 1a 3d
       -0.008755398 0.18730627 -0.0273251 0.037808318
000100 30 96 87 bc d9 ba a4 bc e3 79 37 3d ee d3 c2 bd
       -0.016551107 -0.020108627 0.044793975 -0.09513079
000110 fb 5f 2d bd 28 90 4c 3e 15 25 93 3b 97 08 64 bd
       -0.042327862 0.19976866 0.0044905045 -0.055672254
000120 7c 85 0d 3d 88 4e 93 3d 4b 79 be bd 82 26 4e 3e
       0.03455113 0.07192713 -0.093004785 0.20131877
000130 e2 d3 66 3e 67 d0 fe 3d 75 3f 27 be c4 9d af bc
       0.22541764 0.12442093 -0.163328 -0.021437533
000140 20 bd 22 3e 6e 30 b3 bd c4 25 c0 3d c5 f4 3a be
       0.15892458 -0.087494716 0.09382203 -0.18257435
000150 a9 d9 cf 3c a2 d7 d2 3d 92 ac b1 bd e9 e3 0a bc
       0.025372343 0.10295035 -0.08675493 -0.00847719
000160 2b 5e 6d bd bd f4 02 3e a6 a4 f5 bb 4b 9c 3a bc
       -0.057951134 0.12788673 -0.0074964343 -0.011389802
000170 51 51 5d 3d 38 e1 a8 bd 6e 1b 16 b9 e8 dd 77 bd
       0.054032627 -0.08246082 -0.00014315333 -0.06051436
000180 30 dc 3e 3b 9c ef 03 3d 33 8a 91 3d d3 71 b8 bc
       0.0029122941 0.03221093 0.071064375 -0.022515213
000190 f7 a7 00 be 36 22 1b bc d6 da 54 bc 4a 0a 06 3e
       -0.12564074 -0.009468606 -0.012991628 0.13089862
0001a0 e0 1e 22 bc a3 07 80 bd bd be bb 3d c7 0d 08 bc
       -0.0098950565 -0.062514566 0.0916724 -0.008304066
0001b0 d9 3f f4 bd 23 f1 a2 bd 60 ae 38 3c 31 e8 a1 3d
       -0.119262405 -0.079561494 0.011272043 0.07905615
0001c0 5a 4b 62 bd ee 88 37 bd a8 99 83 3d 34 6e 31 be
       -0.055247642 -0.04480832 0.06425792 -0.17327195
0001d0 0a f7 39 be eb d0 24 3e 9d a7 c1 3b 74 5f 8e 3d
       -0.18160644 0.16095321 0.0059098736 0.069518
0001e0 ac 45 04 be 4c 5d e5 3d 41 ee c0 3c a8 86 ab 3c
       -0.12917203 0.111994356 0.023551108 0.020938233
0001f0 db 4e ff bd d8 59 a5 39 4a 98 56 3d 5e 8d 9a 3d
       -0.12466212 0.0003153819 0.052391328 0.07546495
000200 95 85 8c bc 65 d8 4e 3d 9f 25 e8 bd e2 66 71 3d
       -0.01715354 0.05049934 -0.11335301 0.058936007
000210 9d bd 2f 3d 85 f0 8e 3d a3 31 9e 3c 77 3e 44 3c
       0.04290544 0.06979469 0.019310778 0.011977783
000220 a4 cf bb bb 66 0b 39 bd 36 6b 06 bd e6 78 32 3d
       -0.00573154 -0.045176886 -0.032817088 0.04357233
000230 f7 97 d0 3d c6 23 fc 3d 09 78 a4 bd 25 99 57 bd
       0.10185235 0.12311511 -0.080307074 -0.052636284
000240 86 ab bd bd d4 bd 23 3e a4 66 5a bc a6 f8 c2 bc
       -0.09261231 0.15990382 -0.0133301355 -0.023800205
000250 59 72 07 be 72 b2 8d bd 1d 9e f1 bc b5 05 10 bd
       -0.13227214 -0.06918801 -0.02949434 -0.035161693
000260 a2 74 1d be 51 5b 0a 3e fb 1d 0e bd 78 ab 96 bd
       -0.15376523 0.13511397 -0.03469656 -0.07356924
000270 e4 03 32 3e 75 28 df 3d 94 9f f0 bb e6 13 c0 3c
       0.17384297 0.108963884 -0.007343242 0.023446988
000280 2c 03 ec bc bb dd b3 bd 1c 41 0e bd f9 94 43 bd
       -0.028810106 -0.08782526 -0.034730062 -0.047749493
000290 e4 05 ba 3d a0 17 ec 3c 12 c0 99 bd b5 4a 3e be
       0.09083155 0.028819859 -0.07507338 -0.18583186
0002a0 04 c8 d9 bd de 05 d7 bc e4 46 7d bd 21 c2 b4 3d
       -0.10633853 -0.026247915 -0.061835185 0.0882609
0002b0 96 0f 9b bd ad 4b 37 be b1 40 1f 3d 06 58 01 bc
       -0.07571332 -0.17899962 0.038880054 -0.007894522
0002c0 38 55 ec ba 25 6e bb bc e3 ff 6f bd 48 8b ac bd
       -0.0018030768 -0.02287967 -0.058593642 -0.08425003
0002d0 d0 91 ae 3d e2 aa 9c 3c 6e 04 4f 3e 73 12 b5 bd
       0.08523905 0.019124452 0.20216534 -0.088414095
0002e0 44 32 11 be 90 93 95 bd 75 0a 77 3c bc 85 08 bd
       -0.14179331 -0.07303536 0.015078177 -0.033330664
0002f0 cf 7b e8 3d cb 11 10 3d df a0 95 bd b2 1d 42 bd
       0.113517396 0.03517322 -0.07306074 -0.0473916
000300 87 ea 7a bd 47 68 1b bc 19 4d 96 3d d2 28 34 bd
       -0.06125882 -0.009485311 0.07338924 -0.04398424
000310 e3 f8 d1 3d 21 c7 f8 3a 9e 54 f7 3d 2b 1b ea bc
       0.102525495 0.0018980243 0.12076686 -0.028577408
000320 29 6e 13 3d ae 57 19 be 7d 99 6a bb 9f 79 87 bc
       0.03599373 -0.14974853 -0.0035797053 -0.016537486
000330 4b d9 23 bd 5b f9 e2 bc 55 04 1d be e6 7b 94 bc
       -0.04000215 -0.027706793 -0.15333684 -0.018125486
000340 58 7f 34 bd 3e dc 0c 3e 2a 33 78 bb c0 43 97 bc
       -0.044066757 0.1375589 -0.0037872293 -0.018464923
000350 be 0f fc 3d 77 39 ef 3c ea 59 bb 3d 90 87 bf 3d
       0.1230769 0.029202206 0.09148009 0.09352028
000360 27 15 10 3d 59 b2 00 bc ea 76 26 3e d7 4a 2d bd
       0.035176422 -0.007855021 0.162563 -0.0423077
000370 3d 86 97 3d a1 de 71 bc c9 6c 8b bd e5 fd c1 3d
       0.07398651 -0.0147625515 -0.068078585 0.09472255
000380 88 25 51 3e 0a b6 02 3e f8 fc ce bd ed 4e 2d bd
       0.20424473 0.12764755 -0.10106844 -0.042311598
000390 33 22 9d 3d f6 e5 af bd a1 67 70 3d c5 15 7d be
       0.076725386 -0.085887834 0.05869258 -0.24715336
0003a0 60 63 96 bd 25 50 02 bc 94 cd 1a 3d 35 b1 37 bd
       -0.07343173 -0.007953678 0.03779371 -0.044846732
0003b0 bc 7f cc bb 32 f6 a6 bc 7e e0 8f 3d a9 71 74 bc
       -0.006240813 -0.020381067 0.0702524 -0.014919677
0003c0 8a ff d3 3b 3d 86 06 3c a7 36 30 3d 18 e0 e8 3d
       0.0064696716 0.008210716 0.04302087 0.113708675
0003d0 84 da 0b 3d 6c 56 4a 3b 90 b7 bd 3d 57 c7 20 3e
       0.03414394 0.0030874265 0.092635274 0.15701042
0003e0 55 b9 fe bd 13 07 0f 3d cd d8 93 bd e6 71 f0 3c
       -0.12437693 0.034918856 -0.07219086 0.029351186
0003f0 49 9b 1f be da 3b cb ba 30 87 34 3d 6f 53 92 3c
       -0.1558658 -0.0015505508 0.044074237 0.01786205

lstm.bias_ih_l0 f4 [256]
000000 b2 c5 63 bd 7a 73 91 bd 29 2e 74 bd 1b 64 b5 bc
       -0.05560846 -0.071021035 -0.059614334 -0.02214246
000010 30 ef 96 bc a9 17 c2 bd f2 82 a0 bd 60 bd ca bd
       -0.0184246 -0.09477169 -0.07837476 -0.09899402
000020 61 f4 37 bd 97 5f b2 bc b2 b6 e8 bd 80 90 df bd
       -0.044910792 -0.021774096 -0.11362971 -0.10916233
000030 80 d1 84 bd 73 7f 87 bd 1d 01 5b bc 8b 0a 94 bd
       -0.064852715 -0.06616106 -0.013366965 -0.072285734
000040 51 8e 31 bd 10 0d 49 bb 6d 1c c5 bd 80 52 7b bd
       -0.043348614 -0.0030677952 -0.096245624 -0.061357975
000050 81 82 66 bd 86 49 ef bd d3 3b b8 bd 68 79 a4 bd
       -0.056276802 -0.11683945 -0.089957856 -0.08030969
000060 95 c2 9a bd 60 af 1a bd a4 ff d3 bd bd 83 d3 bd
       -0.07556645 -0.037764907 -0.10351494 -0.103278615
000070 4c e8 bf bd 65 ae 7d bd e8 e2 a4 bc d8 ad a5 bd
       -0.09370479 -0.061933894 -0.020127729 -0.08089799
000080 35 ce 95 bd ad a6 a4 bd 2e 8a 4a bd 80 5b b8 bc
       -0.073147215 -0.080396034 -0.049448185 -0.022504568
000090 0a cd 1d be 18 81 48 bd 6e e9 0c 3b 07 83 b3 bd
       -0.15410247 -0.04895124 0.002150144 -0.08765226
0000a0 0f cd 3c bd 51 69 c2 bd 3a ee 85 bd 2a a9 c0 bd
       -0.046093997 -0.09492744 -0.06539579 -0.094072655
0000b0 35 00 b5 bd dd 16 c9 bc 95 36 b6 bd 52 1f aa bd
       -0.0883793 -0.024547035 -0.088971294 -0.08306755
0000c0 f5 7f dc bd 17 68 a2 bd 7c 1d dc bb eb fa 5d bd
       -0.10766593 -0.0793001 -0.006717382 -0.054194372
0000d0 c4 6d b3 bd e1 29 07 bd 2b 70 fc bd e4 c5 99 bd
       -0.087611705 -0.032998923 -0.12326082 -0.07508448
0000e0 56 66 89 bd 4a 7d a4 bd 1d 36 87 bd ed 9f f7 bd
       -0.06708972 -0.080317095 -0.06602118 -0.1209105
0000f0 2d b6 77 bd d2 17 81 bd be 95 80 bd 4d 90 3a bd
       -0.06047647 -0.063033715 -0.06278561 -0.045547772
000100 56 12 70 3f 87 7d 6b 3f 19 6e 68 3f 6f f9 67 3f
       0.9377798 0.91988415 0.90792996 0.9061498
000110 f5 7d 70 3f 6a a9 64 3f c6 45 66 3f b8 2b 61 3f
       0.93942195 0.89321005 0.89950216 0.87957335
000120 39 45 71 3f eb 8a 75 3f 69 ef 5d 3f 95 77 67 3f
       0.9424625 0.95915097 0.86693436 0.9041684
000130 71 03 6e 3f 68 7b 6f 3f c9 0e 74 3f c7 08 6c 3f
       0.92974 0.9354768 0.9533506 0.92200893
000140 75 e5 72 3f 4f 8a 76 3f 66 3b 61 3f 59 78 6b 3f
       0.94881374 0.9630479 0.8798126 0.9198051
000150 63 da 6c 3f 3c 47 61 3f 96 61 69 3f 7a b6 65 3f
       0.9252073 0.8799932 0.9116453 0.8973156
000160 60 7d 6a 3f d3 1b 72 3f 5c 38 64 3f e0 a5 67 3f
       0.9159756 0.94573706 0.891485 0.9048748
000170 56 c2 67 3f f5 22 6a 3f b1 e0 68 3f 83 06 6b 3f
       0.9053091 0.9145959 0.9096785 0.9180681
000180 28 4e 6f 3f d0 ea 6f 3f f2 9a 73 3f 91 85 73 3f
       0.9347863 0.9371767 0.951583 0.9512568
000190 97 53 5e 3f 04 03 67 3f af 73 61 3f 2f de 6c 3f
       0.868463 0.90238976 0.88067144 0.92526525
0001a0 98 e6 70 3f ec 97 5e 3f cd 37 6d 3f d9 b0 5e 3f
       0.9410186 0.86950564 0.9266327 0.869886
0001b0 f0 fe 6a 3f 44 ca 6d 3f b7 1c 64 3f 43 30 6c 3f
       0.91795254 0.9288676 0.89106315 0.9226114
0001c0 b2 30 6f 3f 67 6b 6d 3f 0c eb 74 3f c8 f9 70 3f
       0.9343368 0.9274201 0.95671153 0.94131136
0001d0 26 47 60 3f 5e 02 78 3f ed 71 5b 3f 10 be 67 3f
       0.87608564 0.9687861 0.8572071 0.9052439
0001e0 f4 0f 6e 3f 8c 73 68 3f 00 02 6e 3f 89 02 65 3f
       0.9299309 0.9080131 0.929718 0.89456993
0001f0 f0 33 6e 3f bf fe 6f 3f 2b a4 67 3f c4 f4 72 3f
       0.93048 0.93748087 0.90484875 0.9490473
000200 cf f6 46 3d f0 98 b0 3c 67 1b 11 bd 49 f6 c3 bb
       0.04857522 0.021557301 -0.035426524 -0.005980287
000210 5a 3b 8c bc 4a 01 99 3c 2c af 19 bd 1a 2a 56 3a
       -0.017118145 0.018677372 -0.037520573 0.0008169726
000220 c1 bc 99 bc 0c 54 48 bc a6 96 b6 3c 20 99 41 bc
       -0.018766763 -0.01222707 0.022288632 -0.011816293
000230 7f 2a 89 3c 58 b9 28 bc ed 2f e7 bb e6 7c 9b 3a
       0.016743897 -0.010298096 -0.0070552737 0.0011862784
000240 5e f1 aa 3c f5 be 96 bd 3b 4e 29 bd 3b 73 49 bc
       0.020867046 -0.07360641 -0.041334372 -0.0122955395
000250 44 f6 0d 3a c4 32 38 3c aa 7f 92 bc 1c ac 65 ba
       0.00054154196 0.011242572 -0.01788314 -0.0008761303
000260 2c be 34 3b d3 43 05 3d 68 c5 bb 3b 40 de f8 3b
       0.0027579172 0.032535385 0.00573032 0.0075948536
000270 0b 8f 7c 3c 91 a3 9b bb c9 e1 c0 bc 66 a8 82 3d
       0.0154149635 -0.0047497232 -0.023545163 0.06379776
000280 65 2a 4f bc dc 09 3a 3d 77 57 1d 3b df f4 33 bc
       -0.012644385 0.04541956 0.0024008432 -0.010983675
000290 d7 09 e4 bc 37 62 e0 3c 01 bf 08 bd 49 63 28 bd
       -0.027836723 0.027390582 -0.03338528 -0.04111031
0002a0 a4 86 74 bc 47 7c 20 bc 5f a3 37 3c 15 96 3f 3d
       -0.014924679 -0.009795255 0.011208384 0.04677399
0002b0 6f c7 cd 3c ba 4e c4 bc f2 72 35 bc 29 28 bf 38
       0.025119511 -0.023963321 -0.011074768 9.11507e-05
0002c0 94 3a 87 3c af 49 38 3c 82 6b 01 3c e5 c3 ca 3c
       0.016507424 0.011248036 0.007899167 0.024751613
0002d0 c5 ed 62 3c b9 6f c8 3c 2d 6b eb bb 94 3a a4 3c
       0.013850634 0.024467336 -0.007184407 0.020047463
0002e0 3e 55 51 bc a8 b3 ba bc 19 8e 46 bd ed 93 53 3d
       -0.012776671 -0.022790745 -0.04847536 0.051654745
0002f0 f0 56 43 3c dd 31 b8 3c f9 7f 85 3b e3 8d b9 bb
       0.011922583 0.022484714 0.0040740934 -0.005662666
000300 f6 1f c1 bd 6f b1 48 bd c1 cb 2b bd a4 f9 90 bc
       -0.09429924 -0.04899734 -0.04194236 -0.017697163
000310 26 c1 6a bc 4e dd 93 bd fb e2 7e bd fd 06 e6 bd
       -0.014328277 -0.07219945 -0.062228184 -0.11231802
000320 ed a9 1f bd 3d 14 11 bc 55 b5 d7 bd 70 0c da bd
       -0.038980413 -0.008854923 -0.10532633 -0.106469035
000330 f2 6d 1e bd 25 a8 7c bd dc 2a ab 39 03 56 81 bd
       -0.03867907 -0.061683793 0.00032647594 -0.063152336
000340 ef 84 24 bd 5c 08 a9 bd fb 44 a5 bd 72 79 58 bd
       -0.040165838 -0.082535475 -0.080697976 -0.052850194
000350 2c 52 2b bd ab 4c be bd 9f 4f 7d bd 8b 3a 9d bd
       -0.041826412 -0.09291967 -0.06184351 -0.07677182
000360 1d 8c a7 bd b0 24 2e bd 97 64 bb bd 3b 7b cd bd
       -0.08181021 -0.042515457 -0.09150045 -0.1003327
000370 8d 44 b4 bd 79 07 20 bd a4 b2 f9 bb 37 eb d8 bd
       -0.088021375 -0.039069626 -0.0076201726 -0.10591739
000380 86 6c 82 bd fe 20 01 be 62 b4 20 bd f8 b1 16 bd
       -0.063683555 -0.12610242 -0.039234526 -0.036790818
000390 e0 94 01 be fb d6 55 bd ab 89 b8 3b 5d 38 d3 bd
       -0.12654448 -0.052206974 0.0056316457 -0.10313485
0003a0 ee 7a 58 bd 2a 9a 9d bd 03 33 19 bd ff c5 cc bd
       -0.05285161 -0.0769542 -0.037402164 -0.09998702
0003b0 6f 3f bd bd 7c 79 e8 bc 30 ba 63 bd 70 5e 9f bd
       -0.092406146 -0.02837824 -0.055597484 -0.077816844
0003c0 fd 21 ec bd fa c1 ab bd e2 0c c5 3b 7c f8 4d bd
       -0.1152992 -0.083866075 0.0060134986 -0.0502858
0003d0 ad 90 b1 bd 3d be c2 bc f5 3a 00 be 64 00 7d bd
       -0.08670173 -0.023772353 -0.1252249 -0.06176795
0003e0 1c ea 81 bd 90 ee 90 bd 8f 3b c4 bd 15 4f b8 bd
       -0.06343481 -0.07076752 -0.095816724 -0.08999459
0003f0 c9 58 71 bd 1c d1 41 bd bb 16 84 bd cb 46 f4 bc
       -0.058922563 -0.047318563 -0.06449648 -0.029818913

lstm.bias_hh_l0 f4 [256]
000000 b2 c5 63 bd 7a 73 91 bd 29 2e 74 bd 1b 64 b5 bc
       -0.05560846 -0.071021035 -0.059614334 -0.02214246
000010 30 ef 96 bc a9 17 c2 bd f2 82 a0 bd 60 bd ca bd
       -0.0184246 -0.09477169 -0.07837476 -0.09899402
000020 61 f4 37 bd 97 5f b2 bc b2 b6 e8 bd 80 90 df bd
       -0.044910792 -0.021774096 -0.11362971 -0.10916233
000030 80 d1 84 bd 73 7f 87 bd 1d 01 5b bc 8b 0a 94 bd
       -0.064852715 -0.06616106 -0.013366965 -0.072285734
000040 51 8e 31 bd 10 0d 49 bb 6d 1c c5 bd 80 52 7b bd
       -0.043348614 -0.0030677952 -0.096245624 -0.061357975
000050 81 82 66 bd 86 49 ef bd d3 3b b8 bd 68 79 a4 bd
       -0.056276802 -0.11683945 -0.089957856 -0.08030969
000060 95 c2 9a bd 60 af 1a bd a4 ff d3 bd bd 83 d3 bd
       -0.07556645 -0.037764907 -0.10351494 -0.103278615
000070 4c e8 bf bd 65 ae 7d bd e8 e2 a4 bc d8 ad a5 bd
       -0.09370479 -0.061933894 -0.020127729 -0.08089799
000080 35 ce 95 bd ad a6 a4 bd 2e 8a 4a bd 80 5b b8 bc
       -0.073147215 -0.080396034 -0.049448185 -0.022504568
000090 0a cd 1d be 18 81 48 bd 6e e9 0c 3b 07 83 b3 bd
       -0.15410247 -0.04895124 0.002150144 -0.08765226
0000a0 0f cd 3c bd 51 69 c2 bd 3a ee 85 bd 2a a9 c0 bd
       -0.046093997 -0.09492744 -0.06539579 -0.094072655
0000b0 35 00 b5 bd dd 16 c9 bc 95 36 b6 bd 52 1f aa bd
       -0.0883793 -0.024547035 -0.088971294 -0.08306755
0000c0 f5 7f dc bd 17 68 a2 bd 7c 1d dc bb eb fa 5d bd
       -0.10766593 -0.0793001 -0.006717382 -0.054194372
0000d0 c4 6d b3 bd e1 29 07 bd 2b 70 fc bd e4 c5 99 bd
       -0.087611705 -0.032998923 -0.12326082 -0.07508448
0000e0 56 66 89 bd 4a 7d a4 bd 1d 36 87 bd ed 9f f7 bd
       -0.06708972 -0.080317095 -0.06602118 -0.1209105
0000f0 2d b6 77 bd d2 17 81 bd be 95 80 bd 4d 90 3a bd
       -0.06047647 -0.063033715 -0.06278561 -0.045547772
000100 56 12 70 3f 87 7d 6b 3f 19 6e 68 3f 6f f9 67 3f
       0.9377798 0.91988415 0.90792996 0.9061498
000110 f5 7d 70 3f 6a a9 64 3f c6 45 66 3f b8 2b 61 3f
       0.93942195 0.89321005 0.89950216 0.87957335
000120 39 45 71 3f eb 8a 75 3f 69 ef 5d 3f 95 77 67 3f
       0.9424625 0.95915097 0.86693436 0.9041684
000130 71 03 6e 3f 68 7b 6f 3f c9 0e 74 3f c7 08 6c 3f
       0.92974 0.9354768 0.9533506 0.92200893
000140 75 e5 72 3f 4f 8a 76 3f 66 3b 61 3f 59 78 6b 3f
       0.94881374 0.9630479 0.8798126 0.9198051
000150 63 da 6c 3f 3c 47 61 3f 96 61 69 3f 7a b6 65 3f
       0.9252073 0.8799932 0.9116453 0.8973156
000160 60 7d 6a 3f d3 1b 72 3f 5c 38 64 3f e0 a5 67 3f
       0.9159756 0.94573706 0.891485 0.9048748
000170 56 c2 67 3f f5 22 6a 3f b1 e0 68 3f 83 06 6b 3f
       0.9053091 0.9145959 0.9096785 0.9180681
000180 28 4e 6f 3f d0 ea 6f 3f f2 9a 73 3f 91 85 73 3f
       0.9347863 0.9371767 0.951583 0.9512568
000190 97 53 5e 3f 04 03 67 3f af 73 61 3f 2f de 6c 3f
       0.868463 0.90238976 0.88067144 0.92526525
0001a0 98 e6 70 3f ec 97 5e 3f cd 37 6d 3f d9 b0 5e 3f
       0.9410186 0.86950564 0.9266327 0.869886
0001b0 f0 fe 6a 3f 44 ca 6d 3f b7 1c 64 3f 43 30 6c 3f
       0.91795254 0.9288676 0.89106315 0.9226114
0001c0 b2 30 6f 3f 67 6b 6d 3f 0c eb 74 3f c8 f9 70 3f
       0.9343368 0.9274201 0.95671153 0.94131136
0001d0 26 47 60 3f 5e 02 78 3f ed 71 5b 3f 10 be 67 3f
       0.87608564 0.9687861 0.8572071 0.9052439
0001e0 f4 0f 6e 3f 8c 73 68 3f 00 02 6e 3f 89 02 65 3f
       0.9299309 0.9080131 0.929718 0.89456993
0001f0 f0 33 6e 3f bf fe 6f 3f 2b a4 67 3f c4 f4 72 3f
       0.93048 0.93748087 0.90484875 0.9490473
000200 cf f6 46 3d f0 98 b0 3c 67 1b 11 bd 49 f6 c3 bb
       0.04857522 0.021557301 -0.035426524 -0.005980287
000210 5a 3b 8c bc 4a 01 99 3c 2c af 19 bd 1a 2a 56 3a
       -0.017118145 0.018677372 -0.037520573 0.0008169726
000220 c1 bc 99 bc 0c 54 48 bc a6 96 b6 3c 20 99 41 bc
       -0.018766763 -0.01222707 0.022288632 -0.011816293
000230 7f 2a 89 3c 58 b9 28 bc ed 2f e7 bb e6 7c 9b 3a
       0.016743897 -0.010298096 -0.0070552737 0.0011862784
000240 5e f1 aa 3c f5 be 96 bd 3b 4e 29 bd 3b 73 49 bc
       0.020867046 -0.07360641 -0.041334372 -0.0122955395
000250 44 f6 0d 3a c4 32 38 3c aa 7f 92 bc 1c ac 65 ba
       0.00054154196 0.011242572 -0.01788314 -0.0008761303
000260 2c be 34 3b d3 43 05 3d 68 c5 bb 3b 40 de f8 3b
       0.0027579172 0.032535385 0.00573032 0.0075948536
000270 0b 8f 7c 3c 91 a3 9b bb c9 e1 c0 bc 66 a8 82 3d
       0.0154149635 -0.0047497232 -0.023545163 0.06379776
000280 65 2a 4f bc dc 09 3a 3d 77 57 1d 3b df f4 33 bc
       -0.012644385 0.04541956 0.0024008432 -0.010983675
000290 d7 09 e4 bc 37 62 e0 3c 01 bf 08 bd 49 63 28 bd
       -0.027836723 0.027390582 -0.03338528 -0.04111031
0002a0 a4 86 74 bc 47 7c 20 bc 5f a3 37 3c 15 96 3f 3d
       -0.014924679 -0.009795255 0.011208384 0.04677399
0002b0 6f c7 cd 3c ba 4e c4 bc f2 72 35 bc 29 28 bf 38
       0.025119511 -0.023963321 -0.011074768 9.11507e-05
0002c0 94 3a 87 3c af 49 38 3c 82 6b 01 3c e5 c3 ca 3c
       0.016507424 0.011248036 0.007899167 0.024751613
0002d0 c5 ed 62 3c b9 6f c8 3c 2d 6b eb bb 94 3a a4 3c
       0.013850634 0.024467336 -0.007184407 0.020047463
0002e0 3e 55 51 bc a8 b3 ba bc 19 8e 46 bd ed 93 53 3d
       -0.012776671 -0.022790745 -0.04847536 0.051654745
0002f0 f0 56 43 3c dd 31 b8 3c f9 7f 85 3b e3 8d b9 bb
       0.011922583 0.022484714 0.0040740934 -0.005662666
000300 f6 1f c1 bd 6f b1 48 bd c1 cb 2b bd a4 f9 90 bc
       -0.09429924 -0.04899734 -0.04194236 -0.017697163
000310 26 c1 6a bc 4e dd 93 bd fb e2 7e bd fd 06 e6 bd
       -0.014328277 -0.07219945 -0.062228184 -0.11231802
000320 ed a9 1f bd 3d 14 11 bc 55 b5 d7 bd 70 0c da bd
       -0.038980413 -0.008854923 -0.10532633 -0.106469035
000330 f2 6d 1e bd 25 a8 7c bd dc 2a ab 39 03 56 81 bd
       -0.03867907 -0.061683793 0.00032647594 -0.063152336
000340 ef 84 24 bd 5c 08 a9 bd fb 44 a5 bd 72 79 58 bd
       -0.040165838 -0.082535475 -0.080697976 -0.052850194
000350 2c 52 2b bd ab 4c be bd 9f 4f 7d bd 8b 3a 9d bd
       -0.041826412 -0.09291967 -0.06184351 -0.07677182
000360 1d 8c a7 bd b0 24 2e bd 97 64 bb bd 3b 7b cd bd
       -0.08181021 -0.042515457 -0.09150045 -0.1003327
000370 8d 44 b4 bd 79 07 20 bd a4 b2 f9 bb 37 eb d8 bd
       -0.088021375 -0.039069626 -0.0076201726 -0.10591739
000380 86 6c 82 bd fe 20 01 be 62 b4 20 bd f8 b1 16 bd
       -0.063683555 -0.12610242 -0.039234526 -0.036790818
000390 e0 94 01 be fb d6 55 bd ab 89 b8 3b 5d 38 d3 bd
       -0.12654448 -0.052206974 0.0056316457 -0.10313485
0003a0 ee 7a 58 bd 2a 9a 9d bd 03 33 19 bd ff c5 cc bd
       -0.05285161 -0.0769542 -0.037402164 -0.09998702
0003b0 6f 3f bd bd 7c 79 e8 bc 30 ba 63 bd 70 5e 9f bd
       -0.092406146 -0.02837824 -0.055597484 -0.077816844
0003c0 fd 21 ec bd fa c1 ab bd e2 0c c5 3b 7c f8 4d bd
       -0.1152992 -0.083866075 0.0060134986 -0.0502858
0003d0 ad 90 b1 bd 3d be c2 bc f5 3a 00 be 64 00 7d bd
       -0.08670173 -0.023772353 -0.1252249 -0.06176795
0003e0 1c ea 81 bd 90 ee 90 bd 8f 3b c4 bd 15 4f b8 bd
       -0.06343481 -0.07076752 -0.095816724 -0.08999459
0003f0 c9 58 71 bd 1c d1 41 bd bb 16 84 bd cb 46 f4 bc
       -0.058922563 -0.047318563 -0.06449648 -0.029818913

lstm.weight_ih_l1 f4 [256, 64]
000000 4f 12 33 bd ea 1e e2 bd 0b 50 3d be a8 e6 7b bd
       -0.043718632 -0.11041053 -0.18487565 -0.061499268
000010 32 39 4a 3e 33 f0 b8 bd 3b 4e fc 3c c8 90 36 be
       0.19748381 -0.09030189 0.030799022 -0.17828667
000020 9b 42 07 be 9d 78 05 be 50 b4 57 be 63 83 2e 3e
       -0.13209002 -0.13034292 -0.21064878 0.17042308
000030 f8 62 74 bd ca b9 74 3e 8b b9 8b 3e a8 35 4f bd
       -0.059664696 0.23898998 0.27289996 -0.05058828
000040 b6 21 82 3d 5e 77 1c 3e ae f8 e2 3d 96 70 be 3d
       0.06354086 0.1527991 0.11082588 0.09298818
000050 94 85 b1 bc 9e 71 7c bd e3 5f cc bd 38 50 d7 3d
       -0.02167014 -0.06163179 -0.099792264 0.105133474
000060 b9 d2 07 3e 37 83 a3 bd 53 5f b7 bd 8b 3d 18 3e
       0.13263978 -0.079840116 -0.089537285 0.14867227
000070 20 df f7 3d 49 50 91 bd e4 c4 c4 bc 59 b3 ec bd
       0.121031046 -0.07095391 -0.024019666 -0.11557645
000080 f5 f1 d8 bd b8 b1 c8 bd b9 4b 46 bd 55 06 89 3d
       -0.10593025 -0.09799522 -0.04841206 0.06690661
000090 f1 c3 ed 3d 15 f9 b4 bc e3 e7 8d 3c 3a 87 95 bc
       0.116096385 -0.022091428 0.017322486 -0.018252958
0000a0 c9 f4 5a bc 20 84 64 3d 27 0d 5d 3d d6 9b 4b be
       -0.013364025 0.055790067 0.05396762 -0.19883665
0000b0 ff 86 71 bd 0f b4 9d bc b7 75 17 bd 21 9d f9 3c
       -0.058966633 -0.019250898 -0.036977496 0.030470433
0000c0 11 7b 85 3d 4d db 38 3d 47 84 02 be 53 04 47 3e
       0.06517614 0.045131017 -0.12745772 0.19435243
0000d0 0f 02 60 3e 0f 7e 97 3d 67 4d 6f bc 93 d2 5c 3e
       0.21875785 0.07397091 -0.0146058565 0.21564703
0000e0 c1 8c 37 3e a0 9b 6f be 87 b5 79 be 30 03 6d bd
       0.17924787 -0.2339921 -0.24385653 -0.057864368
0000f0 b7 33 1d be c6 5f 38 3e 72 35 59 be 98 90 b3 3d
       -0.15351759 0.18005285 -0.21211794 0.087678134
000100 b6 35 f0 bc 94 ec c1 3d f4 0e 83 bd 47 46 5c 3d
       -0.029322486 0.09468952 -0.063993365 0.05377796
000110 1c 63 2d bd 13 ee bf bd 07 6c eb 3d 6e 3e 51 be
       -0.042330846 -0.09371581 0.11495214 -0.20433971
000120 29 b5 73 be ee a3 53 3d c7 85 23 be 15 40 b7 3d
       -0.23799576 0.051670007 -0.15969001 0.089477696
000130 1b 6c 32 be 6d 5e 3e be 1d 14 19 3e a6 cf 01 be
       -0.17424051 -0.18590708 0.14949079 -0.12676868
000140 42 b2 85 3c e7 cd 0f 3e 61 85 da 3c b8 5c b2 3d
       0.016320352 0.1404339 0.026674928 0.08709091
000150 b0 61 1a be a7 c0 b3 bd 24 86 76 bd 19 ee 03 be
       -0.15076327 -0.0877698 -0.06018652 -0.12883796
000160 84 63 9e 3d ba 31 be bd e8 94 ae bd f2 1d 42 3d
       0.07733825 -0.09286828 -0.08524495 0.04739184
000170 f3 31 dd bb 04 d0 a6 be 01 25 16 3d f0 6a b8 bd
       -0.006750339 -0.32580578 0.036656383 -0.09004772
000180 f0 d5 46 be 51 75 85 bd 36 5d 7a bd 79 a2 de 3d
       -0.19417548 -0.06516517 -0.06112405 0.10870833
000190 98 00 9c 3d da 98 d4 3d 78 ec b3 bd ce bf 90 3a
       0.07617301 0.103807166 -0.08785337 0.001104349
0001a0 bb e3 92 be 69 60 1d 3c 02 79 89 3e a7 45 b4 bd
       -0.2868937 0.0096055055 0.26850134 -0.08802348
0001b0 84 72 39 be a5 52 cb bd 6f 07 1c be 91 f5 95 3d
       -0.1811009 -0.099278726 -0.1523721 0.07322229
0001c0 d4 5c b4 bd 3d ad 47 3e 19 3f 14 be d8 5c 6f bd
       -0.08806768 0.19499679 -0.14477195 -0.058438152
0001d0 f5 ce 93 3d 61 18 21 3e 4b 69 3a bd 91 b5 85 3d
       0.07217208 0.15731956 -0.04551057 0.06528772
0001e0 5c cb 07 3d a2 a1 cc bc 36 e7 f5 3d d6 9a 14 be
       0.033152923 -0.024979416 0.120069906 -0.1451219
0001f0 88 37 a3 bd 1e 1e df 3d 09 eb d3 bd 64 61 e0 3c
       -0.07969576 0.10894416 -0.10347564 0.02739019
000200 47 11 a3 3e 05 f9 11 3e 90 2c b1 bb 7e b2 35 bc
       0.3184912 0.1425515 -0.0054069236 -0.011089919
000210 2d 90 4b be 15 8b 10 3e 15 61 86 be 1f bc 1a 3e
       -0.19879217 0.14115556 -0.26245943 0.15110825
000220 a8 9f ec bd 23 2d 91 3d 63 6c cf 3d 98 f7 f1 bd
       -0.115538895 0.07088687 0.10128095 -0.11814803
000230 e0 45 06 3e 39 1b b6 bd 68 60 7f be ff 70 86 3d
       0.13112593 -0.08891911 -0.2493912 0.06564521
000240 85 9a 14 3e 13 32 bc be 9c df 22 be 7e e7 29 be
       0.1451207 -0.36756954 -0.15905613 -0.16592214
000250 fd 06 26 3a c8 ff 44 3e 50 09 e7 3c 97 72 b7 bd
       0.0006333439 0.19238198 0.028202683 -0.08957403
000260 93 e8 0b be ff d5 42 3e ba 70 db 3d cf b3 9e 3c
       -0.13662939 0.19026946 0.1071486 0.019372849
000270 2d 4e a3 3d fb 7e bf 3c 9f f9 33 be f1 4c 6f 3e
       0.07973895 0.023375979 -0.17575692 0.23369195
000280 73 4a 45 be c4 31 86 3e ac de be 3d cd 6f e1 bd
       -0.19266681 0.26209843 0.09319815 -0.110076524
000290 1b e7 07 be 2f 15 ac 3d 0f df 5b be 31 3b 3c be
       -0.13271753 0.08402478 -0.21471809 -0.18381955
0002a0 af ec 96 bd aa 67 bc bd 81 cf 3c bd b6 6f 7f 3e
       -0.073693626 -0.0919946 -0.04609633 0.24944958
0002b0 f8 bc d6 3d 0d 0f 7c be e1 63 67 3d 31 2c 85 bc
       0.10485262 -0.24615116 0.056491736 -0.016256424
0002c0 45 0d 44 3d 47 e3 96 3c 20 78 a4 bd cc b3 00 bd
       0.047864217 0.018418921 -0.080307245 -0.031421468
0002d0 7a 20 99 3d f2 62 46 3d 2c 12 e1 bd b7 96 97 3d
       0.074768975 0.048434205 -0.10989794 0.074017935
0002e0 7d 2a 0c be 64 9d 8c bb f3 2c a5 bd 0d 2a 82 3e
       -0.13688083 -0.0042912234 -0.08065214 0.25422707
0002f0 93 a2 44 3c e5 0c d4 bc 05 aa ee 3d 90 d6 34 be
       0.012001651 -0.025885055 0.116535224 -0.17659974
000300 94 06 11 3e db dd 79 bd a2 12 c4 bc cc d5 a3 3c
       0.14162666 -0.061002593 -0.023934666 0.019999407
000310 f1 42 26 3d 7c 72 b1 3c 58 40 05 bd 99 49 b7 3d
       0.040591184 0.021661036 -0.032532066 0.089495845
000320 3d bc 58 3d 88 1c 90 bd 18 62 8b 3d b2 f6 b6 3d
       0.052913893 -0.07036692 0.06805819 0.08933772
000330 5d 8a 6b 3d 77 38 fc 3c ed 23 bf bc 14 24 20 3c
       0.057505 0.030788643 -0.02333256 0.009774227
000340 b0 4c 90 3c 9f d4 fe bc 01 40 e6 bd 94 10 82 3d
       0.017614692 -0.031107245 -0.112426765 0.06350818
000350 7d 7a 00 bd 91 f4 c6 3c d2 a3 86 3d f0 c6 60 3c
       -0.031366814 0.02428654 0.06574215 0.013719305
000360 8e 90 1b 3a d9 25 31 3e 90 88 99 bd 65 68 b8 3d
       0.0005934321 0.17299594 -0.0749675 0.09004287
000370 3c e7 66 bd a0 5c 3f 3e 2c 53 b1 bd a7 56 b4 3d
       -0.056372866 0.18687677 -0.08658442 0.0880559
000380 94 b2 f9 3d 57 7e cd 3d 2a 4f 29 bc f5 49 19 3d
       0.12192264 0.10033863 -0.010333816 0.037424047
000390 f2 4d 91 bd ca 08 0f be 59 dc 38 bb 10 9c 09 be
       -0.07094945 -0.13968197 -0.002820751 -0.1343844
0003a0 3b 38 de 3d b3 10 66 3b ec 16 fa 3c 78 44 03 3d
       0.10850569 0.0035105168 0.030528508 0.03204772
0003b0 95 03 23 3d 37 81 7d bb 80 51 67 bc a3 14 16 3a
       0.039798338 -0.0038681754 -0.014118552 0.0005725121
0003c0 9f c8 b4 3d b8 0a a6 3d cb d8 69 bd 89 0c fb bd
       0.08827328 0.08107513 -0.057091516 -0.1225825
0003d0 2e e5 b7 3d e0 42 a3 bd 62 2d c8 3c a8 16 7f 3d
       0.089792594 -0.0797174 0.024435703 0.062277466
0003e0 d0 1f 9e 3d 5b 3a ea bd 74 34 f0 bc 79 ba f5 bd
       0.077209115 -0.11436912 -0.029321887 -0.119984575
0003f0 1a dd a8 bd 2c b1 21 3d 17 4d 82 3d 4a 73 81 3d
       -0.08245297 0.039475605 0.0636236 0.06320818

lstm.weight_hh_l1 f4 [256, 64]
000000 89 47 6d be bb 68 7f 3c 49 e7 1f 3e e5 42 99 3d
       -0.2317182 0.0155889345 0.15615572 0.07483462
000010 10 cf b7 bd 4e db 9b bc b2 0b 94 3b ec a0 47 3e
       -0.08975041 -0.019025471 0.0045179958 0.1949498
000020 11 63 f4 bd 03 a7 3a 3d 18 a0 d6 3d bc da 16 3e
       -0.11932958 0.04556943 0.10479754 0.14731878
000030 87 2c 62 3e d2 3b c6 bb 8b 5f ca 3d b6 98 03 be
       0.22087298 -0.0060496116 0.098815046 -0.12851223
000040 b2 5b b9 bd f0 1d 29 3e 25 54 ba bc 84 52 0a 3e
       -0.090506926 0.16515326 -0.022745201 0.1350804
000050 60 08 eb bd e0 c0 dc 3c a8 54 a8 3d bf ea e4 3d
       -0.11476207 0.026947439 0.08219272 0.11177587
000060 1c f2 3c 3e 63 42 8f bd c8 ea f0 3c 91 81 9b bd
       0.18451732 -0.06995084 0.029408827 -0.07593072
000070 28 14 24 be 7f 31 d8 bd ca 8d a9 3d 4a 02 48 bd
       -0.16023314 -0.10556316 0.08278997 -0.048830308
000080 ed 20 80 3c 40 b2 c6 3d a2 1a 5d 3c 03 81 9b bd
       0.0156407 0.09701967 0.013495119 -0.075929664
000090 8d 03 06 3e 51 e6 8f 3c b4 1f 1e bd a7 27 48 3e
       0.13087292 0.017565878 -0.038604453 0.19546376
0000a0 5a bc 58 3d 0b 36 13 3e 49 b6 37 3d 6b bf d5 bd
       0.052914 0.14376085 0.044851575 -0.10436901
0000b0 8f 42 b2 bc f7 f5 05 bd e5 60 f4 3d 78 9f 91 bd
       -0.021760253 -0.032705273 0.11932544 -0.071104944
0000c0 9b 3a 88 3d e2 8e 61 3d 22 ae bf 3c 34 a2 23 be
       0.06651803 0.055067904 0.023398463 -0.15979844
0000d0 74 0d 39 3c 3c ee 92 bc bd ba f4 3d a3 9c e5 bc
       0.011294711 -0.017935865 0.1194968 -0.028028792
0000e0 52 0b 29 3c 79 47 8f bc 1c 64 6d be a0 af 91 be
       0.01031764 -0.017490136 -0.2318272 -0.28454304
0000f0 85 90 45 3e c4 48 22 3e 31 02 e0 3d 58 d4 5e be
       0.19293411 0.1584807 0.10937918 -0.2176069
000100 7b ae 08 bc e4 ed af bd 94 b6 1d 3e 76 71 23 3e
       -0.008342381 -0.08590296 0.1540168 0.1596125
000110 58 a3 51 be 2e b4 7e bd 3f 68 6c be 78 7b 25 bd
       -0.20472467 -0.06218355 -0.23086642 -0.040400952
000120 33 9c 25 be db 17 16 3e 75 16 93 3d 55 19 0e 3e
       -0.16172867 0.14657538 0.07182018 0.13876851
000130 02 b4 e6 bc 63 0c 6c bd 7b d1 9e 3d d2 20 ce bb
       -0.028162006 -0.057629 0.07754799 -0.0062905336
000140 c2 d8 b7 bd 4f c0 f4 3d 72 a9 24 be f8 5e 3f 3e
       -0.0897689 0.119507425 -0.16080263 0.18688571
000150 17 3e 03 3e 87 e9 b9 3d c0 58 e8 3d c8 7c 10 3d
       0.12816654 0.09077745 0.11345053 0.03527525
000160 2e 06 1e bd ce 70 cd 3d 32 04 13 3e e6 02 5f bd
       -0.038580112 0.100312814 0.14357069 -0.054446124
000170 95 b8 7b be 67 63 ce bd 5a 9b df 3d bd f3 4f bd
       -0.24582131 -0.10077553 0.10918303 -0.050769556
000180 11 0e 92 3c 95 5b e6 bd 7b ee 4a 3e 15 4d 4d 3d
       0.017828973 -0.11247937 0.19817536 0.05012234
000190 7a 20 a4 3d 27 59 a4 3e b3 c8 14 be 21 a0 08 3e
       0.08014007 0.32099268 -0.14529686 0.13342334
0001a0 6b ad 8e 3d 79 42 26 3e 69 59 a4 bd 00 a6 b6 bd
       0.069666706 0.16236295 -0.08024866 -0.08918381
0001b0 b0 9b 08 be b7 d7 ec bd 7d fc b0 3d db ea 6f bd
       -0.1334064 -0.11564582 0.08641908 -0.058573585
0001c0 9e 56 5e 3d cd 40 70 bc 64 31 f5 3c 35 cd 49 be
       0.054281823 -0.014663887 0.029930778 -0.19707187
0001d0 25 82 c1 bd 17 92 83 bd 26 80 ab 3d 0b 43 28 bc
       -0.09448651 -0.06424349 0.08374052 -0.010269891
0001e0 ba de d7 bc 57 63 fa 3c e8 98 74 3c e7 f2 a1 be
       -0.026351321 0.030564947 0.014929034 -0.31630632
0001f0 8a ea 41 3e 10 57 0f 3d 31 e8 47 3e e6 bd 96 bc
       0.18937126 0.03499514 0.19522168 -0.018401098
000200 51 9b e8 bb 6d 6a 87 3d 60 45 a1 be ff 33 2a be
       -0.0070985933 0.06612096 -0.3149824 -0.16621397
000210 93 c6 be 3d 21 10 68 3e 94 8c 50 3e a2 6f bb be
       0.09315219 0.22662403 0.20366126 -0.36608607
000220 40 34 96 bc 4f 0a a5 be bc 93 6b be e3 0a 6b be
       -0.018335462 -0.32234427 -0.23005575 -0.22953372
000230 7a f3 17 3d be c4 2c 3e 4e 47 83 3d bb 53 1c 3e
       0.03709743 0.16871926 0.06410085 0.15266316
000240 de 4a 4f 3d f9 be a6 be d0 3d d6 3e e1 13 9f be
       0.05060851 -0.32567576 0.41844034 -0.31069854
000250 fd d3 04 3e 13 8f 66 3d 00 c3 d6 bd 75 28 d6 ba
       0.12971492 0.05628879 -0.10486412 -0.0016338961
000260 a2 bc 89 bc 21 95 a7 be 0e a3 4f bd ec 1c 28 3e
       -0.01681358 -0.32730964 -0.05069261 0.16417283
000270 ec 71 ee 3c 3c 98 af 3d 13 33 07 be 19 d1 ce 3d
       0.029107057 0.08573958 -0.13203077 0.10098476
000280 da 70 c0 3d 09 9f 6f bd 85 7e 13 be 9b 6e 7f be
       0.09396525 -0.058501277 -0.14403732 -0.24944536
000290 ac 77 d5 be 52 ba 86 be 1c 1e 73 3e 93 f1 d3 be
       -0.41692865 -0.26314026 0.23741955 -0.41395244
0002a0 79 33 be bd a2 ee 80 bd 55 24 09 bd 67 ff a2 3e
       -0.092871614 -0.062955156 -0.033481915 0.31835482
0002b0 8e 4f 85 3e cc d3 cb bc a5 ca 0d be 67 05 4c 3d
       0.26037258 -0.024881266 -0.13846834 0.04980984
0002c0 5a e8 9b be 89 b5 97 3e 9c 1b 0c be 43 aa 25 3e
       -0.30450708 0.29630688 -0.13682407 0.16178231
0002d0 2f d1 85 3e 73 83 2d 3e be 8a 42 be ce a7 97 be
       0.26136157 0.16944675 -0.18998238 -0.29620212
0002e0 8b b7 8b 3d b4 e2 ef bd 9b 92 00 3e 0f a6 19 3f
       0.068221174 -0.11713162 0.12555926 0.6001901
0002f0 9b f2 43 bc fe 15 ea bc 4f 42 f2 bd 38 44 aa 3e
       -0.011959697 -0.02857494 -0.118290536 0.33255172
000300 e0 ef fb bc 1e 14 db 3d 36 9a ba 3d e9 82 ab bc
       -0.03075403 0.106971964 0.09111445 -0.020936446
000310 58 14 31 bd 27 e1 af bc 73 f0 26 bd aa a1 32 bd
       -0.043232292 -0.021469666 -0.040756654 -0.043611206
000320 28 6f 5e 3d 05 fb af bd 12 a3 53 bd e0 ef 31 3d
       0.054305226 -0.085928 -0.051669188 0.043441653
000330 7c a8 2e 3d 5b 3b 0a bd 96 02 62 bd 7f 75 76 3d
       0.042641148 -0.033748012 -0.055178247 0.060170647
000340 e7 32 39 3d 5c 3c a9 bd bc 77 4b bd 23 44 b2 bd
       0.04521456 -0.08263466 -0.049674734 -0.08704402
000350 63 c2 22 bb 7a 93 35 3c 86 08 a4 3d f4 03 0b 3d
       -0.0024835102 0.011082524 0.08009438 0.033939317
000360 e1 0f c3 3c 02 6b 7f bd db 65 4b bd fd 0f 05 3e
       0.023811283 -0.06235791 -0.049657684 0.1299438
000370 04 ce 98 bb 74 8f 0d 3d f3 03 5a bc 31 8d 9a 3d
       -0.004663231 0.034560636 -0.013306606 0.075464614
000380 89 b8 51 bd 41 d3 2c 3d 2e 61 39 bd 98 f2 e4 3c
       -0.051201377 0.042193655 -0.045258693 0.027947709
000390 58 91 90 3d 40 c9 92 3d 7a 69 79 3d 3e 65 bc bd
       0.07058972 0.07167292 0.060891606 -0.09198998
0003a0 ff c9 92 3d d6 19 8e 3c 08 69 8b bc ec e3 c5 3c
       0.07167434 0.017346304 -0.017017856 0.024156533
0003b0 21 42 e8 3d 30 77 1a 3b 70 79 4a bd 09 e9 ec 3d
       0.11340738 0.0023569576 -0.049432218 0.115678854
0003c0 05 f9 1c bd 85 0b 0a 3d cf 0b 3e bd f6 26 ac 3d
       -0.03832342 0.033702392 -0.04639798 0.08405869
0003d0 f5 ad 8a 3d 1a 31 44 bd 57 5a db bd 76 cb e0 bb
       0.06771461 -0.04789839 -0.1071059 -0.006860192
0003e0 75 a8 ba 3c 07 e3 44 3c 23 2b 0a bc 19 d6 db 3c
       0.022785405 0.012017018 -0.008433136 0.026835488
0003f0 a1 c5 b9 bd ac 50 0f be 50 28 3c bd 86 ed a4 bd
       -0.09070898 -0.13995618 -0.045936882 -0.080531165

lstm.bias_ih_l1 f4 [256]
000000 28 31 bd bd 38 e8 0a be 24 1a ef 3e a8 ad 34 3d
       -0.092378914 -0.13565147 0.4669963 0.044110924
000010 7c 13 b9 bd 08 73 d8 bd d4 fc fa 3b 68 e7 19 3d
       -0.090369195 -0.105688155 0.007659534 0.0375742
000020 48 e6 23 be 69 67 c1 3c 45 b5 ec 3c e2 7d 2a 3c
       -0.16005814 0.02360888 0.02889503 0.010405989
000030 0f 76 55 3c cb 2e cf bd 01 73 88 bd 19 fc e3 bd
       0.013028636 -0.10116347 -0.0666256 -0.11132068
000040 62 dc e9 bd 8f bd b4 3c 1b bd 00 3e 50 ff 3b 3e
       -0.11418988 0.022063045 0.12572138 0.18359113
000050 7f a5 0d be f0 e0 e0 bd c0 53 a8 3d fd 47 ea bd
       -0.13832663 -0.109804034 0.08219099 -0.11439512
000060 ab fd d9 bd 03 30 80 bc 83 e6 b5 bd cf cf 29 bd
       -0.106440865 -0.015647894 -0.08881857 -0.041457947
000070 45 d0 02 be 27 e6 96 bd f4 c7 03 be d0 d1 d3 bc
       -0.12774761 -0.07368117 -0.12869245 -0.025856882
000080 64 69 0c be 6a e7 c7 bd 9a f5 ec bd 44 09 42 bd
       -0.13712078 -0.097609356 -0.11570282 -0.047372118
000090 8d 6f 1a 3e 1b a2 68 bd b3 14 50 bd 2b 2a a5 3d
       0.15081616 -0.05679522 -0.05080099 0.080646835
0000a0 8b d0 d6 bd 94 e4 7d bd a5 8c 9f bd 8d 20 d2 3d
       -0.10488995 -0.061985567 -0.07790498 0.10260115
0000b0 05 01 40 bd c4 ed 9b bd 22 5a 7c bd 9c 2e ce bd
       -0.046875972 -0.076137096 -0.061609395 -0.10067484
0000c0 9a 2c 61 bd 78 3b ae 3e 6a af a8 bd 3e c8 d5 3e
       -0.054974176 0.34029746 -0.082365826 0.41754335
0000d0 f0 0c c5 3c 20 3d 9b 3c 42 6c c4 3b df 32 97 bd
       0.02405402 0.018950045 0.0059943506 -0.0738275
0000e0 0b 81 83 bd 4d d9 42 bc 8d 08 be bd 2d 1c c5 3e
       -0.06421097 -0.011892629 -0.09278975 0.3849806
0000f0 9e b8 e8 bc 3f b1 3e 3d 7a 05 c4 bd 2d e5 00 3c
       -0.028408345 0.046555754 -0.09571357 0.00786714
000100 12 35 83 3f 0b ff 87 3f 9c a9 7f 3f 6d 2c 85 3f
       1.0250571 1.0624708 0.9986818 1.0404183
000110 d8 2c 83 3f 21 5a 85 3f c4 86 7c 3f 77 f0 7c 3f
       1.024806 1.041813 0.98643136 0.9880442
000120 3a 28 8b 3f 95 a5 80 3f 82 95 80 3f bf 97 87 3f
       1.0871651 1.0050532 1.0045626 1.0593184
000130 3a 43 7e 3f 4b 36 81 3f 4f e2 84 3f 0c 63 8e 3f
       0.9932133 1.0094694 1.0381564 1.1123977
000140 f1 4b 7e 3f 5c 16 82 3f 52 3c 73 3f 11 2c 7b 3f
       0.9933463 1.0163074 0.95013916 0.98114115
000150 8a 98 8e 3f 58 13 73 3f fa 02 7f 3f 8d 37 77 3f
       1.1140301 0.9495139 0.99613917 0.9656914
000160 39 eb 85 3f 68 03 83 3f 85 d1 8d 3f ea 62 79 3f
       1.0462409 1.0235415 1.1079565 0.97416556
000170 7b b1 82 3f 9a db 7a 3f d0 14 8a 3f 0f cf 7f 3f
       1.0210413 0.97991335 1.0787601 0.9992532
000180 85 ae 84 3f f9 f4 73 3f 40 e3 88 3f 2c 44 77 3f
       1.0365759 0.95295674 1.0694351 0.965884
000190 77 06 67 3f b5 6d 7e 3f 75 66 80 3f b9 4e 71 3f
       0.9024424 0.9938615 1.0031267 0.94260746
0001a0 1d 7b 7a 3f 07 f6 85 3f e9 14 83 3f a1 0a 78 3f
       0.97844106 1.0465707 1.0240756 0.9689122
0001b0 81 c2 7d 3f 28 03 83 3f f0 5e 87 3f 89 58 87 3f
       0.99124914 1.0235338 1.0575848 1.0573894
0001c0 1c 76 79 3f 43 d2 74 3f e6 51 8a 3f 5d d8 7f 3f
       0.97445846 0.95633334 1.0806243 0.9993952
0001d0 4b 8a 80 3f 77 17 7f 3f a3 ce 89 3f ba e8 62 3f
       1.0042204 0.9964518 1.0766186 0.8863636
0001e0 99 fc 72 3f 9b cb 83 3f 56 88 8a 3f b2 47 63 3f
       0.94916683 1.029651 1.0822856 0.88781273
0001f0 40 75 82 3f 95 e4 7c 3f bb 7a 8b 3f 69 ce 80 3f
       1.0192032 0.9878629 1.0896829 1.0062991
000200 91 93 f1 bb 51 36 f1 3c af 65 e7 bd 90 78 cb bc
       -0.0073723276 0.029444845 -0.112986915 -0.024837762
000210 8e 0a 53 3c b7 04 84 3d 1d f1 9f 3d b5 7b 11 be
       0.012880934 0.06446212 0.078096606 -0.14207347
000220 f6 d4 ad 3c 40 bf 0c be 96 fb 1b be 4f 45 08 be
       0.021219712 -0.13744831 -0.15232691 -0.13307689
000230 6a 0b 27 3d 20 b0 45 3d ec b3 b8 3d 19 bb 3e 3d
       0.04078237 0.04826367 0.090186924 0.04656515
000240 89 39 bd 3b 2c ad 30 be 21 bf 9e 3e e6 3e 89 be
       0.005774681 -0.1725356 0.31005195 -0.268058
000250 61 5f 56 3c 82 59 67 3d e7 0c a6 bd a3 93 70 3b
       0.013084264 0.056481846 -0.0810793 0.0036709092
000260 00 c8 1d b9 a9 85 ee bd cf e9 c7 bc 94 f9 9a 3d
       -0.00015047193 -0.116465874 -0.02440348 0.075671345
000270 60 1d c4 ba 3e 77 c7 3c 3c e8 0a bd 65 1c 23 3d
       -0.0014962368 0.024348851 -0.033912882 0.039822
000280 a3 3e 01 3d 56 00 ec bc 3d 9d 54 bd 1a ee ad bd
       0.031553876 -0.028808754 -0.051907767 -0.0849268
000290 74 07 7a be 0f 86 14 be 62 dc 02 3e b6 a2 5c be
       -0.24416906 -0.14504264 0.12779382 -0.21546444
0002a0 b1 5e 16 bd d0 ae 34 bd 1e 02 69 bc 8d 37 3f 3e
       -0.0367114 -0.044112027 -0.014221696 0.18673535
0002b0 28 11 11 3e 9f 51 04 bd a2 f1 6a bd ef 4a 7d 3b
       0.14166701 -0.032304402 -0.057359345 0.00386494
0002c0 cf 55 0a be 49 67 57 3e 1d 7f 6e bd e8 42 af 3d
       -0.13509296 0.21035494 -0.058226693 0.08557683
0002d0 3b 0d 25 3e b0 05 5f 3d 49 ef ad bd 9f dd 12 be
       0.16118328 0.054448783 -0.08492906 -0.14342354
0002e0 98 46 44 3d 15 7b 48 bd 3b 47 8c 3c 28 1f a9 3e
       0.047918886 -0.048945505 0.01712381 0.33031583
0002f0 13 9b 1d 3b b3 31 77 bd d6 a9 80 bc 7f b8 3d 3e
       0.002404873 -0.06035013 -0.015705984 0.18527411
000300 af e9 f2 bc b2 a3 49 bc 2f 64 e9 3c 66 a5 de 3c
       -0.029652445 -0.012307094 0.028490154 0.027178477
000310 69 14 05 bd f9 11 a8 bd e1 6c 2b bd 48 ee 3d 3b
       -0.032490168 -0.08206553 -0.041851882 0.0028981138
000320 e4 b4 0f 3c ee 79 a8 3c 20 5e 34 3c 28 11 f0 3c
       0.008771155 0.020565953 0.011008769 0.029305056
000330 8f dc 80 bd bb ee 11 bd 0a a4 b7 3c 04 db 8c 3c
       -0.06292068 -0.03562806 0.022417087 0.017194279
000340 0a 2e 8f bd c8 90 1f bc 6e a9 b4 3c b4 ee 8e 3c
       -0.06991203 -0.009739108 0.022053447 0.017447807
000350 8c bd bb 3c 5a d3 b7 bd f1 ea 7b 3d 20 de c5 bd
       0.022917531 -0.08975859 0.061503354 -0.096615076
000360 5c f6 2d bc 31 cd 2a bc 09 de 70 3d 72 02 5c bc
       -0.010617819 -0.010424898 0.0588055 -0.013428317
000370 8d a7 8c bc da e5 8d bd 9c 28 0d bd 2a ab be bb
       -0.017169738 -0.06928606 -0.034462556 -0.005818744
000380 62 a1 ca bd e9 52 c8 bd 97 93 e1 bb 5f 23 3a bd
       -0.098940626 -0.09781439 -0.006884049 -0.04544389
000390 12 c8 29 bc 3c a8 20 bd ba 62 45 bd 6e 08 16 bd
       -0.010362642 -0.03922294 -0.048189856 -0.036629133
0003a0 30 87 b0 bd 65 69 f4 ba 70 84 3e bd 17 6f 3b bc
       -0.08619535 -0.0018647133 -0.04651302 -0.01144006
0003b0 7c 4c 67 bd c8 cb 0f bd 26 aa 88 bc 3e 97 85 bc
       -0.056469426 -0.03510645 -0.016682696 -0.01630747
0003c0 a8 80 70 bd ea 4d 08 3d e5 a6 25 3d 48 b9 43 bc
       -0.058716446 0.03327743 0.040442366 -0.01194603
0003d0 42 29 b1 3b cd 42 57 bd 91 b6 5a 3b 5a 3d ae bd
       0.0054065296 -0.05255394 0.0033372978 -0.08507796
0003e0 83 74 80 bd ab 26 fa 3a e6 d9 8f 3c 31 1a 04 3d
       -0.06272223 0.001908501 0.017559957 0.03225154
0003f0 82 38 30 bd 07 a5 45 bd 93 ab a0 3c 27 57 f9 bc
       -0.04302264 -0.048253085 0.019613063 -0.030437065
